…
  top: "mask_label"
  top: "glass_label"
  top: "expre_label"
  top: "block_label"
  top: "weizu_label"
  include {
    phase: TRAIN
  }
  python_param {
    module: "myDataLayer"
    layer: "Data_Layer_train"
    param_str: "{\"mirror\": True, \"illumination\": True, \"crop_size\": (112,112), \"batch_size\": 256,  \"max_rotate_angle\": 30, \"src_file\": \"/workspace/mnt/group/face/chendan/CelebA/code/mobilenet_attribute7/src/train.txt\",\"img_basepath\": \"/workspace/mnt/group/face/chendan/CelebA/code/eight-attributes/images/images_all_v2\"}"
  }
}
layer {
  name: "conv1"
  type: "Convolution"
  bottom: "data"
  top: "conv1"
  param {
    lr_mult: 1
    decay_mult: 1
  }
  convolution_param {
    num_output: 32
    bias_term: false
    pad: 1
    kernel_size: 3
    stride: 2
    weight_filler {
      type: "msra"
    }
  }
}
layer {
  name: "conv1/bn"
  type: "BatchNorm"
  bottom: "conv1"
  top: "conv1"
  batch_norm_param {
    use_global_stats: false
    eps: 1e-05
  }
}
layer {
  name: "conv1/scale"
  type: "Scale"
  bottom: "conv1"
  top: "conv1"
  param {
    lr_mult: 1
    decay_mult: 0
  }
  param {
    lr_mult: 1
    decay_mult: 0
  }
  scale_param {
    filler {
      value: 1
    }
    bias_term: true
    bias_filler {
      value: 0
    }
  }
}
layer {
  name: "relu1"
  type: "ReLU"
  bottom: "conv1"
  top: "conv1"
}
layer {
  name: "conv2_1/dw"
  type: "DepthwiseConvolution"
  bottom: "conv1"
  top: "conv2_1/dw"
  param {
    lr_mult: 1
    decay_mult: 1
  }
  convolution_param {
    num_output: 32
    bias_term: false
    pad: 1
    kernel_size: 3
    group: 32
    stride: 1
    weight_filler {
      type: "msra"
    }
    engine: CAFFE
  }
}
layer {
  name: "conv2_1/dw/bn"
  type: "BatchNorm"
  bottom: "conv2_1/dw"
  top: "conv2_1/dw"
  batch_norm_param {
    use_global_stats: false
    eps: 1e-05
  }
}
layer {
  name: "conv2_1/dw/scale"
  type: "Scale"
  bottom: "conv2_1/dw"
  top: "conv2_1/dw"
  param {
    lr_mult: 1
    decay_mult: 0
  }
  param {
    lr_mult: 1
    decay_mult: 0
  }
  scale_param {
    filler {
      value: 1
    }
    bias_term: true
    bias_filler {
      value: 0
    }
  }
}
layer {
  name: "relu2_1/dw"
  type: "ReLU"
  bottom: "conv2_1/dw"
  top: "conv2_1/dw"
}
layer {
  name: "conv2_1/sep"
  type: "Convolution"
  bottom: "conv2_1/dw"
  top: "conv2_1/sep"
  param {
    lr_mult: 1
    decay_mult: 1
  }
  convolution_param {
    num_output: 64
    bias_term: false
    pad: 0
    kernel_size: 1
    stride: 1
    weight_filler {
      type: "msra"
    }
  }
}
layer {
  name: "conv2_1/sep/bn"
  type: "BatchNorm"
  bottom: "conv2_1/sep"
  top: "conv2_1/sep"
  batch_norm_param {
    use_global_stats: false
    eps: 1e-05
  }
}
layer {
  name: "conv2_1/sep/scale"
  type: "Scale"
  bottom: "conv2_1/sep"
  top: "conv2_1/sep"
  param {
    lr_mult: 1
    decay_mult: 0
  }
  param {
    lr_mult: 1
    decay_mult: 0
  }
  scale_param {
    filler {
      value: 1
    }
    bias_term: true
    bias_filler {
      value: 0
    }
  }
}
layer {
  name: "relu2_1/sep"
  type: "ReLU"
  bottom: "conv2_1/sep"
  top: "conv2_1/sep"
}
layer {
  name: "conv2_2/dw"
  type: "DepthwiseConvolution"
  bottom: "conv2_1/sep"
  top: "conv2_2/dw"
  param {
    lr_mult: 1
    decay_mult: 1
  }
  convolution_param {
    num_output: 64
    bias_term: false
    pad: 1
    kernel_size: 3
    group: 64
    stride: 2
    weight_filler {
      type: "msra"
    }
    engine: CAFFE
  }
}
layer {
  name: "conv2_2/dw/bn"
  type: "BatchNorm"
  bottom: "conv2_2/dw"
  top: "conv2_2/dw"
  batch_norm_param {
    use_global_stats: false
    eps: 1e-05
  }
}
layer {
  name: "conv2_2/dw/scale"
  type: "Scale"
  bottom: "conv2_2/dw"
  top: "conv2_2/dw"
  param {
    lr_mult: 1
    decay_mult: 0
  }
  param {
    lr_mult: 1
    decay_mult: 0
  }
  scale_param {
    filler {
      value: 1
    }
    bias_term: true
    bias_filler {
      value: 0
    }
  }
}
layer {
  name: "relu2_2/dw"
  type: "ReLU"
  bottom: "conv2_2/dw"
  top: "conv2_2/dw"
}
layer {
  name: "conv2_2/sep"
  type: "Convolution"
  bottom: "conv2_2/dw"
  top: "conv2_2/sep"
  param {
    lr_mult: 1
    decay_mult: 1
  }
  convolution_param {
    num_output: 128
    bias_term: false
    pad: 0
    kernel_size: 1
    stride: 1
    weight_filler {
      type: "msra"
    }
  }
}
layer {
  name: "conv2_2/sep/bn"
  type: "BatchNorm"
  bottom: "conv2_2/sep"
  top: "conv2_2/sep"
  batch_norm_param {
    use_global_stats: false
    eps: 1e-05
  }
}
layer {
  name: "conv2_2/sep/scale"
  type: "Scale"
  bottom: "conv2_2/sep"
  top: "conv2_2/sep"
  param {
    lr_mult: 1
    decay_mult: 0
  }
  param {
    lr_mult: 1
    decay_mult: 0
  }
  scale_param {
    filler {
      value: 1
    }
    bias_term: true
    bias_filler {
      value: 0
    }
  }
}
layer {
  name: "relu2_2/sep"
  type: "ReLU"
  bottom: "conv2_2/sep"
  top: "conv2_2/sep"
}
layer {
  name: "conv3_1/dw"
  type: "DepthwiseConvolution"
  bottom: "conv2_2/sep"
  top: "conv3_1/dw"
  param {
    lr_mult: 1
    decay_mult: 1
  }
  convolution_param {
    num_output: 128
    bias_term: false
    pad: 1
    kernel_size: 3
    group: 128
    stride: 1
    weight_filler {
      type: "msra"
    }
    engine: CAFFE
  }
}
layer {
  name: "conv3_1/dw/bn"
  type: "BatchNorm"
  bottom: "conv3_1/dw"
  top: "conv3_1/dw"
  batch_norm_param {
    use_global_stats: false
    eps: 1e-05
  }
}
layer {
  name: "conv3_1/dw/scale"
  type: "Scale"
  bottom: "conv3_1/dw"
  top: "conv3_1/dw"
  param {
    lr_mult: 1
    decay_mult: 0
  }
  param {
    lr_mult: 1
    decay_mult: 0
  }
  scale_param {
    filler {
      value: 1
    }
    bias_term: true
    bias_filler {
      value: 0
    }
  }
}
layer {
  name: "relu3_1/dw"
  type: "ReLU"
  bottom: "conv3_1/dw"
  top: "conv3_1/dw"
}
layer {
  name: "conv3_1/sep"
  type: "Convolution"
  bottom: "conv3_1/dw"
  top: "conv3_1/sep"
  param {
    lr_mult: 1
    decay_mult: 1
  }
  convolution_param {
    num_output: 128
    bias_term: false
    pad: 0
    kernel_size: 1
    stride: 1
    weight_filler {
      type: "msra"
    }
  }
}
layer {
  name: "conv3_1/sep/bn"
  type: "BatchNorm"
  bottom: "conv3_1/sep"
  top: "conv3_1/sep"
  batch_norm_param {
    use_global_stats: false
    eps: 1e-05
  }
}
layer {
  name: "conv3_1/sep/scale"
  type: "Scale"
  bottom: "conv3_1/sep"
  top: "conv3_1/sep"
  param {
    lr_mult: 1
    decay_mult: 0
  }
  param {
    lr_mult: 1
    decay_mult: 0
  }
  scale_param {
    filler {
      value: 1
    }
    bias_term: true
    bias_filler {
      value: 0
    }
  }
}
layer {
  name: "relu3_1/sep"
  type: "ReLU"
  bottom: "conv3_1/sep"
  top: "conv3_1/sep"
}
layer {
  name: "conv3_2/dw"
  type: "Convolution"
  bottom: "conv3_1/sep"
  top: "conv3_2/dw"
  param {
    lr_mult: 1
    decay_mult: 1
  }
  convolution_param {
    num_output: 128
    bias_term: false
    pad: 1
    kernel_size: 3
    group: 128
    stride: 2
    weight_filler {
      type: "msra"
    }
    engine: CAFFE
  }
}
layer {
  name: "conv3_2/dw/bn"
  type: "BatchNorm"
  bottom: "conv3_2/dw"
  top: "conv3_2/dw"
  batch_norm_param {
    use_global_stats: false
    eps: 1e-05
  }
}
layer {
  name: "conv3_2/dw/scale"
  type: "Scale"
  bottom: "conv3_2/dw"
  top: "conv3_2/dw"
  param {
    lr_mult: 1
    decay_mult: 0
  }
  param {
    lr_mult: 1
    decay_mult: 0
  }
  scale_param {
    filler {
      value: 1
    }
    bias_term: true
    bias_filler {
      value: 0
    }
  }
}
layer {
  name: "relu3_2/dw"
  type: "ReLU"
  bottom: "conv3_2/dw"
  top: "conv3_2/dw"
}
layer {
  name: "conv3_2/sep"
  type: "Convolution"
  bottom: "conv3_2/dw"
  top: "conv3_2/sep"
  param {
    lr_mult: 1
    decay_mult: 1
  }
  convolution_param {
    num_output: 256
    bias_term: false
    pad: 0
    kernel_size: 1
    stride: 1
    weight_filler {
      type: "msra"
    }
  }
}
layer {
  name: "conv3_2/sep/bn"
  type: "BatchNorm"
  bottom: "conv3_2/sep"
  top: "conv3_2/sep"
  batch_norm_param {
    use_global_stats: false
    eps: 1e-05
  }
}
layer {
  name: "conv3_2/sep/scale"
  type: "Scale"
  bottom: "conv3_2/sep"
  top: "conv3_2/sep"
  param {
    lr_mult: 1
    decay_mult: 0
  }
  param {
    lr_mult: 1
    decay_mult: 0
  }
  scale_param {
    filler {
      value: 1
    }
    bias_term: true
    bias_filler {
      value: 0
    }
  }
}
layer {
  name: "relu3_2/sep"
  type: "ReLU"
  bottom: "conv3_2/sep"
  top: "conv3_2/sep"
}
layer {
  name: "conv4_1/dw"
  type: "DepthwiseConvolution"
  bottom: "conv3_2/sep"
  top: "conv4_1/dw"
  param {
    lr_mult: 1
    decay_mult: 1
  }
  convolution_param {
    num_output: 256
    bias_term: false
    pad: 1
    kernel_size: 3
    group: 256
    stride: 1
    weight_filler {
      type: "msra"
    }
    engine: CAFFE
  }
}
layer {
  name: "conv4_1/dw/bn"
  type: "BatchNorm"
  bottom: "conv4_1/dw"
  top: "conv4_1/dw"
  batch_norm_param {
    use_global_stats: false
    eps: 1e-05
  }
}
layer {
  name: "conv4_1/dw/scale"
  type: "Scale"
  bottom: "conv4_1/dw"
  top: "conv4_1/dw"
  param {
    lr_mult: 1
    decay_mult: 0
  }
  param {
    lr_mult: 1
    decay_mult: 0
  }
  scale_param {
    filler {
      value: 1
    }
    bias_term: true
    bias_filler {
      value: 0
    }
  }
}
layer {
  name: "relu4_1/dw"
  type: "ReLU"
  bottom: "conv4_1/dw"
  top: "conv4_1/dw"
}
layer {
  name: "conv4_1/sep"
  type: "Convolution"
  bottom: "conv4_1/dw"
  top: "conv4_1/sep"
  param {
    lr_mult: 1
    decay_mult: 1
  }
  convolution_param {
    num_output: 256
    bias_term: false
    pad: 0
    kernel_size: 1
    stride: 1
    weight_filler {
      type: "msra"
    }
  }
}
layer {
  name: "conv4_1/sep/bn"
  type: "BatchNorm"
  bottom: "conv4_1/sep"
  top: "conv4_1/sep"
  batch_norm_param {
    use_global_stats: false
    eps: 1e-05
  }
}
layer {
  name: "conv4_1/sep/scale"
  type: "Scale"
  bottom: "conv4_1/sep"
  top: "conv4_1/sep"
  param {
    lr_mult: 1
    decay_mult: 0
  }
  param {
    lr_mult: 1
    decay_mult: 0
  }
  scale_param {
    filler {
      value: 1
    }
    bias_term: true
    bias_filler {
      value: 0
    }
  }
}
layer {
  name: "relu4_1/sep"
  type: "ReLU"
  bottom: "conv4_1/sep"
  top: "conv4_1/sep"
}
layer {
  name: "conv4_2/dw"
  type: "DepthwiseConvolution"
  bottom: "conv4_1/sep"
  top: "conv4_2/dw"
  param {
    lr_mult: 1
    decay_mult: 1
  }
  convolution_param {
    num_output: 256
    bias_term: false
    pad: 1
    kernel_size: 3
    group: 256
    stride: 2
    weight_filler {
      type: "msra"
    }
    engine: CAFFE
  }
}
layer {
  name: "conv4_2/dw/bn"
  type: "BatchNorm"
  bottom: "conv4_2/dw"
  top: "conv4_2/dw"
  batch_norm_param {
    use_global_stats: false
    eps: 1e-05
  }
}
layer {
  name: "conv4_2/dw/scale"
  type: "Scale"
  bottom: "conv4_2/dw"
  top: "conv4_2/dw"
  param {
    lr_mult: 1
    decay_mult: 0
  }
  param {
    lr_mult: 1
    decay_mult: 0
  }
  scale_param {
    filler {
      value: 1
    }
    bias_term: true
    bias_filler {
      value: 0
    }
  }
}
layer {
  name: "relu4_2/dw"
  type: "ReLU"
  bottom: "conv4_2/dw"
  top: "conv4_2/dw"
}
layer {
  name: "conv4_2/sep"
  type: "Convolution"
  bottom: "conv4_2/dw"
  top: "conv4_2/sep"
  param {
    lr_mult: 1
    decay_mult: 1
  }
  convolution_param {
    num_output: 512
    bias_term: false
    pad: 0
    kernel_size: 1
    stride: 1
    weight_filler {
      type: "msra"
    }
  }
}
layer {
  name: "conv4_2/sep/bn"
  type: "BatchNorm"
  bottom: "conv4_2/sep"
  top: "conv4_2/sep"
  batch_norm_param {
    use_global_stats: false
    eps: 1e-05
  }
}
layer {
  name: "conv4_2/sep/scale"
  type: "Scale"
  bottom: "conv4_2/sep"
  top: "conv4_2/sep"
  param {
    lr_mult: 1
    decay_mult: 0
  }
  param {
    lr_mult: 1
    decay_mult: 0
  }
  scale_param {
    filler {
      value: 1
    }
    bias_term: true
    bias_filler {
      value: 0
    }
  }
}
layer {
  name: "relu4_2/sep"
  type: "ReLU"
  bottom: "conv4_2/sep"
  top: "conv4_2/sep"
}
layer {
  name: "conv5_1/dw"
  type: "DepthwiseConvolution"
  bottom: "conv4_2/sep"
  top: "conv5_1/dw"
  param {
    lr_mult: 1
    decay_mult: 1
  }
  convolution_param {
    num_output: 512
    bias_term: false
    pad: 1
    kernel_size: 3
    group: 512
    stride: 1
    weight_filler {
      type: "msra"
    }
    engine: CAFFE
  }
}
layer {
  name: "conv5_1/dw/bn"
  type: "BatchNorm"
  bottom: "conv5_1/dw"
  top: "conv5_1/dw"
  batch_norm_param {
    use_global_stats: false
    eps: 1e-05
  }
}
layer {
  name: "conv5_1/dw/scale"
  type: "Scale"
  bottom: "conv5_1/dw"
  top: "conv5_1/dw"
  param {
    lr_mult: 1
    decay_mult: 0
  }
  param {
    lr_mult: 1
    decay_mult: 0
  }
  scale_param {
    filler {
      value: 1
    }
    bias_term: true
    bias_filler {
      value: 0
    }
  }
}
layer {
  name: "relu5_1/dw"
  type: "ReLU"
  bottom: "conv5_1/dw"
  top: "conv5_1/dw"
}
layer {
  name: "conv5_1/sep"
  type: "Convolution"
  bottom: "conv5_1/dw"
  top: "conv5_1/sep"
  param {
    lr_mult: 1
    decay_mult: 1
  }
  convolution_param {
    num_output: 512
    bias_term: false
    pad: 0
    kernel_size: 1
    stride: 1
    weight_filler {
      type: "msra"
    }
  }
}
layer {
  name: "conv5_1/sep/bn"
  type: "BatchNorm"
  bottom: "conv5_1/sep"
  top: "conv5_1/sep"
  batch_norm_param {
    use_global_stats: false
    eps: 1e-05
  }
}
layer {
  name: "conv5_1/sep/scale"
  type: "Scale"
  bottom: "conv5_1/sep"
  top: "conv5_1/sep"
  param {
    lr_mult: 1
    decay_mult: 0
  }
  param {
    lr_mult: 1
    decay_mult: 0
  }
  scale_param {
    filler {
      value: 1
    }
    bias_term: true
    bias_filler {
      value: 0
    }
  }
}
layer {
  name: "relu5_1/sep"
  type: "ReLU"
  bottom: "conv5_1/sep"
  top: "conv5_1/sep"
}
layer {
  name: "conv5_2/dw"
  type: "DepthwiseConvolution"
  bottom: "conv5_1/sep"
  top: "conv5_2/dw"
  param {
    lr_mult: 1
    decay_mult: 1
  }
  convolution_param {
    num_output: 512
    bias_term: false
    pad: 1
    kernel_size: 3
    group: 512
    stride: 1
    weight_filler {
      type: "msra"
    }
    engine: CAFFE
  }
}
layer {
  name: "conv5_2/dw/bn"
  type: "BatchNorm"
  bottom: "conv5_2/dw"
  top: "conv5_2/dw"
  batch_norm_param {
    use_global_stats: false
    eps: 1e-05
  }
}
layer {
  name: "conv5_2/dw/scale"
  type: "Scale"
  bottom: "conv5_2/dw"
  top: "conv5_2/dw"
  param {
    lr_mult: 1
    decay_mult: 0
  }
  param {
    lr_mult: 1
    decay_mult: 0
  }
  scale_param {
    filler {
      value: 1
    }
    bias_term: true
    bias_filler {
      value: 0
    }
  }
}
layer {
  name: "relu5_2/dw"
  type: "ReLU"
  bottom: "conv5_2/dw"
  top: "conv5_2/dw"
}
layer {
  name: "conv5_2/sep"
  type: "Convolution"
  bottom: "conv5_2/dw"
  top: "conv5_2/sep"
  param {
    lr_mult: 1
    decay_mult: 1
  }
  convolution_param {
    num_output: 512
    bias_term: false
    pad: 0
    kernel_size: 1
    stride: 1
    weight_filler {
      type: "msra"
    }
  }
}
layer {
  name: "conv5_2/sep/bn"
  type: "BatchNorm"
  bottom: "conv5_2/sep"
  top: "conv5_2/sep"
  batch_norm_param {
    use_global_stats: false
    eps: 1e-05
  }
}
layer {
  name: "conv5_2/sep/scale"
  type: "Scale"
  bottom: "conv5_2/sep"
  top: "conv5_2/sep"
  param {
    lr_mult: 1
    decay_mult: 0
  }
  param {
    lr_mult: 1
    decay_mult: 0
  }
  scale_param {
    filler {
      value: 1
    }
    bias_term: true
    bias_filler {
      value: 0
    }
  }
}
layer {
  name: "relu5_2/sep"
  type: "ReLU"
  bottom: "conv5_2/sep"
  top: "conv5_2/sep"
}
layer {
  name: "conv5_3/dw"
  type: "DepthwiseConvolution"
  bottom: "conv5_2/sep"
  top: "conv5_3/dw"
  param {
    lr_mult: 1
    decay_mult: 1
  }
  convolution_param {
    num_output: 512
    bias_term: false
    pad: 1
    kernel_size: 3
    group: 512
    stride: 1
    weight_filler {
      type: "msra"
    }
    engine: CAFFE
  }
}
layer {
  name: "conv5_3/dw/bn"
  type: "BatchNorm"
  bottom: "conv5_3/dw"
  top: "conv5_3/dw"
  batch_norm_param {
    use_global_stats: false
    eps: 1e-05
  }
}
layer {
  name: "conv5_3/dw/scale"
  type: "Scale"
  bottom: "conv5_3/dw"
  top: "conv5_3/dw"
  param {
    lr_mult: 1
    decay_mult: 0
  }
  param {
    lr_mult: 1
    decay_mult: 0
  }
  scale_param {
    filler {
      value: 1
    }
    bias_term: true
    bias_filler {
      value: 0
    }
  }
}
layer {
  name: "relu5_3/dw"
  type: "ReLU"
  bottom: "conv5_3/dw"
  top: "conv5_3/dw"
}
layer {
  name: "conv5_3/sep"
  type: "Convolution"
  bottom: "conv5_3/dw"
  top: "conv5_3/sep"
  param {
    lr_mult: 1
    decay_mult: 1
  }
  convolution_param {
    num_output: 512
    bias_term: false
    pad: 0
    kernel_size: 1
    stride: 1
    weight_filler {
      type: "msra"
    }
  }
}
layer {
  name: "conv5_3/sep/bn"
  type: "BatchNorm"
  bottom: "conv5_3/sep"
  top: "conv5_3/sep"
  batch_norm_param {
    use_global_stats: false
    eps: 1e-05
  }
}
layer {
  name: "conv5_3/sep/scale"
  type: "Scale"
  bottom: "conv5_3/sep"
  top: "conv5_3/sep"
  param {
    lr_mult: 1
    decay_mult: 0
  }
  param {
    lr_mult: 1
    decay_mult: 0
  }
  scale_param {
    filler {
      value: 1
    }
    bias_term: true
    bias_filler {
      value: 0
    }
  }
}
layer {
  name: "relu5_3/sep"
  type: "ReLU"
  bottom: "conv5_3/sep"
  top: "conv5_3/sep"
}
layer {
  name: "conv5_4/dw"
  type: "DepthwiseConvolution"
  bottom: "conv5_3/sep"
  top: "conv5_4/dw"
  param {
    lr_mult: 1
    decay_mult: 1
  }
  convolution_param {
    num_output: 512
    bias_term: false
    pad: 1
    kernel_size: 3
    group: 512
    stride: 1
    weight_filler {
      type: "msra"
    }
    engine: CAFFE
  }
}
layer {
  name: "conv5_4/dw/bn"
  type: "BatchNorm"
  bottom: "conv5_4/dw"
  top: "conv5_4/dw"
  batch_norm_param {
    use_global_stats: false
    eps: 1e-05
  }
}
layer {
  name: "conv5_4/dw/scale"
  type: "Scale"
  bottom: "conv5_4/dw"
  top: "conv5_4/dw"
  param {
    lr_mult: 1
    decay_mult: 0
  }
  param {
    lr_mult: 1
    decay_mult: 0
  }
  scale_param {
    filler {
      value: 1
    }
    bias_term: true
    bias_filler {
      value: 0
    }
  }
}
layer {
  name: "relu5_4/dw"
  type: "ReLU"
  bottom: "conv5_4/dw"
  top: "conv5_4/dw"
}
layer {
  name: "conv5_4/sep"
  type: "Convolution"
  bottom: "conv5_4/dw"
  top: "conv5_4/sep"
  param {
    lr_mult: 1
    decay_mult: 1
  }
  convolution_param {
    num_output: 512
    bias_term: false
    pad: 0
    kernel_size: 1
    stride: 1
    weight_filler {
      type: "msra"
    }
  }
}
layer {
  name: "conv5_4/sep/bn"
  type: "BatchNorm"
  bottom: "conv5_4/sep"
  top: "conv5_4/sep"
  batch_norm_param {
    use_global_stats: false
    eps: 1e-05
  }
}
layer {
  name: "conv5_4/sep/scale"
  type: "Scale"
  bottom: "conv5_4/sep"
  top: "conv5_4/sep"
  param {
    lr_mult: 1
    decay_mult: 0
  }
  param {
    lr_mult: 1
    decay_mult: 0
  }
  scale_param {
    filler {
      value: 1
    }
    bias_term: true
    bias_filler {
      value: 0
    }
  }
}
layer {
  name: "relu5_4/sep"
  type: "ReLU"
  bottom: "conv5_4/sep"
  top: "conv5_4/sep"
}
layer {
  name: "conv5_5/dw"
  type: "DepthwiseConvolution"
  bottom: "conv5_4/sep"
  top: "conv5_5/dw"
  param {
    lr_mult: 1
    decay_mult: 1
  }
  convolution_param {
    num_output: 512
    bias_term: false
    pad: 1
    kernel_size: 3
    group: 512
    stride: 1
    weight_filler {
      type: "msra"
    }
    engine: CAFFE
  }
}
layer {
  name: "conv5_5/dw/bn"
  type: "BatchNorm"
  bottom: "conv5_5/dw"
  top: "conv5_5/dw"
  batch_norm_param {
    use_global_stats: false
    eps: 1e-05
  }
}
layer {
  name: "conv5_5/dw/scale"
  type: "Scale"
  bottom: "conv5_5/dw"
  top: "conv5_5/dw"
  param {
    lr_mult: 1
    decay_mult: 0
  }
  param {
    lr_mult: 1
    decay_mult: 0
  }
  scale_param {
    filler {
      value: 1
    }
    bias_term: true
    bias_filler {
      value: 0
    }
  }
}
layer {
  name: "relu5_5/dw"
  type: "ReLU"
  bottom: "conv5_5/dw"
  top: "conv5_5/dw"
}
layer {
  name: "conv5_5/sep"
  type: "Convolution"
  bottom: "conv5_5/dw"
  top: "conv5_5/sep"
  param {
    lr_mult: 1
    decay_mult: 1
  }
  convolution_param {
    num_output: 512
    bias_term: false
    pad: 0
    kernel_size: 1
    stride: 1
    weight_filler {
      type: "msra"
    }
  }
}
layer {
  name: "conv5_5/sep/bn"
  type: "BatchNorm"
  bottom: "conv5_5/sep"
  top: "conv5_5/sep"
  batch_norm_param {
    use_global_stats: false
    eps: 1e-05
  }
}
layer {
  name: "conv5_5/sep/scale"
  type: "Scale"
  bottom: "conv5_5/sep"
  top: "conv5_5/sep"
  param {
    lr_mult: 1
    decay_mult: 0
  }
  param {
    lr_mult: 1
    decay_mult: 0
  }
  scale_param {
    filler {
      value: 1
    }
    bias_term: true
    bias_filler {
      value: 0
    }
  }
}
layer {
  name: "relu5_5/sep"
  type: "ReLU"
  bottom: "conv5_5/sep"
  top: "conv5_5/sep"
}
layer {
  name: "conv5_6/dw"
  type: "DepthwiseConvolution"
  bottom: "conv5_5/sep"
  top: "conv5_6/dw"
  param {
    lr_mult: 1
    decay_mult: 1
  }
  convolution_param {
    num_output: 512
    bias_term: false
    pad: 1
    kernel_size: 3
    group: 512
    stride: 2
    weight_filler {
      type: "msra"
    }
    engine: CAFFE
  }
}
layer {
  name: "conv5_6/dw/bn"
  type: "BatchNorm"
  bottom: "conv5_6/dw"
  top: "conv5_6/dw"
  batch_norm_param {
    use_global_stats: false
    eps: 1e-05
  }
}
layer {
  name: "conv5_6/dw/scale"
  type: "Scale"
  bottom: "conv5_6/dw"
  top: "conv5_6/dw"
  param {
    lr_mult: 1
    decay_mult: 0
  }
  param {
    lr_mult: 1
    decay_mult: 0
  }
  scale_param {
    filler {
      value: 1
    }
    bias_term: true
    bias_filler {
      value: 0
    }
  }
}
layer {
  name: "relu5_6/dw"
  type: "ReLU"
  bottom: "conv5_6/dw"
  top: "conv5_6/dw"
}
layer {
  name: "conv5_6/sep"
  type: "Convolution"
  bottom: "conv5_6/dw"
  top: "conv5_6/sep"
  param {
    lr_mult: 1
    decay_mult: 1
  }
  convolution_param {
    num_output: 1024
    bias_term: false
    pad: 0
    kernel_size: 1
    stride: 1
    weight_filler {
      type: "msra"
    }
  }
}
layer {
  name: "conv5_6/sep/bn"
  type: "BatchNorm"
  bottom: "conv5_6/sep"
  top: "conv5_6/sep"
  batch_norm_param {
    use_global_stats: false
    eps: 1e-05
  }
}
layer {
  name: "conv5_6/sep/scale"
  type: "Scale"
  bottom: "conv5_6/sep"
  top: "conv5_6/sep"
  param {
    lr_mult: 1
    decay_mult: 0
  }
  param {
    lr_mult: 1
    decay_mult: 0
  }
  scale_param {
    filler {
      value: 1
    }
    bias_term: true
    bias_filler {
      value: 0
    }
  }
}
layer {
  name: "relu5_6/sep"
  type: "ReLU"
  bottom: "conv5_6/sep"
  top: "conv5_6/sep"
}
layer {
  name: "conv6/dw"
  type: "DepthwiseConvolution"
  bottom: "conv5_6/sep"
  top: "conv6/dw"
  param {
    lr_mult: 1
    decay_mult: 1
  }
  convolution_param {
    num_output: 1024
    bias_term: false
    pad: 1
    kernel_size: 3
    group: 1024
    stride: 1
    weight_filler {
      type: "msra"
    }
    engine: CAFFE
  }
}
layer {
  name: "conv6/dw/bn"
  type: "BatchNorm"
  bottom: "conv6/dw"
  top: "conv6/dw"
  batch_norm_param {
    use_global_stats: false
    eps: 1e-05
  }
}
layer {
  name: "conv6/dw/scale"
  type: "Scale"
  bottom: "conv6/dw"
  top: "conv6/dw"
  param {
    lr_mult: 1
    decay_mult: 0
  }
  param {
    lr_mult: 1
    decay_mult: 0
  }
  scale_param {
    filler {
      value: 1
    }
    bias_term: true
    bias_filler {
      value: 0
    }
  }
}
layer {
  name: "relu6/dw"
  type: "ReLU"
  bottom: "conv6/dw"
  top: "conv6/dw"
}
layer {
  name: "conv6/sep"
  type: "Convolution"
  bottom: "conv6/dw"
  top: "conv6/sep"
  param {
    lr_mult: 1
    decay_mult: 1
  }
  convolution_param {
    num_output: 1024
    bias_term: false
    pad: 0
    kernel_size: 1
    stride: 1
    weight_filler {
      type: "msra"
    }
  }
}
layer {
  name: "conv6/sep/bn"
  type: "BatchNorm"
  bottom: "conv6/sep"
  top: "conv6/sep"
  batch_norm_param {
    use_global_stats: false
    eps: 1e-05
  }
}
layer {
  name: "conv6/sep/scale"
  type: "Scale"
  bottom: "conv6/sep"
  top: "conv6/sep"
  param {
    lr_mult: 1
    decay_mult: 0
  }
  param {
    lr_mult: 1
    decay_mult: 0
  }
  scale_param {
    filler {
      value: 1
    }
    bias_term: true
    bias_filler {
      value: 0
    }
  }
}
layer {
  name: "relu6/sep"
  type: "ReLU"
  bottom: "conv6/sep"
  top: "conv6/sep"
}
layer {
  name: "pool6"
  type: "Pooling"
  bottom: "conv6/sep"
  top: "pool6"
  pooling_param {
    pool: AVE
    global_pooling: true
  }
}
layer {
  name: "cls_gender"
  type: "Convolution"
  bottom: "pool6"
  top: "cls_gender"
  param {
    lr_mult: 1
    decay_mult: 1
  }
  param {
    lr_mult: 2
    decay_mult: 0
  }
  convolution_param {
    num_output: 2
    kernel_size: 1
    weight_filler {
      type: "msra"
    }
    bias_filler {
      type: "constant"
      value: 0
    }
  }
}
layer {
  name: "loss_gender"
  type: "SoftmaxWithLoss"
  bottom: "cls_gender"
  bottom: "gender_label"
  top: "loss_gender"
}
layer {
  name: "cls_age"
  type: "Convolution"
  bottom: "pool6"
  top: "cls_age"
  param {
    lr_mult: 1
    decay_mult: 1
  }
  param {
    lr_mult: 2
    decay_mult: 0
  }
  convolution_param {
    num_output: 7
    kernel_size: 1
    weight_filler {
      type: "msra"
    }
    bias_filler {
      type: "constant"
      value: 0
    }
  }
}
layer {
  name: "loss_age"
  type: "SoftmaxWithLoss"
  bottom: "cls_age"
  bottom: "age_label"
  top: "loss_age"
}
layer {
  name: "cls_mask"
  type: "Convolution"
  bottom: "pool6"
  top: "cls_mask"
  param {
    lr_mult: 1
    decay_mult: 1
  }
  param {
    lr_mult: 2
    decay_mult: 0
  }
  convolution_param {
    num_output: 2
    kernel_size: 1
    weight_filler {
      type: "msra"
    }
    bias_filler {
      type: "constant"
      value: 0
    }
  }
}
layer {
  name: "loss_mask"
  type: "SoftmaxWithLoss"
  bottom: "cls_mask"
  bottom: "mask_label"
  top: "loss_mask"
}
layer {
  name: "cls_glass"
  type: "Convolution"
  bottom: "pool6"
  top: "cls_glass"
  param {
    lr_mult: 1
    decay_mult: 1
  }
  param {
    lr_mult: 2
    decay_mult: 0
  }
  convolution_param {
    num_output: 3
    kernel_size: 1
    weight_filler {
      type: "msra"
    }
    bias_filler {
      type: "constant"
      value: 0
    }
  }
}
layer {
  name: "loss_glass"
  type: "SoftmaxWithLoss"
  bottom: "cls_glass"
  bottom: "glass_label"
  top: "loss_glass"
}
layer {
  name: "cls_expre"
  type: "Convolution"
  bottom: "pool6"
  top: "cls_expre"
  param {
    lr_mult: 1
    decay_mult: 1
  }
  param {
    lr_mult: 2
    decay_mult: 0
  }
  convolution_param {
    num_output: 2
    kernel_size: 1
    weight_filler {
      type: "msra"
    }
    bias_filler {
      type: "constant"
      value: 0
    }
  }
}
layer {
  name: "loss_expre"
  type: "SoftmaxWithLoss"
  bottom: "cls_expre"
  bottom: "expre_label"
  top: "loss_expre"
}
layer {
  name: "cls_block"
  type: "Convolution"
  bottom: "pool6"
  top: "cls_block"
  param {
    lr_mult: 1
    decay_mult: 1
  }
  param {
    lr_mult: 2
    decay_mult: 0
  }
  convolution_param {
    num_output: 2
    kernel_size: 1
    weight_filler {
      type: "msra"
    }
    bias_filler {
      type: "constant"
      value: 0
    }
  }
}
layer {
  name: "loss_block"
  type: "SoftmaxWithLoss"
  bottom: "cls_block"
  bottom: "block_label"
  top: "loss_block"
}
layer {
  name: "cls_weizu"
  type: "Convolution"
  bottom: "pool6"
  top: "cls_weizu"
  param {
    lr_mult: 1
    decay_mult: 1
  }
  param {
    lr_mult: 2
    decay_mult: 0
  }
  convolution_param {
    num_output: 2
    kernel_size: 1
    weight_filler {
      type: "msra"
    }
    bias_filler {
      type: "constant"
      value: 0
    }
  }
}
layer {
  name: "loss_weizu"
  type: "SoftmaxWithLoss"
  bottom: "cls_weizu"
  bottom: "weizu_label"
  top: "loss_weizu"
}
I1227 03:33:57.001412 39878 layer_factory.hpp:77] Creating layer data
I1227 03:33:57.020423 39878 net.cpp:86] Creating Layer data
I1227 03:33:57.020460 39878 net.cpp:382] data -> data
I1227 03:33:57.020480 39878 net.cpp:382] data -> gender_label
I1227 03:33:57.020488 39878 net.cpp:382] data -> age_label
I1227 03:33:57.020495 39878 net.cpp:382] data -> mask_label
I1227 03:33:57.020501 39878 net.cpp:382] data -> glass_label
I1227 03:33:57.020509 39878 net.cpp:382] data -> expre_label
I1227 03:33:57.020515 39878 net.cpp:382] data -> block_label
I1227 03:33:57.020521 39878 net.cpp:382] data -> weizu_label
I1227 03:33:57.171378 39878 net.cpp:124] Setting up data
I1227 03:33:57.171428 39878 net.cpp:131] Top shape: 256 3 112 112 (9633792)
I1227 03:33:57.171437 39878 net.cpp:131] Top shape: 256 1 (256)
I1227 03:33:57.171443 39878 net.cpp:131] Top shape: 256 1 (256)
I1227 03:33:57.171449 39878 net.cpp:131] Top shape: 256 1 (256)
I1227 03:33:57.171455 39878 net.cpp:131] Top shape: 256 1 (256)
I1227 03:33:57.171460 39878 net.cpp:131] Top shape: 256 1 (256)
I1227 03:33:57.171465 39878 net.cpp:131] Top shape: 256 1 (256)
I1227 03:33:57.171470 39878 net.cpp:131] Top shape: 256 1 (256)
I1227 03:33:57.171475 39878 net.cpp:139] Memory required for data: 38542336
I1227 03:33:57.171485 39878 layer_factory.hpp:77] Creating layer conv1
I1227 03:33:57.171514 39878 net.cpp:86] Creating Layer conv1
I1227 03:33:57.171524 39878 net.cpp:408] conv1 <- data
I1227 03:33:57.171537 39878 net.cpp:382] conv1 -> conv1
I1227 03:33:57.173923 39878 net.cpp:124] Setting up conv1
I1227 03:33:57.173943 39878 net.cpp:131] Top shape: 256 32 56 56 (25690112)
I1227 03:33:57.173950 39878 net.cpp:139] Memory required for data: 141302784
I1227 03:33:57.173974 39878 layer_factory.hpp:77] Creating layer conv1/bn
I1227 03:33:57.173995 39878 net.cpp:86] Creating Layer conv1/bn
I1227 03:33:57.174001 39878 net.cpp:408] conv1/bn <- conv1
I1227 03:33:57.174010 39878 net.cpp:369] conv1/bn -> conv1 (in-place)
I1227 03:33:57.176218 39878 net.cpp:124] Setting up conv1/bn
I1227 03:33:57.176244 39878 net.cpp:131] Top shape: 256 32 56 56 (25690112)
I1227 03:33:57.176254 39878 net.cpp:139] Memory required for data: 244063232
I1227 03:33:57.176280 39878 layer_factory.hpp:77] Creating layer conv1/scale
I1227 03:33:57.176306 39878 net.cpp:86] Creating Layer conv1/scale
I1227 03:33:57.176318 39878 net.cpp:408] conv1/scale <- conv1
I1227 03:33:57.176333 39878 net.cpp:369] conv1/scale -> conv1 (in-place)
I1227 03:33:57.176403 39878 layer_factory.hpp:77] Creating layer conv1/scale
I1227 03:33:57.176551 39878 net.cpp:124] Setting up conv1/scale
I1227 03:33:57.176565 39878 net.cpp:131] Top shape: 256 32 56 56 (25690112)
I1227 03:33:57.176571 39878 net.cpp:139] Memory required for data: 346823680
I1227 03:33:57.176582 39878 layer_factory.hpp:77] Creating layer relu1
I1227 03:33:57.176595 39878 net.cpp:86] Creating Layer relu1
I1227 03:33:57.176601 39878 net.cpp:408] relu1 <- conv1
I1227 03:33:57.176609 39878 net.cpp:369] relu1 -> conv1 (in-place)
I1227 03:33:57.176628 39878 net.cpp:124] Setting up relu1
I1227 03:33:57.176636 39878 net.cpp:131] Top shape: 256 32 56 56 (25690112)
I1227 03:33:57.176657 39878 net.cpp:139] Memory required for data: 449584128
I1227 03:33:57.176666 39878 layer_factory.hpp:77] Creating layer conv2_1/dw
I1227 03:33:57.176681 39878 net.cpp:86] Creating Layer conv2_1/dw
I1227 03:33:57.176687 39878 net.cpp:408] conv2_1/dw <- conv1
I1227 03:33:57.176695 39878 net.cpp:382] conv2_1/dw -> conv2_1/dw
I1227 03:33:57.176878 39878 net.cpp:124] Setting up conv2_1/dw
I1227 03:33:57.176898 39878 net.cpp:131] Top shape: 256 32 56 56 (25690112)
I1227 03:33:57.176908 39878 net.cpp:139] Memory required for data: 552344576
I1227 03:33:57.176916 39878 layer_factory.hpp:77] Creating layer conv2_1/dw/bn
I1227 03:33:57.176928 39878 net.cpp:86] Creating Layer conv2_1/dw/bn
I1227 03:33:57.176939 39878 net.cpp:408] conv2_1/dw/bn <- conv2_1/dw
I1227 03:33:57.176947 39878 net.cpp:369] conv2_1/dw/bn -> conv2_1/dw (in-place)
I1227 03:33:57.177139 39878 net.cpp:124] Setting up conv2_1/dw/bn
I1227 03:33:57.177156 39878 net.cpp:131] Top shape: 256 32 56 56 (25690112)
I1227 03:33:57.177165 39878 net.cpp:139] Memory required for data: 655105024
I1227 03:33:57.177184 39878 layer_factory.hpp:77] Creating layer conv2_1/dw/scale
I1227 03:33:57.177201 39878 net.cpp:86] Creating Layer conv2_1/dw/scale
I1227 03:33:57.177211 39878 net.cpp:408] conv2_1/dw/scale <- conv2_1/dw
I1227 03:33:57.177225 39878 net.cpp:369] conv2_1/dw/scale -> conv2_1/dw (in-place)
I1227 03:33:57.177278 39878 layer_factory.hpp:77] Creating layer conv2_1/dw/scale
I1227 03:33:57.177433 39878 net.cpp:124] Setting up conv2_1/dw/scale
I1227 03:33:57.177451 39878 net.cpp:131] Top shape: 256 32 56 56 (25690112)
I1227 03:33:57.177460 39878 net.cpp:139] Memory required for data: 757865472
I1227 03:33:57.177470 39878 layer_factory.hpp:77] Creating layer relu2_1/dw
I1227 03:33:57.177481 39878 net.cpp:86] Creating Layer relu2_1/dw
I1227 03:33:57.177492 39878 net.cpp:408] relu2_1/dw <- conv2_1/dw
I1227 03:33:57.177505 39878 net.cpp:369] relu2_1/dw -> conv2_1/dw (in-place)
I1227 03:33:57.177518 39878 net.cpp:124] Setting up relu2_1/dw
I1227 03:33:57.177529 39878 net.cpp:131] Top shape: 256 32 56 56 (25690112)
I1227 03:33:57.177536 39878 net.cpp:139] Memory required for data: 860625920
I1227 03:33:57.177546 39878 layer_factory.hpp:77] Creating layer conv2_1/sep
I1227 03:33:57.177563 39878 net.cpp:86] Creating Layer conv2_1/sep
I1227 03:33:57.177572 39878 net.cpp:408] conv2_1/sep <- conv2_1/dw
I1227 03:33:57.177583 39878 net.cpp:382] conv2_1/sep -> conv2_1/sep
I1227 03:33:57.177824 39878 net.cpp:124] Setting up conv2_1/sep
I1227 03:33:57.177853 39878 net.cpp:131] Top shape: 256 64 56 56 (51380224)
I1227 03:33:57.177860 39878 net.cpp:139] Memory required for data: 1066146816
I1227 03:33:57.177866 39878 layer_factory.hpp:77] Creating layer conv2_1/sep/bn
I1227 03:33:57.177876 39878 net.cpp:86] Creating Layer conv2_1/sep/bn
I1227 03:33:57.177882 39878 net.cpp:408] conv2_1/sep/bn <- conv2_1/sep
I1227 03:33:57.177891 39878 net.cpp:369] conv2_1/sep/bn -> conv2_1/sep (in-place)
I1227 03:33:57.178069 39878 net.cpp:124] Setting up conv2_1/sep/bn
I1227 03:33:57.178087 39878 net.cpp:131] Top shape: 256 64 56 56 (51380224)
I1227 03:33:57.178097 39878 net.cpp:139] Memory required for data: 1271667712
I1227 03:33:57.178112 39878 layer_factory.hpp:77] Creating layer conv2_1/sep/scale
I1227 03:33:57.178124 39878 net.cpp:86] Creating Layer conv2_1/sep/scale
I1227 03:33:57.178131 39878 net.cpp:408] conv2_1/sep/scale <- conv2_1/sep
I1227 03:33:57.178139 39878 net.cpp:369] conv2_1/sep/scale -> conv2_1/sep (in-place)
I1227 03:33:57.178177 39878 layer_factory.hpp:77] Creating layer conv2_1/sep/scale
I1227 03:33:57.178293 39878 net.cpp:124] Setting up conv2_1/sep/scale
I1227 03:33:57.178306 39878 net.cpp:131] Top shape: 256 64 56 56 (51380224)
I1227 03:33:57.178311 39878 net.cpp:139] Memory required for data: 1477188608
I1227 03:33:57.178323 39878 layer_factory.hpp:77] Creating layer relu2_1/sep
I1227 03:33:57.178333 39878 net.cpp:86] Creating Layer relu2_1/sep
I1227 03:33:57.178344 39878 net.cpp:408] relu2_1/sep <- conv2_1/sep
I1227 03:33:57.178351 39878 net.cpp:369] relu2_1/sep -> conv2_1/sep (in-place)
I1227 03:33:57.178360 39878 net.cpp:124] Setting up relu2_1/sep
I1227 03:33:57.178367 39878 net.cpp:131] Top shape: 256 64 56 56 (51380224)
I1227 03:33:57.178372 39878 net.cpp:139] Memory required for data: 1682709504
I1227 03:33:57.178377 39878 layer_factory.hpp:77] Creating layer conv2_2/dw
I1227 03:33:57.178388 39878 net.cpp:86] Creating Layer conv2_2/dw
I1227 03:33:57.178393 39878 net.cpp:408] conv2_2/dw <- conv2_1/sep
I1227 03:33:57.178403 39878 net.cpp:382] conv2_2/dw -> conv2_2/dw
I1227 03:33:57.178578 39878 net.cpp:124] Setting up conv2_2/dw
I1227 03:33:57.178591 39878 net.cpp:131] Top shape: 256 64 28 28 (12845056)
I1227 03:33:57.178596 39878 net.cpp:139] Memory required for data: 1734089728
I1227 03:33:57.178603 39878 layer_factory.hpp:77] Creating layer conv2_2/dw/bn
I1227 03:33:57.178611 39878 net.cpp:86] Creating Layer conv2_2/dw/bn
I1227 03:33:57.178617 39878 net.cpp:408] conv2_2/dw/bn <- conv2_2/dw
I1227 03:33:57.178627 39878 net.cpp:369] conv2_2/dw/bn -> conv2_2/dw (in-place)
I1227 03:33:57.178787 39878 net.cpp:124] Setting up conv2_2/dw/bn
I1227 03:33:57.178799 39878 net.cpp:131] Top shape: 256 64 28 28 (12845056)
I1227 03:33:57.178804 39878 net.cpp:139] Memory required for data: 1785469952
I1227 03:33:57.178813 39878 layer_factory.hpp:77] Creating layer conv2_2/dw/scale
I1227 03:33:57.178843 39878 net.cpp:86] Creating Layer conv2_2/dw/scale
I1227 03:33:57.178850 39878 net.cpp:408] conv2_2/dw/scale <- conv2_2/dw
I1227 03:33:57.178859 39878 net.cpp:369] conv2_2/dw/scale -> conv2_2/dw (in-place)
I1227 03:33:57.178898 39878 layer_factory.hpp:77] Creating layer conv2_2/dw/scale
I1227 03:33:57.179015 39878 net.cpp:124] Setting up conv2_2/dw/scale
I1227 03:33:57.179028 39878 net.cpp:131] Top shape: 256 64 28 28 (12845056)
I1227 03:33:57.179033 39878 net.cpp:139] Memory required for data: 1836850176
I1227 03:33:57.179040 39878 layer_factory.hpp:77] Creating layer relu2_2/dw
I1227 03:33:57.179052 39878 net.cpp:86] Creating Layer relu2_2/dw
I1227 03:33:57.179059 39878 net.cpp:408] relu2_2/dw <- conv2_2/dw
I1227 03:33:57.179065 39878 net.cpp:369] relu2_2/dw -> conv2_2/dw (in-place)
I1227 03:33:57.179074 39878 net.cpp:124] Setting up relu2_2/dw
I1227 03:33:57.179080 39878 net.cpp:131] Top shape: 256 64 28 28 (12845056)
I1227 03:33:57.179085 39878 net.cpp:139] Memory required for data: 1888230400
I1227 03:33:57.179090 39878 layer_factory.hpp:77] Creating layer conv2_2/sep
I1227 03:33:57.179101 39878 net.cpp:86] Creating Layer conv2_2/sep
I1227 03:33:57.179107 39878 net.cpp:408] conv2_2/sep <- conv2_2/dw
I1227 03:33:57.179116 39878 net.cpp:382] conv2_2/sep -> conv2_2/sep
I1227 03:33:57.181468 39878 net.cpp:124] Setting up conv2_2/sep
I1227 03:33:57.181489 39878 net.cpp:131] Top shape: 256 128 28 28 (25690112)
I1227 03:33:57.181495 39878 net.cpp:139] Memory required for data: 1990990848
I1227 03:33:57.181504 39878 layer_factory.hpp:77] Creating layer conv2_2/sep/bn
I1227 03:33:57.181514 39878 net.cpp:86] Creating Layer conv2_2/sep/bn
I1227 03:33:57.181520 39878 net.cpp:408] conv2_2/sep/bn <- conv2_2/sep
I1227 03:33:57.181529 39878 net.cpp:369] conv2_2/sep/bn -> conv2_2/sep (in-place)
I1227 03:33:57.181689 39878 net.cpp:124] Setting up conv2_2/sep/bn
I1227 03:33:57.181701 39878 net.cpp:131] Top shape: 256 128 28 28 (25690112)
I1227 03:33:57.181707 39878 net.cpp:139] Memory required for data: 2093751296
I1227 03:33:57.181716 39878 layer_factory.hpp:77] Creating layer conv2_2/sep/scale
I1227 03:33:57.181728 39878 net.cpp:86] Creating Layer conv2_2/sep/scale
I1227 03:33:57.181735 39878 net.cpp:408] conv2_2/sep/scale <- conv2_2/sep
I1227 03:33:57.181742 39878 net.cpp:369] conv2_2/sep/scale -> conv2_2/sep (in-place)
I1227 03:33:57.181777 39878 layer_factory.hpp:77] Creating layer conv2_2/sep/scale
I1227 03:33:57.181882 39878 net.cpp:124] Setting up conv2_2/sep/scale
I1227 03:33:57.181895 39878 net.cpp:131] Top shape: 256 128 28 28 (25690112)
I1227 03:33:57.181905 39878 net.cpp:139] Memory required for data: 2196511744
I1227 03:33:57.181918 39878 layer_factory.hpp:77] Creating layer relu2_2/sep
I1227 03:33:57.181931 39878 net.cpp:86] Creating Layer relu2_2/sep
I1227 03:33:57.181941 39878 net.cpp:408] relu2_2/sep <- conv2_2/sep
I1227 03:33:57.181953 39878 net.cpp:369] relu2_2/sep -> conv2_2/sep (in-place)
I1227 03:33:57.181967 39878 net.cpp:124] Setting up relu2_2/sep
I1227 03:33:57.181974 39878 net.cpp:131] Top shape: 256 128 28 28 (25690112)
I1227 03:33:57.181979 39878 net.cpp:139] Memory required for data: 2299272192
I1227 03:33:57.181984 39878 layer_factory.hpp:77] Creating layer conv3_1/dw
I1227 03:33:57.181995 39878 net.cpp:86] Creating Layer conv3_1/dw
I1227 03:33:57.182001 39878 net.cpp:408] conv3_1/dw <- conv2_2/sep
I1227 03:33:57.182010 39878 net.cpp:382] conv3_1/dw -> conv3_1/dw
I1227 03:33:57.182212 39878 net.cpp:124] Setting up conv3_1/dw
I1227 03:33:57.182226 39878 net.cpp:131] Top shape: 256 128 28 28 (25690112)
I1227 03:33:57.182232 39878 net.cpp:139] Memory required for data: 2402032640
I1227 03:33:57.182240 39878 layer_factory.hpp:77] Creating layer conv3_1/dw/bn
I1227 03:33:57.182248 39878 net.cpp:86] Creating Layer conv3_1/dw/bn
I1227 03:33:57.182255 39878 net.cpp:408] conv3_1/dw/bn <- conv3_1/dw
I1227 03:33:57.182262 39878 net.cpp:369] conv3_1/dw/bn -> conv3_1/dw (in-place)
I1227 03:33:57.182427 39878 net.cpp:124] Setting up conv3_1/dw/bn
I1227 03:33:57.182440 39878 net.cpp:131] Top shape: 256 128 28 28 (25690112)
I1227 03:33:57.182446 39878 net.cpp:139] Memory required for data: 2504793088
I1227 03:33:57.182461 39878 layer_factory.hpp:77] Creating layer conv3_1/dw/scale
I1227 03:33:57.182472 39878 net.cpp:86] Creating Layer conv3_1/dw/scale
I1227 03:33:57.182478 39878 net.cpp:408] conv3_1/dw/scale <- conv3_1/dw
I1227 03:33:57.182487 39878 net.cpp:369] conv3_1/dw/scale -> conv3_1/dw (in-place)
I1227 03:33:57.182521 39878 layer_factory.hpp:77] Creating layer conv3_1/dw/scale
I1227 03:33:57.182626 39878 net.cpp:124] Setting up conv3_1/dw/scale
I1227 03:33:57.182637 39878 net.cpp:131] Top shape: 256 128 28 28 (25690112)
I1227 03:33:57.182642 39878 net.cpp:139] Memory required for data: 2607553536
I1227 03:33:57.182651 39878 layer_factory.hpp:77] Creating layer relu3_1/dw
I1227 03:33:57.182658 39878 net.cpp:86] Creating Layer relu3_1/dw
I1227 03:33:57.182664 39878 net.cpp:408] relu3_1/dw <- conv3_1/dw
I1227 03:33:57.182672 39878 net.cpp:369] relu3_1/dw -> conv3_1/dw (in-place)
I1227 03:33:57.182680 39878 net.cpp:124] Setting up relu3_1/dw
I1227 03:33:57.182687 39878 net.cpp:131] Top shape: 256 128 28 28 (25690112)
I1227 03:33:57.182693 39878 net.cpp:139] Memory required for data: 2710313984
I1227 03:33:57.182698 39878 layer_factory.hpp:77] Creating layer conv3_1/sep
I1227 03:33:57.182709 39878 net.cpp:86] Creating Layer conv3_1/sep
I1227 03:33:57.182714 39878 net.cpp:408] conv3_1/sep <- conv3_1/dw
I1227 03:33:57.182723 39878 net.cpp:382] conv3_1/sep -> conv3_1/sep
I1227 03:33:57.183066 39878 net.cpp:124] Setting up conv3_1/sep
I1227 03:33:57.183081 39878 net.cpp:131] Top shape: 256 128 28 28 (25690112)
I1227 03:33:57.183087 39878 net.cpp:139] Memory required for data: 2813074432
I1227 03:33:57.183094 39878 layer_factory.hpp:77] Creating layer conv3_1/sep/bn
I1227 03:33:57.183104 39878 net.cpp:86] Creating Layer conv3_1/sep/bn
I1227 03:33:57.183109 39878 net.cpp:408] conv3_1/sep/bn <- conv3_1/sep
I1227 03:33:57.183117 39878 net.cpp:369] conv3_1/sep/bn -> conv3_1/sep (in-place)
I1227 03:33:57.183277 39878 net.cpp:124] Setting up conv3_1/sep/bn
I1227 03:33:57.183290 39878 net.cpp:131] Top shape: 256 128 28 28 (25690112)
I1227 03:33:57.183295 39878 net.cpp:139] Memory required for data: 2915834880
I1227 03:33:57.183305 39878 layer_factory.hpp:77] Creating layer conv3_1/sep/scale
I1227 03:33:57.183315 39878 net.cpp:86] Creating Layer conv3_1/sep/scale
I1227 03:33:57.183321 39878 net.cpp:408] conv3_1/sep/scale <- conv3_1/sep
I1227 03:33:57.183329 39878 net.cpp:369] conv3_1/sep/scale -> conv3_1/sep (in-place)
I1227 03:33:57.183364 39878 layer_factory.hpp:77] Creating layer conv3_1/sep/scale
I1227 03:33:57.183502 39878 net.cpp:124] Setting up conv3_1/sep/scale
I1227 03:33:57.183517 39878 net.cpp:131] Top shape: 256 128 28 28 (25690112)
I1227 03:33:57.183523 39878 net.cpp:139] Memory required for data: 3018595328
I1227 03:33:57.183531 39878 layer_factory.hpp:77] Creating layer relu3_1/sep
I1227 03:33:57.183540 39878 net.cpp:86] Creating Layer relu3_1/sep
I1227 03:33:57.183547 39878 net.cpp:408] relu3_1/sep <- conv3_1/sep
I1227 03:33:57.183555 39878 net.cpp:369] relu3_1/sep -> conv3_1/sep (in-place)
I1227 03:33:57.183568 39878 net.cpp:124] Setting up relu3_1/sep
I1227 03:33:57.183578 39878 net.cpp:131] Top shape: 256 128 28 28 (25690112)
I1227 03:33:57.183583 39878 net.cpp:139] Memory required for data: 3121355776
I1227 03:33:57.183588 39878 layer_factory.hpp:77] Creating layer conv3_2/dw
I1227 03:33:57.183598 39878 net.cpp:86] Creating Layer conv3_2/dw
I1227 03:33:57.183604 39878 net.cpp:408] conv3_2/dw <- conv3_1/sep
I1227 03:33:57.183614 39878 net.cpp:382] conv3_2/dw -> conv3_2/dw
I1227 03:33:57.183809 39878 net.cpp:124] Setting up conv3_2/dw
I1227 03:33:57.183823 39878 net.cpp:131] Top shape: 256 128 14 14 (6422528)
I1227 03:33:57.183828 39878 net.cpp:139] Memory required for data: 3147045888
I1227 03:33:57.183836 39878 layer_factory.hpp:77] Creating layer conv3_2/dw/bn
I1227 03:33:57.183845 39878 net.cpp:86] Creating Layer conv3_2/dw/bn
I1227 03:33:57.183851 39878 net.cpp:408] conv3_2/dw/bn <- conv3_2/dw
I1227 03:33:57.183858 39878 net.cpp:369] conv3_2/dw/bn -> conv3_2/dw (in-place)
I1227 03:33:57.184033 39878 net.cpp:124] Setting up conv3_2/dw/bn
I1227 03:33:57.184046 39878 net.cpp:131] Top shape: 256 128 14 14 (6422528)
I1227 03:33:57.184052 39878 net.cpp:139] Memory required for data: 3172736000
I1227 03:33:57.184062 39878 layer_factory.hpp:77] Creating layer conv3_2/dw/scale
I1227 03:33:57.184072 39878 net.cpp:86] Creating Layer conv3_2/dw/scale
I1227 03:33:57.184078 39878 net.cpp:408] conv3_2/dw/scale <- conv3_2/dw
I1227 03:33:57.184085 39878 net.cpp:369] conv3_2/dw/scale -> conv3_2/dw (in-place)
I1227 03:33:57.184123 39878 layer_factory.hpp:77] Creating layer conv3_2/dw/scale
I1227 03:33:57.184227 39878 net.cpp:124] Setting up conv3_2/dw/scale
I1227 03:33:57.184240 39878 net.cpp:131] Top shape: 256 128 14 14 (6422528)
I1227 03:33:57.184247 39878 net.cpp:139] Memory required for data: 3198426112
I1227 03:33:57.184254 39878 layer_factory.hpp:77] Creating layer relu3_2/dw
I1227 03:33:57.184268 39878 net.cpp:86] Creating Layer relu3_2/dw
I1227 03:33:57.184273 39878 net.cpp:408] relu3_2/dw <- conv3_2/dw
I1227 03:33:57.184280 39878 net.cpp:369] relu3_2/dw -> conv3_2/dw (in-place)
I1227 03:33:57.184288 39878 net.cpp:124] Setting up relu3_2/dw
I1227 03:33:57.184295 39878 net.cpp:131] Top shape: 256 128 14 14 (6422528)
I1227 03:33:57.184300 39878 net.cpp:139] Memory required for data: 3224116224
I1227 03:33:57.184305 39878 layer_factory.hpp:77] Creating layer conv3_2/sep
I1227 03:33:57.184316 39878 net.cpp:86] Creating Layer conv3_2/sep
I1227 03:33:57.184322 39878 net.cpp:408] conv3_2/sep <- conv3_2/dw
I1227 03:33:57.184331 39878 net.cpp:382] conv3_2/sep -> conv3_2/sep
I1227 03:33:57.186761 39878 net.cpp:124] Setting up conv3_2/sep
I1227 03:33:57.186781 39878 net.cpp:131] Top shape: 256 256 14 14 (12845056)
I1227 03:33:57.186789 39878 net.cpp:139] Memory required for data: 3275496448
I1227 03:33:57.186796 39878 layer_factory.hpp:77] Creating layer conv3_2/sep/bn
I1227 03:33:57.186807 39878 net.cpp:86] Creating Layer conv3_2/sep/bn
I1227 03:33:57.186813 39878 net.cpp:408] conv3_2/sep/bn <- conv3_2/sep
I1227 03:33:57.186836 39878 net.cpp:369] conv3_2/sep/bn -> conv3_2/sep (in-place)
I1227 03:33:57.187002 39878 net.cpp:124] Setting up conv3_2/sep/bn
I1227 03:33:57.187013 39878 net.cpp:131] Top shape: 256 256 14 14 (12845056)
I1227 03:33:57.187019 39878 net.cpp:139] Memory required for data: 3326876672
I1227 03:33:57.187029 39878 layer_factory.hpp:77] Creating layer conv3_2/sep/scale
I1227 03:33:57.187041 39878 net.cpp:86] Creating Layer conv3_2/sep/scale
I1227 03:33:57.187050 39878 net.cpp:408] conv3_2/sep/scale <- conv3_2/sep
I1227 03:33:57.187058 39878 net.cpp:369] conv3_2/sep/scale -> conv3_2/sep (in-place)
I1227 03:33:57.187095 39878 layer_factory.hpp:77] Creating layer conv3_2/sep/scale
I1227 03:33:57.187197 39878 net.cpp:124] Setting up conv3_2/sep/scale
I1227 03:33:57.187209 39878 net.cpp:131] Top shape: 256 256 14 14 (12845056)
I1227 03:33:57.187216 39878 net.cpp:139] Memory required for data: 3378256896
I1227 03:33:57.187223 39878 layer_factory.hpp:77] Creating layer relu3_2/sep
I1227 03:33:57.187232 39878 net.cpp:86] Creating Layer relu3_2/sep
I1227 03:33:57.187237 39878 net.cpp:408] relu3_2/sep <- conv3_2/sep
I1227 03:33:57.187245 39878 net.cpp:369] relu3_2/sep -> conv3_2/sep (in-place)
I1227 03:33:57.187253 39878 net.cpp:124] Setting up relu3_2/sep
I1227 03:33:57.187261 39878 net.cpp:131] Top shape: 256 256 14 14 (12845056)
I1227 03:33:57.187266 39878 net.cpp:139] Memory required for data: 3429637120
I1227 03:33:57.187270 39878 layer_factory.hpp:77] Creating layer conv4_1/dw
I1227 03:33:57.187281 39878 net.cpp:86] Creating Layer conv4_1/dw
I1227 03:33:57.187286 39878 net.cpp:408] conv4_1/dw <- conv3_2/sep
I1227 03:33:57.187295 39878 net.cpp:382] conv4_1/dw -> conv4_1/dw
I1227 03:33:57.187480 39878 net.cpp:124] Setting up conv4_1/dw
I1227 03:33:57.187494 39878 net.cpp:131] Top shape: 256 256 14 14 (12845056)
I1227 03:33:57.187499 39878 net.cpp:139] Memory required for data: 3481017344
I1227 03:33:57.187505 39878 layer_factory.hpp:77] Creating layer conv4_1/dw/bn
I1227 03:33:57.187515 39878 net.cpp:86] Creating Layer conv4_1/dw/bn
I1227 03:33:57.187520 39878 net.cpp:408] conv4_1/dw/bn <- conv4_1/dw
I1227 03:33:57.187528 39878 net.cpp:369] conv4_1/dw/bn -> conv4_1/dw (in-place)
I1227 03:33:57.187683 39878 net.cpp:124] Setting up conv4_1/dw/bn
I1227 03:33:57.187695 39878 net.cpp:131] Top shape: 256 256 14 14 (12845056)
I1227 03:33:57.187700 39878 net.cpp:139] Memory required for data: 3532397568
I1227 03:33:57.187708 39878 layer_factory.hpp:77] Creating layer conv4_1/dw/scale
I1227 03:33:57.187721 39878 net.cpp:86] Creating Layer conv4_1/dw/scale
I1227 03:33:57.187726 39878 net.cpp:408] conv4_1/dw/scale <- conv4_1/dw
I1227 03:33:57.187733 39878 net.cpp:369] conv4_1/dw/scale -> conv4_1/dw (in-place)
I1227 03:33:57.187769 39878 layer_factory.hpp:77] Creating layer conv4_1/dw/scale
I1227 03:33:57.187885 39878 net.cpp:124] Setting up conv4_1/dw/scale
I1227 03:33:57.187898 39878 net.cpp:131] Top shape: 256 256 14 14 (12845056)
I1227 03:33:57.187904 39878 net.cpp:139] Memory required for data: 3583777792
I1227 03:33:57.187912 39878 layer_factory.hpp:77] Creating layer relu4_1/dw
I1227 03:33:57.187922 39878 net.cpp:86] Creating Layer relu4_1/dw
I1227 03:33:57.187927 39878 net.cpp:408] relu4_1/dw <- conv4_1/dw
I1227 03:33:57.187935 39878 net.cpp:369] relu4_1/dw -> conv4_1/dw (in-place)
I1227 03:33:57.187945 39878 net.cpp:124] Setting up relu4_1/dw
I1227 03:33:57.187958 39878 net.cpp:131] Top shape: 256 256 14 14 (12845056)
I1227 03:33:57.187963 39878 net.cpp:139] Memory required for data: 3635158016
I1227 03:33:57.187968 39878 layer_factory.hpp:77] Creating layer conv4_1/sep
I1227 03:33:57.187980 39878 net.cpp:86] Creating Layer conv4_1/sep
I1227 03:33:57.187985 39878 net.cpp:408] conv4_1/sep <- conv4_1/dw
I1227 03:33:57.187995 39878 net.cpp:382] conv4_1/sep -> conv4_1/sep
I1227 03:33:57.188828 39878 net.cpp:124] Setting up conv4_1/sep
I1227 03:33:57.188843 39878 net.cpp:131] Top shape: 256 256 14 14 (12845056)
I1227 03:33:57.188848 39878 net.cpp:139] Memory required for data: 3686538240
I1227 03:33:57.188855 39878 layer_factory.hpp:77] Creating layer conv4_1/sep/bn
I1227 03:33:57.188864 39878 net.cpp:86] Creating Layer conv4_1/sep/bn
I1227 03:33:57.188870 39878 net.cpp:408] conv4_1/sep/bn <- conv4_1/sep
I1227 03:33:57.188879 39878 net.cpp:369] conv4_1/sep/bn -> conv4_1/sep (in-place)
I1227 03:33:57.189033 39878 net.cpp:124] Setting up conv4_1/sep/bn
I1227 03:33:57.189044 39878 net.cpp:131] Top shape: 256 256 14 14 (12845056)
I1227 03:33:57.189049 39878 net.cpp:139] Memory required for data: 3737918464
I1227 03:33:57.189062 39878 layer_factory.hpp:77] Creating layer conv4_1/sep/scale
I1227 03:33:57.189074 39878 net.cpp:86] Creating Layer conv4_1/sep/scale
I1227 03:33:57.189079 39878 net.cpp:408] conv4_1/sep/scale <- conv4_1/sep
I1227 03:33:57.189087 39878 net.cpp:369] conv4_1/sep/scale -> conv4_1/sep (in-place)
I1227 03:33:57.189123 39878 layer_factory.hpp:77] Creating layer conv4_1/sep/scale
I1227 03:33:57.189222 39878 net.cpp:124] Setting up conv4_1/sep/scale
I1227 03:33:57.189234 39878 net.cpp:131] Top shape: 256 256 14 14 (12845056)
I1227 03:33:57.189239 39878 net.cpp:139] Memory required for data: 3789298688
I1227 03:33:57.189255 39878 layer_factory.hpp:77] Creating layer relu4_1/sep
I1227 03:33:57.189266 39878 net.cpp:86] Creating Layer relu4_1/sep
I1227 03:33:57.189272 39878 net.cpp:408] relu4_1/sep <- conv4_1/sep
I1227 03:33:57.189280 39878 net.cpp:369] relu4_1/sep -> conv4_1/sep (in-place)
I1227 03:33:57.189288 39878 net.cpp:124] Setting up relu4_1/sep
I1227 03:33:57.189296 39878 net.cpp:131] Top shape: 256 256 14 14 (12845056)
I1227 03:33:57.189301 39878 net.cpp:139] Memory required for data: 3840678912
I1227 03:33:57.189306 39878 layer_factory.hpp:77] Creating layer conv4_2/dw
I1227 03:33:57.189314 39878 net.cpp:86] Creating Layer conv4_2/dw
I1227 03:33:57.189321 39878 net.cpp:408] conv4_2/dw <- conv4_1/sep
I1227 03:33:57.189327 39878 net.cpp:382] conv4_2/dw -> conv4_2/dw
I1227 03:33:57.189518 39878 net.cpp:124] Setting up conv4_2/dw
I1227 03:33:57.189530 39878 net.cpp:131] Top shape: 256 256 7 7 (3211264)
I1227 03:33:57.189535 39878 net.cpp:139] Memory required for data: 3853523968
I1227 03:33:57.189543 39878 layer_factory.hpp:77] Creating layer conv4_2/dw/bn
I1227 03:33:57.189550 39878 net.cpp:86] Creating Layer conv4_2/dw/bn
I1227 03:33:57.189556 39878 net.cpp:408] conv4_2/dw/bn <- conv4_2/dw
I1227 03:33:57.189564 39878 net.cpp:369] conv4_2/dw/bn -> conv4_2/dw (in-place)
I1227 03:33:57.189726 39878 net.cpp:124] Setting up conv4_2/dw/bn
I1227 03:33:57.189738 39878 net.cpp:131] Top shape: 256 256 7 7 (3211264)
I1227 03:33:57.189743 39878 net.cpp:139] Memory required for data: 3866369024
I1227 03:33:57.189751 39878 layer_factory.hpp:77] Creating layer conv4_2/dw/scale
I1227 03:33:57.189764 39878 net.cpp:86] Creating Layer conv4_2/dw/scale
I1227 03:33:57.189769 39878 net.cpp:408] conv4_2/dw/scale <- conv4_2/dw
I1227 03:33:57.189776 39878 net.cpp:369] conv4_2/dw/scale -> conv4_2/dw (in-place)
I1227 03:33:57.189810 39878 layer_factory.hpp:77] Creating layer conv4_2/dw/scale
I1227 03:33:57.189910 39878 net.cpp:124] Setting up conv4_2/dw/scale
I1227 03:33:57.189921 39878 net.cpp:131] Top shape: 256 256 7 7 (3211264)
I1227 03:33:57.189926 39878 net.cpp:139] Memory required for data: 3879214080
I1227 03:33:57.189934 39878 layer_factory.hpp:77] Creating layer relu4_2/dw
I1227 03:33:57.189942 39878 net.cpp:86] Creating Layer relu4_2/dw
I1227 03:33:57.189949 39878 net.cpp:408] relu4_2/dw <- conv4_2/dw
I1227 03:33:57.189956 39878 net.cpp:369] relu4_2/dw -> conv4_2/dw (in-place)
I1227 03:33:57.189963 39878 net.cpp:124] Setting up relu4_2/dw
I1227 03:33:57.189971 39878 net.cpp:131] Top shape: 256 256 7 7 (3211264)
I1227 03:33:57.189976 39878 net.cpp:139] Memory required for data: 3892059136
I1227 03:33:57.189981 39878 layer_factory.hpp:77] Creating layer conv4_2/sep
I1227 03:33:57.189992 39878 net.cpp:86] Creating Layer conv4_2/sep
I1227 03:33:57.189998 39878 net.cpp:408] conv4_2/sep <- conv4_2/dw
I1227 03:33:57.190006 39878 net.cpp:382] conv4_2/sep -> conv4_2/sep
I1227 03:33:57.193199 39878 net.cpp:124] Setting up conv4_2/sep
I1227 03:33:57.193228 39878 net.cpp:131] Top shape: 256 512 7 7 (6422528)
I1227 03:33:57.193233 39878 net.cpp:139] Memory required for data: 3917749248
I1227 03:33:57.193241 39878 layer_factory.hpp:77] Creating layer conv4_2/sep/bn
I1227 03:33:57.193253 39878 net.cpp:86] Creating Layer conv4_2/sep/bn
I1227 03:33:57.193259 39878 net.cpp:408] conv4_2/sep/bn <- conv4_2/sep
I1227 03:33:57.193267 39878 net.cpp:369] conv4_2/sep/bn -> conv4_2/sep (in-place)
I1227 03:33:57.193445 39878 net.cpp:124] Setting up conv4_2/sep/bn
I1227 03:33:57.193461 39878 net.cpp:131] Top shape: 256 512 7 7 (6422528)
I1227 03:33:57.193467 39878 net.cpp:139] Memory required for data: 3943439360
I1227 03:33:57.193477 39878 layer_factory.hpp:77] Creating layer conv4_2/sep/scale
I1227 03:33:57.193490 39878 net.cpp:86] Creating Layer conv4_2/sep/scale
I1227 03:33:57.193495 39878 net.cpp:408] conv4_2/sep/scale <- conv4_2/sep
I1227 03:33:57.193503 39878 net.cpp:369] conv4_2/sep/scale -> conv4_2/sep (in-place)
I1227 03:33:57.193539 39878 layer_factory.hpp:77] Creating layer conv4_2/sep/scale
I1227 03:33:57.193647 39878 net.cpp:124] Setting up conv4_2/sep/scale
I1227 03:33:57.193660 39878 net.cpp:131] Top shape: 256 512 7 7 (6422528)
I1227 03:33:57.193665 39878 net.cpp:139] Memory required for data: 3969129472
I1227 03:33:57.193673 39878 layer_factory.hpp:77] Creating layer relu4_2/sep
I1227 03:33:57.193681 39878 net.cpp:86] Creating Layer relu4_2/sep
I1227 03:33:57.193687 39878 net.cpp:408] relu4_2/sep <- conv4_2/sep
I1227 03:33:57.193696 39878 net.cpp:369] relu4_2/sep -> conv4_2/sep (in-place)
I1227 03:33:57.193703 39878 net.cpp:124] Setting up relu4_2/sep
I1227 03:33:57.193711 39878 net.cpp:131] Top shape: 256 512 7 7 (6422528)
I1227 03:33:57.193717 39878 net.cpp:139] Memory required for data: 3994819584
I1227 03:33:57.193722 39878 layer_factory.hpp:77] Creating layer conv5_1/dw
I1227 03:33:57.193732 39878 net.cpp:86] Creating Layer conv5_1/dw
I1227 03:33:57.193737 39878 net.cpp:408] conv5_1/dw <- conv4_2/sep
I1227 03:33:57.193745 39878 net.cpp:382] conv5_1/dw -> conv5_1/dw
I1227 03:33:57.193966 39878 net.cpp:124] Setting up conv5_1/dw
I1227 03:33:57.193979 39878 net.cpp:131] Top shape: 256 512 7 7 (6422528)
I1227 03:33:57.193984 39878 net.cpp:139] Memory required for data: 4020509696
I1227 03:33:57.193991 39878 layer_factory.hpp:77] Creating layer conv5_1/dw/bn
I1227 03:33:57.194001 39878 net.cpp:86] Creating Layer conv5_1/dw/bn
I1227 03:33:57.194007 39878 net.cpp:408] conv5_1/dw/bn <- conv5_1/dw
I1227 03:33:57.194015 39878 net.cpp:369] conv5_1/dw/bn -> conv5_1/dw (in-place)
I1227 03:33:57.194176 39878 net.cpp:124] Setting up conv5_1/dw/bn
I1227 03:33:57.194187 39878 net.cpp:131] Top shape: 256 512 7 7 (6422528)
I1227 03:33:57.194193 39878 net.cpp:139] Memory required for data: 4046199808
I1227 03:33:57.194202 39878 layer_factory.hpp:77] Creating layer conv5_1/dw/scale
I1227 03:33:57.194213 39878 net.cpp:86] Creating Layer conv5_1/dw/scale
I1227 03:33:57.194219 39878 net.cpp:408] conv5_1/dw/scale <- conv5_1/dw
I1227 03:33:57.194228 39878 net.cpp:369] conv5_1/dw/scale -> conv5_1/dw (in-place)
I1227 03:33:57.194262 39878 layer_factory.hpp:77] Creating layer conv5_1/dw/scale
I1227 03:33:57.194375 39878 net.cpp:124] Setting up conv5_1/dw/scale
I1227 03:33:57.194386 39878 net.cpp:131] Top shape: 256 512 7 7 (6422528)
I1227 03:33:57.194392 39878 net.cpp:139] Memory required for data: 4071889920
I1227 03:33:57.194399 39878 layer_factory.hpp:77] Creating layer relu5_1/dw
I1227 03:33:57.194408 39878 net.cpp:86] Creating Layer relu5_1/dw
I1227 03:33:57.194414 39878 net.cpp:408] relu5_1/dw <- conv5_1/dw
I1227 03:33:57.194422 39878 net.cpp:369] relu5_1/dw -> conv5_1/dw (in-place)
I1227 03:33:57.194432 39878 net.cpp:124] Setting up relu5_1/dw
I1227 03:33:57.194438 39878 net.cpp:131] Top shape: 256 512 7 7 (6422528)
I1227 03:33:57.194443 39878 net.cpp:139] Memory required for data: 4097580032
I1227 03:33:57.194448 39878 layer_factory.hpp:77] Creating layer conv5_1/sep
I1227 03:33:57.194459 39878 net.cpp:86] Creating Layer conv5_1/sep
I1227 03:33:57.194465 39878 net.cpp:408] conv5_1/sep <- conv5_1/dw
I1227 03:33:57.194475 39878 net.cpp:382] conv5_1/sep -> conv5_1/sep
I1227 03:33:57.197881 39878 net.cpp:124] Setting up conv5_1/sep
I1227 03:33:57.197903 39878 net.cpp:131] Top shape: 256 512 7 7 (6422528)
I1227 03:33:57.197909 39878 net.cpp:139] Memory required for data: 4123270144
I1227 03:33:57.197917 39878 layer_factory.hpp:77] Creating layer conv5_1/sep/bn
I1227 03:33:57.197928 39878 net.cpp:86] Creating Layer conv5_1/sep/bn
I1227 03:33:57.197939 39878 net.cpp:408] conv5_1/sep/bn <- conv5_1/sep
I1227 03:33:57.197949 39878 net.cpp:369] conv5_1/sep/bn -> conv5_1/sep (in-place)
I1227 03:33:57.198127 39878 net.cpp:124] Setting up conv5_1/sep/bn
I1227 03:33:57.198139 39878 net.cpp:131] Top shape: 256 512 7 7 (6422528)
I1227 03:33:57.198144 39878 net.cpp:139] Memory required for data: 4148960256
I1227 03:33:57.198154 39878 layer_factory.hpp:77] Creating layer conv5_1/sep/scale
I1227 03:33:57.198166 39878 net.cpp:86] Creating Layer conv5_1/sep/scale
I1227 03:33:57.198173 39878 net.cpp:408] conv5_1/sep/scale <- conv5_1/sep
I1227 03:33:57.198180 39878 net.cpp:369] conv5_1/sep/scale -> conv5_1/sep (in-place)
I1227 03:33:57.198215 39878 layer_factory.hpp:77] Creating layer conv5_1/sep/scale
I1227 03:33:57.198360 39878 net.cpp:124] Setting up conv5_1/sep/scale
I1227 03:33:57.198375 39878 net.cpp:131] Top shape: 256 512 7 7 (6422528)
I1227 03:33:57.198381 39878 net.cpp:139] Memory required for data: 4174650368
I1227 03:33:57.198390 39878 layer_factory.hpp:77] Creating layer relu5_1/sep
I1227 03:33:57.198398 39878 net.cpp:86] Creating Layer relu5_1/sep
I1227 03:33:57.198405 39878 net.cpp:408] relu5_1/sep <- conv5_1/sep
I1227 03:33:57.198412 39878 net.cpp:369] relu5_1/sep -> conv5_1/sep (in-place)
I1227 03:33:57.198421 39878 net.cpp:124] Setting up relu5_1/sep
I1227 03:33:57.198428 39878 net.cpp:131] Top shape: 256 512 7 7 (6422528)
I1227 03:33:57.198434 39878 net.cpp:139] Memory required for data: 4200340480
I1227 03:33:57.198439 39878 layer_factory.hpp:77] Creating layer conv5_2/dw
I1227 03:33:57.198449 39878 net.cpp:86] Creating Layer conv5_2/dw
I1227 03:33:57.198456 39878 net.cpp:408] conv5_2/dw <- conv5_1/sep
I1227 03:33:57.198464 39878 net.cpp:382] conv5_2/dw -> conv5_2/dw
I1227 03:33:57.198693 39878 net.cpp:124] Setting up conv5_2/dw
I1227 03:33:57.198706 39878 net.cpp:131] Top shape: 256 512 7 7 (6422528)
I1227 03:33:57.198711 39878 net.cpp:139] Memory required for data: 4226030592
I1227 03:33:57.198719 39878 layer_factory.hpp:77] Creating layer conv5_2/dw/bn
I1227 03:33:57.198729 39878 net.cpp:86] Creating Layer conv5_2/dw/bn
I1227 03:33:57.198734 39878 net.cpp:408] conv5_2/dw/bn <- conv5_2/dw
I1227 03:33:57.198742 39878 net.cpp:369] conv5_2/dw/bn -> conv5_2/dw (in-place)
I1227 03:33:57.198931 39878 net.cpp:124] Setting up conv5_2/dw/bn
I1227 03:33:57.198945 39878 net.cpp:131] Top shape: 256 512 7 7 (6422528)
I1227 03:33:57.198951 39878 net.cpp:139] Memory required for data: 4251720704
I1227 03:33:57.198961 39878 layer_factory.hpp:77] Creating layer conv5_2/dw/scale
I1227 03:33:57.198973 39878 net.cpp:86] Creating Layer conv5_2/dw/scale
I1227 03:33:57.198979 39878 net.cpp:408] conv5_2/dw/scale <- conv5_2/dw
I1227 03:33:57.198987 39878 net.cpp:369] conv5_2/dw/scale -> conv5_2/dw (in-place)
I1227 03:33:57.199023 39878 layer_factory.hpp:77] Creating layer conv5_2/dw/scale
I1227 03:33:57.199136 39878 net.cpp:124] Setting up conv5_2/dw/scale
I1227 03:33:57.199147 39878 net.cpp:131] Top shape: 256 512 7 7 (6422528)
I1227 03:33:57.199152 39878 net.cpp:139] Memory required for data: 4277410816
I1227 03:33:57.199160 39878 layer_factory.hpp:77] Creating layer relu5_2/dw
I1227 03:33:57.199179 39878 net.cpp:86] Creating Layer relu5_2/dw
I1227 03:33:57.199185 39878 net.cpp:408] relu5_2/dw <- conv5_2/dw
I1227 03:33:57.199193 39878 net.cpp:369] relu5_2/dw -> conv5_2/dw (in-place)
I1227 03:33:57.199200 39878 net.cpp:124] Setting up relu5_2/dw
I1227 03:33:57.199208 39878 net.cpp:131] Top shape: 256 512 7 7 (6422528)
I1227 03:33:57.199213 39878 net.cpp:139] Memory required for data: 4303100928
I1227 03:33:57.199218 39878 layer_factory.hpp:77] Creating layer conv5_2/sep
I1227 03:33:57.199228 39878 net.cpp:86] Creating Layer conv5_2/sep
I1227 03:33:57.199234 39878 net.cpp:408] conv5_2/sep <- conv5_2/dw
I1227 03:33:57.199241 39878 net.cpp:382] conv5_2/sep -> conv5_2/sep
I1227 03:33:57.205636 39878 net.cpp:124] Setting up conv5_2/sep
I1227 03:33:57.205658 39878 net.cpp:131] Top shape: 256 512 7 7 (6422528)
I1227 03:33:57.205664 39878 net.cpp:139] Memory required for data: 4328791040
I1227 03:33:57.205677 39878 layer_factory.hpp:77] Creating layer conv5_2/sep/bn
I1227 03:33:57.205689 39878 net.cpp:86] Creating Layer conv5_2/sep/bn
I1227 03:33:57.205700 39878 net.cpp:408] conv5_2/sep/bn <- conv5_2/sep
I1227 03:33:57.205714 39878 net.cpp:369] conv5_2/sep/bn -> conv5_2/sep (in-place)
I1227 03:33:57.205996 39878 net.cpp:124] Setting up conv5_2/sep/bn
I1227 03:33:57.206010 39878 net.cpp:131] Top shape: 256 512 7 7 (6422528)
I1227 03:33:57.206017 39878 net.cpp:139] Memory required for data: 4354481152
I1227 03:33:57.206027 39878 layer_factory.hpp:77] Creating layer conv5_2/sep/scale
I1227 03:33:57.206040 39878 net.cpp:86] Creating Layer conv5_2/sep/scale
I1227 03:33:57.206046 39878 net.cpp:408] conv5_2/sep/scale <- conv5_2/sep
I1227 03:33:57.206054 39878 net.cpp:369] conv5_2/sep/scale -> conv5_2/sep (in-place)
I1227 03:33:57.206091 39878 layer_factory.hpp:77] Creating layer conv5_2/sep/scale
I1227 03:33:57.206203 39878 net.cpp:124] Setting up conv5_2/sep/scale
I1227 03:33:57.206215 39878 net.cpp:131] Top shape: 256 512 7 7 (6422528)
I1227 03:33:57.206221 39878 net.cpp:139] Memory required for data: 4380171264
I1227 03:33:57.206229 39878 layer_factory.hpp:77] Creating layer relu5_2/sep
I1227 03:33:57.206238 39878 net.cpp:86] Creating Layer relu5_2/sep
I1227 03:33:57.206244 39878 net.cpp:408] relu5_2/sep <- conv5_2/sep
I1227 03:33:57.206252 39878 net.cpp:369] relu5_2/sep -> conv5_2/sep (in-place)
I1227 03:33:57.206261 39878 net.cpp:124] Setting up relu5_2/sep
I1227 03:33:57.206269 39878 net.cpp:131] Top shape: 256 512 7 7 (6422528)
I1227 03:33:57.206274 39878 net.cpp:139] Memory required for data: 4405861376
I1227 03:33:57.206279 39878 layer_factory.hpp:77] Creating layer conv5_3/dw
I1227 03:33:57.206290 39878 net.cpp:86] Creating Layer conv5_3/dw
I1227 03:33:57.206295 39878 net.cpp:408] conv5_3/dw <- conv5_2/sep
I1227 03:33:57.206303 39878 net.cpp:382] conv5_3/dw -> conv5_3/dw
I1227 03:33:57.206517 39878 net.cpp:124] Setting up conv5_3/dw
I1227 03:33:57.206531 39878 net.cpp:131] Top shape: 256 512 7 7 (6422528)
I1227 03:33:57.206537 39878 net.cpp:139] Memory required for data: 4431551488
I1227 03:33:57.206542 39878 layer_factory.hpp:77] Creating layer conv5_3/dw/bn
I1227 03:33:57.206552 39878 net.cpp:86] Creating Layer conv5_3/dw/bn
I1227 03:33:57.206558 39878 net.cpp:408] conv5_3/dw/bn <- conv5_3/dw
I1227 03:33:57.206567 39878 net.cpp:369] conv5_3/dw/bn -> conv5_3/dw (in-place)
I1227 03:33:57.206728 39878 net.cpp:124] Setting up conv5_3/dw/bn
I1227 03:33:57.206739 39878 net.cpp:131] Top shape: 256 512 7 7 (6422528)
I1227 03:33:57.206745 39878 net.cpp:139] Memory required for data: 4457241600
I1227 03:33:57.206754 39878 layer_factory.hpp:77] Creating layer conv5_3/dw/scale
I1227 03:33:57.206765 39878 net.cpp:86] Creating Layer conv5_3/dw/scale
I1227 03:33:57.206771 39878 net.cpp:408] conv5_3/dw/scale <- conv5_3/dw
I1227 03:33:57.206779 39878 net.cpp:369] conv5_3/dw/scale -> conv5_3/dw (in-place)
I1227 03:33:57.206813 39878 layer_factory.hpp:77] Creating layer conv5_3/dw/scale
I1227 03:33:57.206944 39878 net.cpp:124] Setting up conv5_3/dw/scale
I1227 03:33:57.206959 39878 net.cpp:131] Top shape: 256 512 7 7 (6422528)
I1227 03:33:57.206965 39878 net.cpp:139] Memory required for data: 4482931712
I1227 03:33:57.206974 39878 layer_factory.hpp:77] Creating layer relu5_3/dw
I1227 03:33:57.206981 39878 net.cpp:86] Creating Layer relu5_3/dw
I1227 03:33:57.206987 39878 net.cpp:408] relu5_3/dw <- conv5_3/dw
I1227 03:33:57.206995 39878 net.cpp:369] relu5_3/dw -> conv5_3/dw (in-place)
I1227 03:33:57.207003 39878 net.cpp:124] Setting up relu5_3/dw
I1227 03:33:57.207011 39878 net.cpp:131] Top shape: 256 512 7 7 (6422528)
I1227 03:33:57.207016 39878 net.cpp:139] Memory required for data: 4508621824
I1227 03:33:57.207021 39878 layer_factory.hpp:77] Creating layer conv5_3/sep
I1227 03:33:57.207033 39878 net.cpp:86] Creating Layer conv5_3/sep
I1227 03:33:57.207038 39878 net.cpp:408] conv5_3/sep <- conv5_3/dw
I1227 03:33:57.207047 39878 net.cpp:382] conv5_3/sep -> conv5_3/sep
I1227 03:33:57.209889 39878 net.cpp:124] Setting up conv5_3/sep
I1227 03:33:57.209909 39878 net.cpp:131] Top shape: 256 512 7 7 (6422528)
I1227 03:33:57.209915 39878 net.cpp:139] Memory required for data: 4534311936
I1227 03:33:57.209923 39878 layer_factory.hpp:77] Creating layer conv5_3/sep/bn
I1227 03:33:57.209935 39878 net.cpp:86] Creating Layer conv5_3/sep/bn
I1227 03:33:57.209945 39878 net.cpp:408] conv5_3/sep/bn <- conv5_3/sep
I1227 03:33:57.209959 39878 net.cpp:369] conv5_3/sep/bn -> conv5_3/sep (in-place)
I1227 03:33:57.210140 39878 net.cpp:124] Setting up conv5_3/sep/bn
I1227 03:33:57.210155 39878 net.cpp:131] Top shape: 256 512 7 7 (6422528)
I1227 03:33:57.210160 39878 net.cpp:139] Memory required for data: 4560002048
I1227 03:33:57.210168 39878 layer_factory.hpp:77] Creating layer conv5_3/sep/scale
I1227 03:33:57.210180 39878 net.cpp:86] Creating Layer conv5_3/sep/scale
I1227 03:33:57.210186 39878 net.cpp:408] conv5_3/sep/scale <- conv5_3/sep
I1227 03:33:57.210193 39878 net.cpp:369] conv5_3/sep/scale -> conv5_3/sep (in-place)
I1227 03:33:57.210233 39878 layer_factory.hpp:77] Creating layer conv5_3/sep/scale
I1227 03:33:57.210350 39878 net.cpp:124] Setting up conv5_3/sep/scale
I1227 03:33:57.210362 39878 net.cpp:131] Top shape: 256 512 7 7 (6422528)
I1227 03:33:57.210372 39878 net.cpp:139] Memory required for data: 4585692160
I1227 03:33:57.210382 39878 layer_factory.hpp:77] Creating layer relu5_3/sep
I1227 03:33:57.210391 39878 net.cpp:86] Creating Layer relu5_3/sep
I1227 03:33:57.210397 39878 net.cpp:408] relu5_3/sep <- conv5_3/sep
I1227 03:33:57.210405 39878 net.cpp:369] relu5_3/sep -> conv5_3/sep (in-place)
I1227 03:33:57.210413 39878 net.cpp:124] Setting up relu5_3/sep
I1227 03:33:57.210420 39878 net.cpp:131] Top shape: 256 512 7 7 (6422528)
I1227 03:33:57.210427 39878 net.cpp:139] Memory required for data: 4611382272
I1227 03:33:57.210431 39878 layer_factory.hpp:77] Creating layer conv5_4/dw
I1227 03:33:57.210440 39878 net.cpp:86] Creating Layer conv5_4/dw
I1227 03:33:57.210446 39878 net.cpp:408] conv5_4/dw <- conv5_3/sep
I1227 03:33:57.210454 39878 net.cpp:382] conv5_4/dw -> conv5_4/dw
I1227 03:33:57.210671 39878 net.cpp:124] Setting up conv5_4/dw
I1227 03:33:57.210683 39878 net.cpp:131] Top shape: 256 512 7 7 (6422528)
I1227 03:33:57.210688 39878 net.cpp:139] Memory required for data: 4637072384
I1227 03:33:57.210696 39878 layer_factory.hpp:77] Creating layer conv5_4/dw/bn
I1227 03:33:57.210705 39878 net.cpp:86] Creating Layer conv5_4/dw/bn
I1227 03:33:57.210711 39878 net.cpp:408] conv5_4/dw/bn <- conv5_4/dw
I1227 03:33:57.210718 39878 net.cpp:369] conv5_4/dw/bn -> conv5_4/dw (in-place)
I1227 03:33:57.210903 39878 net.cpp:124] Setting up conv5_4/dw/bn
I1227 03:33:57.210917 39878 net.cpp:131] Top shape: 256 512 7 7 (6422528)
I1227 03:33:57.210922 39878 net.cpp:139] Memory required for data: 4662762496
I1227 03:33:57.210944 39878 layer_factory.hpp:77] Creating layer conv5_4/dw/scale
I1227 03:33:57.210955 39878 net.cpp:86] Creating Layer conv5_4/dw/scale
I1227 03:33:57.210961 39878 net.cpp:408] conv5_4/dw/scale <- conv5_4/dw
I1227 03:33:57.210969 39878 net.cpp:369] conv5_4/dw/scale -> conv5_4/dw (in-place)
I1227 03:33:57.211005 39878 layer_factory.hpp:77] Creating layer conv5_4/dw/scale
I1227 03:33:57.211118 39878 net.cpp:124] Setting up conv5_4/dw/scale
I1227 03:33:57.211130 39878 net.cpp:131] Top shape: 256 512 7 7 (6422528)
I1227 03:33:57.211136 39878 net.cpp:139] Memory required for data: 4688452608
I1227 03:33:57.211144 39878 layer_factory.hpp:77] Creating layer relu5_4/dw
I1227 03:33:57.211153 39878 net.cpp:86] Creating Layer relu5_4/dw
I1227 03:33:57.211158 39878 net.cpp:408] relu5_4/dw <- conv5_4/dw
I1227 03:33:57.211169 39878 net.cpp:369] relu5_4/dw -> conv5_4/dw (in-place)
I1227 03:33:57.211181 39878 net.cpp:124] Setting up relu5_4/dw
I1227 03:33:57.211194 39878 net.cpp:131] Top shape: 256 512 7 7 (6422528)
I1227 03:33:57.211203 39878 net.cpp:139] Memory required for data: 4714142720
I1227 03:33:57.211210 39878 layer_factory.hpp:77] Creating layer conv5_4/sep
I1227 03:33:57.211221 39878 net.cpp:86] Creating Layer conv5_4/sep
I1227 03:33:57.211231 39878 net.cpp:408] conv5_4/sep <- conv5_4/dw
I1227 03:33:57.211241 39878 net.cpp:382] conv5_4/sep -> conv5_4/sep
I1227 03:33:57.216226 39878 net.cpp:124] Setting up conv5_4/sep
I1227 03:33:57.216248 39878 net.cpp:131] Top shape: 256 512 7 7 (6422528)
I1227 03:33:57.216253 39878 net.cpp:139] Memory required for data: 4739832832
I1227 03:33:57.216261 39878 layer_factory.hpp:77] Creating layer conv5_4/sep/bn
I1227 03:33:57.216274 39878 net.cpp:86] Creating Layer conv5_4/sep/bn
I1227 03:33:57.216279 39878 net.cpp:408] conv5_4/sep/bn <- conv5_4/sep
I1227 03:33:57.216287 39878 net.cpp:369] conv5_4/sep/bn -> conv5_4/sep (in-place)
I1227 03:33:57.216470 39878 net.cpp:124] Setting up conv5_4/sep/bn
I1227 03:33:57.216481 39878 net.cpp:131] Top shape: 256 512 7 7 (6422528)
I1227 03:33:57.216486 39878 net.cpp:139] Memory required for data: 4765522944
I1227 03:33:57.216496 39878 layer_factory.hpp:77] Creating layer conv5_4/sep/scale
I1227 03:33:57.216508 39878 net.cpp:86] Creating Layer conv5_4/sep/scale
I1227 03:33:57.216514 39878 net.cpp:408] conv5_4/sep/scale <- conv5_4/sep
I1227 03:33:57.216522 39878 net.cpp:369] conv5_4/sep/scale -> conv5_4/sep (in-place)
I1227 03:33:57.216558 39878 layer_factory.hpp:77] Creating layer conv5_4/sep/scale
I1227 03:33:57.216670 39878 net.cpp:124] Setting up conv5_4/sep/scale
I1227 03:33:57.216682 39878 net.cpp:131] Top shape: 256 512 7 7 (6422528)
I1227 03:33:57.216687 39878 net.cpp:139] Memory required for data: 4791213056
I1227 03:33:57.216696 39878 layer_factory.hpp:77] Creating layer relu5_4/sep
I1227 03:33:57.216706 39878 net.cpp:86] Creating Layer relu5_4/sep
I1227 03:33:57.216711 39878 net.cpp:408] relu5_4/sep <- conv5_4/sep
I1227 03:33:57.216718 39878 net.cpp:369] relu5_4/sep -> conv5_4/sep (in-place)
I1227 03:33:57.216727 39878 net.cpp:124] Setting up relu5_4/sep
I1227 03:33:57.216735 39878 net.cpp:131] Top shape: 256 512 7 7 (6422528)
I1227 03:33:57.216740 39878 net.cpp:139] Memory required for data: 4816903168
I1227 03:33:57.216744 39878 layer_factory.hpp:77] Creating layer conv5_5/dw
I1227 03:33:57.216755 39878 net.cpp:86] Creating Layer conv5_5/dw
I1227 03:33:57.216760 39878 net.cpp:408] conv5_5/dw <- conv5_4/sep
I1227 03:33:57.216768 39878 net.cpp:382] conv5_5/dw -> conv5_5/dw
I1227 03:33:57.217057 39878 net.cpp:124] Setting up conv5_5/dw
I1227 03:33:57.217078 39878 net.cpp:131] Top shape: 256 512 7 7 (6422528)
I1227 03:33:57.217088 39878 net.cpp:139] Memory required for data: 4842593280
I1227 03:33:57.217100 39878 layer_factory.hpp:77] Creating layer conv5_5/dw/bn
I1227 03:33:57.217111 39878 net.cpp:86] Creating Layer conv5_5/dw/bn
I1227 03:33:57.217118 39878 net.cpp:408] conv5_5/dw/bn <- conv5_5/dw
I1227 03:33:57.217126 39878 net.cpp:369] conv5_5/dw/bn -> conv5_5/dw (in-place)
I1227 03:33:57.217306 39878 net.cpp:124] Setting up conv5_5/dw/bn
I1227 03:33:57.217319 39878 net.cpp:131] Top shape: 256 512 7 7 (6422528)
I1227 03:33:57.217324 39878 net.cpp:139] Memory required for data: 4868283392
I1227 03:33:57.217355 39878 layer_factory.hpp:77] Creating layer conv5_5/dw/scale
I1227 03:33:57.217366 39878 net.cpp:86] Creating Layer conv5_5/dw/scale
I1227 03:33:57.217372 39878 net.cpp:408] conv5_5/dw/scale <- conv5_5/dw
I1227 03:33:57.217384 39878 net.cpp:369] conv5_5/dw/scale -> conv5_5/dw (in-place)
I1227 03:33:57.217422 39878 layer_factory.hpp:77] Creating layer conv5_5/dw/scale
I1227 03:33:57.217536 39878 net.cpp:124] Setting up conv5_5/dw/scale
I1227 03:33:57.217548 39878 net.cpp:131] Top shape: 256 512 7 7 (6422528)
I1227 03:33:57.217555 39878 net.cpp:139] Memory required for data: 4893973504
I1227 03:33:57.217561 39878 layer_factory.hpp:77] Creating layer relu5_5/dw
I1227 03:33:57.217571 39878 net.cpp:86] Creating Layer relu5_5/dw
I1227 03:33:57.217576 39878 net.cpp:408] relu5_5/dw <- conv5_5/dw
I1227 03:33:57.217584 39878 net.cpp:369] relu5_5/dw -> conv5_5/dw (in-place)
I1227 03:33:57.217593 39878 net.cpp:124] Setting up relu5_5/dw
I1227 03:33:57.217599 39878 net.cpp:131] Top shape: 256 512 7 7 (6422528)
I1227 03:33:57.217604 39878 net.cpp:139] Memory required for data: 4919663616
I1227 03:33:57.217613 39878 layer_factory.hpp:77] Creating layer conv5_5/sep
I1227 03:33:57.217624 39878 net.cpp:86] Creating Layer conv5_5/sep
I1227 03:33:57.217629 39878 net.cpp:408] conv5_5/sep <- conv5_5/dw
I1227 03:33:57.217639 39878 net.cpp:382] conv5_5/sep -> conv5_5/sep
I1227 03:33:57.220515 39878 net.cpp:124] Setting up conv5_5/sep
I1227 03:33:57.220531 39878 net.cpp:131] Top shape: 256 512 7 7 (6422528)
I1227 03:33:57.220537 39878 net.cpp:139] Memory required for data: 4945353728
I1227 03:33:57.220544 39878 layer_factory.hpp:77] Creating layer conv5_5/sep/bn
I1227 03:33:57.220556 39878 net.cpp:86] Creating Layer conv5_5/sep/bn
I1227 03:33:57.220561 39878 net.cpp:408] conv5_5/sep/bn <- conv5_5/sep
I1227 03:33:57.220568 39878 net.cpp:369] conv5_5/sep/bn -> conv5_5/sep (in-place)
I1227 03:33:57.220748 39878 net.cpp:124] Setting up conv5_5/sep/bn
I1227 03:33:57.220760 39878 net.cpp:131] Top shape: 256 512 7 7 (6422528)
I1227 03:33:57.220765 39878 net.cpp:139] Memory required for data: 4971043840
I1227 03:33:57.220774 39878 layer_factory.hpp:77] Creating layer conv5_5/sep/scale
I1227 03:33:57.220784 39878 net.cpp:86] Creating Layer conv5_5/sep/scale
I1227 03:33:57.220791 39878 net.cpp:408] conv5_5/sep/scale <- conv5_5/sep
I1227 03:33:57.220803 39878 net.cpp:369] conv5_5/sep/scale -> conv5_5/sep (in-place)
I1227 03:33:57.220837 39878 layer_factory.hpp:77] Creating layer conv5_5/sep/scale
I1227 03:33:57.220953 39878 net.cpp:124] Setting up conv5_5/sep/scale
I1227 03:33:57.220965 39878 net.cpp:131] Top shape: 256 512 7 7 (6422528)
I1227 03:33:57.220970 39878 net.cpp:139] Memory required for data: 4996733952
I1227 03:33:57.220978 39878 layer_factory.hpp:77] Creating layer relu5_5/sep
I1227 03:33:57.220986 39878 net.cpp:86] Creating Layer relu5_5/sep
I1227 03:33:57.220991 39878 net.cpp:408] relu5_5/sep <- conv5_5/sep
I1227 03:33:57.221000 39878 net.cpp:369] relu5_5/sep -> conv5_5/sep (in-place)
I1227 03:33:57.221009 39878 net.cpp:124] Setting up relu5_5/sep
I1227 03:33:57.221016 39878 net.cpp:131] Top shape: 256 512 7 7 (6422528)
I1227 03:33:57.221021 39878 net.cpp:139] Memory required for data: 5022424064
I1227 03:33:57.221025 39878 layer_factory.hpp:77] Creating layer conv5_6/dw
I1227 03:33:57.221035 39878 net.cpp:86] Creating Layer conv5_6/dw
I1227 03:33:57.221040 39878 net.cpp:408] conv5_6/dw <- conv5_5/sep
I1227 03:33:57.221050 39878 net.cpp:382] conv5_6/dw -> conv5_6/dw
I1227 03:33:57.221268 39878 net.cpp:124] Setting up conv5_6/dw
I1227 03:33:57.221282 39878 net.cpp:131] Top shape: 256 512 4 4 (2097152)
I1227 03:33:57.221287 39878 net.cpp:139] Memory required for data: 5030812672
I1227 03:33:57.221293 39878 layer_factory.hpp:77] Creating layer conv5_6/dw/bn
I1227 03:33:57.221302 39878 net.cpp:86] Creating Layer conv5_6/dw/bn
I1227 03:33:57.221307 39878 net.cpp:408] conv5_6/dw/bn <- conv5_6/dw
I1227 03:33:57.221313 39878 net.cpp:369] conv5_6/dw/bn -> conv5_6/dw (in-place)
I1227 03:33:57.221514 39878 net.cpp:124] Setting up conv5_6/dw/bn
I1227 03:33:57.221526 39878 net.cpp:131] Top shape: 256 512 4 4 (2097152)
I1227 03:33:57.221531 39878 net.cpp:139] Memory required for data: 5039201280
I1227 03:33:57.221541 39878 layer_factory.hpp:77] Creating layer conv5_6/dw/scale
I1227 03:33:57.221555 39878 net.cpp:86] Creating Layer conv5_6/dw/scale
I1227 03:33:57.221562 39878 net.cpp:408] conv5_6/dw/scale <- conv5_6/dw
I1227 03:33:57.221570 39878 net.cpp:369] conv5_6/dw/scale -> conv5_6/dw (in-place)
I1227 03:33:57.221607 39878 layer_factory.hpp:77] Creating layer conv5_6/dw/scale
I1227 03:33:57.221741 39878 net.cpp:124] Setting up conv5_6/dw/scale
I1227 03:33:57.221755 39878 net.cpp:131] Top shape: 256 512 4 4 (2097152)
I1227 03:33:57.221760 39878 net.cpp:139] Memory required for data: 5047589888
I1227 03:33:57.221767 39878 layer_factory.hpp:77] Creating layer relu5_6/dw
I1227 03:33:57.221777 39878 net.cpp:86] Creating Layer relu5_6/dw
I1227 03:33:57.221782 39878 net.cpp:408] relu5_6/dw <- conv5_6/dw
I1227 03:33:57.221793 39878 net.cpp:369] relu5_6/dw -> conv5_6/dw (in-place)
I1227 03:33:57.221805 39878 net.cpp:124] Setting up relu5_6/dw
I1227 03:33:57.221817 39878 net.cpp:131] Top shape: 256 512 4 4 (2097152)
I1227 03:33:57.221822 39878 net.cpp:139] Memory required for data: 5055978496
I1227 03:33:57.221827 39878 layer_factory.hpp:77] Creating layer conv5_6/sep
I1227 03:33:57.221837 39878 net.cpp:86] Creating Layer conv5_6/sep
I1227 03:33:57.221843 39878 net.cpp:408] conv5_6/sep <- conv5_6/dw
I1227 03:33:57.221853 39878 net.cpp:382] conv5_6/sep -> conv5_6/sep
I1227 03:33:57.229462 39878 net.cpp:124] Setting up conv5_6/sep
I1227 03:33:57.229483 39878 net.cpp:131] Top shape: 256 1024 4 4 (4194304)
I1227 03:33:57.229490 39878 net.cpp:139] Memory required for data: 5072755712
I1227 03:33:57.229498 39878 layer_factory.hpp:77] Creating layer conv5_6/sep/bn
I1227 03:33:57.229507 39878 net.cpp:86] Creating Layer conv5_6/sep/bn
I1227 03:33:57.229513 39878 net.cpp:408] conv5_6/sep/bn <- conv5_6/sep
I1227 03:33:57.229524 39878 net.cpp:369] conv5_6/sep/bn -> conv5_6/sep (in-place)
I1227 03:33:57.229709 39878 net.cpp:124] Setting up conv5_6/sep/bn
I1227 03:33:57.229722 39878 net.cpp:131] Top shape: 256 1024 4 4 (4194304)
I1227 03:33:57.229727 39878 net.cpp:139] Memory required for data: 5089532928
I1227 03:33:57.229737 39878 layer_factory.hpp:77] Creating layer conv5_6/sep/scale
I1227 03:33:57.229748 39878 net.cpp:86] Creating Layer conv5_6/sep/scale
I1227 03:33:57.229763 39878 net.cpp:408] conv5_6/sep/scale <- conv5_6/sep
I1227 03:33:57.229773 39878 net.cpp:369] conv5_6/sep/scale -> conv5_6/sep (in-place)
I1227 03:33:57.229809 39878 layer_factory.hpp:77] Creating layer conv5_6/sep/scale
I1227 03:33:57.229925 39878 net.cpp:124] Setting up conv5_6/sep/scale
I1227 03:33:57.229938 39878 net.cpp:131] Top shape: 256 1024 4 4 (4194304)
I1227 03:33:57.229944 39878 net.cpp:139] Memory required for data: 5106310144
I1227 03:33:57.229952 39878 layer_factory.hpp:77] Creating layer relu5_6/sep
I1227 03:33:57.229961 39878 net.cpp:86] Creating Layer relu5_6/sep
I1227 03:33:57.229966 39878 net.cpp:408] relu5_6/sep <- conv5_6/sep
I1227 03:33:57.229974 39878 net.cpp:369] relu5_6/sep -> conv5_6/sep (in-place)
I1227 03:33:57.229982 39878 net.cpp:124] Setting up relu5_6/sep
I1227 03:33:57.229991 39878 net.cpp:131] Top shape: 256 1024 4 4 (4194304)
I1227 03:33:57.229996 39878 net.cpp:139] Memory required for data: 5123087360
I1227 03:33:57.230000 39878 layer_factory.hpp:77] Creating layer conv6/dw
I1227 03:33:57.230010 39878 net.cpp:86] Creating Layer conv6/dw
I1227 03:33:57.230015 39878 net.cpp:408] conv6/dw <- conv5_6/sep
I1227 03:33:57.230028 39878 net.cpp:382] conv6/dw -> conv6/dw
I1227 03:33:57.230330 39878 net.cpp:124] Setting up conv6/dw
I1227 03:33:57.230345 39878 net.cpp:131] Top shape: 256 1024 4 4 (4194304)
I1227 03:33:57.230350 39878 net.cpp:139] Memory required for data: 5139864576
I1227 03:33:57.230357 39878 layer_factory.hpp:77] Creating layer conv6/dw/bn
I1227 03:33:57.230365 39878 net.cpp:86] Creating Layer conv6/dw/bn
I1227 03:33:57.230371 39878 net.cpp:408] conv6/dw/bn <- conv6/dw
I1227 03:33:57.230379 39878 net.cpp:369] conv6/dw/bn -> conv6/dw (in-place)
I1227 03:33:57.230620 39878 net.cpp:124] Setting up conv6/dw/bn
I1227 03:33:57.230638 39878 net.cpp:131] Top shape: 256 1024 4 4 (4194304)
I1227 03:33:57.230644 39878 net.cpp:139] Memory required for data: 5156641792
I1227 03:33:57.230654 39878 layer_factory.hpp:77] Creating layer conv6/dw/scale
I1227 03:33:57.230664 39878 net.cpp:86] Creating Layer conv6/dw/scale
I1227 03:33:57.230670 39878 net.cpp:408] conv6/dw/scale <- conv6/dw
I1227 03:33:57.230679 39878 net.cpp:369] conv6/dw/scale -> conv6/dw (in-place)
I1227 03:33:57.230722 39878 layer_factory.hpp:77] Creating layer conv6/dw/scale
I1227 03:33:57.230907 39878 net.cpp:124] Setting up conv6/dw/scale
I1227 03:33:57.230931 39878 net.cpp:131] Top shape: 256 1024 4 4 (4194304)
I1227 03:33:57.230940 39878 net.cpp:139] Memory required for data: 5173419008
I1227 03:33:57.230954 39878 layer_factory.hpp:77] Creating layer relu6/dw
I1227 03:33:57.230967 39878 net.cpp:86] Creating Layer relu6/dw
I1227 03:33:57.230975 39878 net.cpp:408] relu6/dw <- conv6/dw
I1227 03:33:57.230991 39878 net.cpp:369] relu6/dw -> conv6/dw (in-place)
I1227 03:33:57.231003 39878 net.cpp:124] Setting up relu6/dw
I1227 03:33:57.231019 39878 net.cpp:131] Top shape: 256 1024 4 4 (4194304)
I1227 03:33:57.231026 39878 net.cpp:139] Memory required for data: 5190196224
I1227 03:33:57.231035 39878 layer_factory.hpp:77] Creating layer conv6/sep
I1227 03:33:57.231050 39878 net.cpp:86] Creating Layer conv6/sep
I1227 03:33:57.231061 39878 net.cpp:408] conv6/sep <- conv6/dw
I1227 03:33:57.231077 39878 net.cpp:382] conv6/sep -> conv6/sep
I1227 03:33:57.244984 39878 net.cpp:124] Setting up conv6/sep
I1227 03:33:57.245012 39878 net.cpp:131] Top shape: 256 1024 4 4 (4194304)
I1227 03:33:57.245018 39878 net.cpp:139] Memory required for data: 5206973440
I1227 03:33:57.245026 39878 layer_factory.hpp:77] Creating layer conv6/sep/bn
I1227 03:33:57.245038 39878 net.cpp:86] Creating Layer conv6/sep/bn
I1227 03:33:57.245043 39878 net.cpp:408] conv6/sep/bn <- conv6/sep
I1227 03:33:57.245051 39878 net.cpp:369] conv6/sep/bn -> conv6/sep (in-place)
I1227 03:33:57.245241 39878 net.cpp:124] Setting up conv6/sep/bn
I1227 03:33:57.245252 39878 net.cpp:131] Top shape: 256 1024 4 4 (4194304)
I1227 03:33:57.245259 39878 net.cpp:139] Memory required for data: 5223750656
I1227 03:33:57.245267 39878 layer_factory.hpp:77] Creating layer conv6/sep/scale
I1227 03:33:57.245281 39878 net.cpp:86] Creating Layer conv6/sep/scale
I1227 03:33:57.245287 39878 net.cpp:408] conv6/sep/scale <- conv6/sep
I1227 03:33:57.245295 39878 net.cpp:369] conv6/sep/scale -> conv6/sep (in-place)
I1227 03:33:57.245334 39878 layer_factory.hpp:77] Creating layer conv6/sep/scale
I1227 03:33:57.245463 39878 net.cpp:124] Setting up conv6/sep/scale
I1227 03:33:57.245477 39878 net.cpp:131] Top shape: 256 1024 4 4 (4194304)
I1227 03:33:57.245482 39878 net.cpp:139] Memory required for data: 5240527872
I1227 03:33:57.245491 39878 layer_factory.hpp:77] Creating layer relu6/sep
I1227 03:33:57.245501 39878 net.cpp:86] Creating Layer relu6/sep
I1227 03:33:57.245507 39878 net.cpp:408] relu6/sep <- conv6/sep
I1227 03:33:57.245514 39878 net.cpp:369] relu6/sep -> conv6/sep (in-place)
I1227 03:33:57.245522 39878 net.cpp:124] Setting up relu6/sep
I1227 03:33:57.245529 39878 net.cpp:131] Top shape: 256 1024 4 4 (4194304)
I1227 03:33:57.245534 39878 net.cpp:139] Memory required for data: 5257305088
I1227 03:33:57.245539 39878 layer_factory.hpp:77] Creating layer pool6
I1227 03:33:57.245559 39878 net.cpp:86] Creating Layer pool6
I1227 03:33:57.245565 39878 net.cpp:408] pool6 <- conv6/sep
I1227 03:33:57.245573 39878 net.cpp:382] pool6 -> pool6
I1227 03:33:57.245606 39878 net.cpp:124] Setting up pool6
I1227 03:33:57.245615 39878 net.cpp:131] Top shape: 256 1024 1 1 (262144)
I1227 03:33:57.245620 39878 net.cpp:139] Memory required for data: 5258353664
I1227 03:33:57.245626 39878 layer_factory.hpp:77] Creating layer pool6_pool6_0_split
I1227 03:33:57.245640 39878 net.cpp:86] Creating Layer pool6_pool6_0_split
I1227 03:33:57.245645 39878 net.cpp:408] pool6_pool6_0_split <- pool6
I1227 03:33:57.245653 39878 net.cpp:382] pool6_pool6_0_split -> pool6_pool6_0_split_0
I1227 03:33:57.245663 39878 net.cpp:382] pool6_pool6_0_split -> pool6_pool6_0_split_1
I1227 03:33:57.245673 39878 net.cpp:382] pool6_pool6_0_split -> pool6_pool6_0_split_2
I1227 03:33:57.245685 39878 net.cpp:382] pool6_pool6_0_split -> pool6_pool6_0_split_3
I1227 03:33:57.245694 39878 net.cpp:382] pool6_pool6_0_split -> pool6_pool6_0_split_4
I1227 03:33:57.245703 39878 net.cpp:382] pool6_pool6_0_split -> pool6_pool6_0_split_5
I1227 03:33:57.245712 39878 net.cpp:382] pool6_pool6_0_split -> pool6_pool6_0_split_6
I1227 03:33:57.245802 39878 net.cpp:124] Setting up pool6_pool6_0_split
I1227 03:33:57.245812 39878 net.cpp:131] Top shape: 256 1024 1 1 (262144)
I1227 03:33:57.245820 39878 net.cpp:131] Top shape: 256 1024 1 1 (262144)
I1227 03:33:57.245826 39878 net.cpp:131] Top shape: 256 1024 1 1 (262144)
I1227 03:33:57.245831 39878 net.cpp:131] Top shape: 256 1024 1 1 (262144)
I1227 03:33:57.245836 39878 net.cpp:131] Top shape: 256 1024 1 1 (262144)
I1227 03:33:57.245846 39878 net.cpp:131] Top shape: 256 1024 1 1 (262144)
I1227 03:33:57.245851 39878 net.cpp:131] Top shape: 256 1024 1 1 (262144)
I1227 03:33:57.245857 39878 net.cpp:139] Memory required for data: 5265693696
I1227 03:33:57.245862 39878 layer_factory.hpp:77] Creating layer cls_gender
I1227 03:33:57.245875 39878 net.cpp:86] Creating Layer cls_gender
I1227 03:33:57.245882 39878 net.cpp:408] cls_gender <- pool6_pool6_0_split_0
I1227 03:33:57.245893 39878 net.cpp:382] cls_gender -> cls_gender
I1227 03:33:57.246129 39878 net.cpp:124] Setting up cls_gender
I1227 03:33:57.246142 39878 net.cpp:131] Top shape: 256 2 1 1 (512)
I1227 03:33:57.246147 39878 net.cpp:139] Memory required for data: 5265695744
I1227 03:33:57.246155 39878 layer_factory.hpp:77] Creating layer loss_gender
I1227 03:33:57.246167 39878 net.cpp:86] Creating Layer loss_gender
I1227 03:33:57.246173 39878 net.cpp:408] loss_gender <- cls_gender
I1227 03:33:57.246181 39878 net.cpp:408] loss_gender <- gender_label
I1227 03:33:57.246189 39878 net.cpp:382] loss_gender -> loss_gender
I1227 03:33:57.246206 39878 layer_factory.hpp:77] Creating layer loss_gender
I1227 03:33:57.246320 39878 net.cpp:124] Setting up loss_gender
I1227 03:33:57.246332 39878 net.cpp:131] Top shape: (1)
I1227 03:33:57.246337 39878 net.cpp:134]     with loss weight 1
I1227 03:33:57.246353 39878 net.cpp:139] Memory required for data: 5265695748
I1227 03:33:57.246361 39878 layer_factory.hpp:77] Creating layer cls_age
I1227 03:33:57.246374 39878 net.cpp:86] Creating Layer cls_age
I1227 03:33:57.246381 39878 net.cpp:408] cls_age <- pool6_pool6_0_split_1
I1227 03:33:57.246392 39878 net.cpp:382] cls_age -> cls_age
I1227 03:33:57.246703 39878 net.cpp:124] Setting up cls_age
I1227 03:33:57.246721 39878 net.cpp:131] Top shape: 256 7 1 1 (1792)
I1227 03:33:57.246727 39878 net.cpp:139] Memory required for data: 5265702916
I1227 03:33:57.246735 39878 layer_factory.hpp:77] Creating layer loss_age
I1227 03:33:57.246744 39878 net.cpp:86] Creating Layer loss_age
I1227 03:33:57.246749 39878 net.cpp:408] loss_age <- cls_age
I1227 03:33:57.246757 39878 net.cpp:408] loss_age <- age_label
I1227 03:33:57.246767 39878 net.cpp:382] loss_age -> loss_age
I1227 03:33:57.246776 39878 layer_factory.hpp:77] Creating layer loss_age
I1227 03:33:57.246889 39878 net.cpp:124] Setting up loss_age
I1227 03:33:57.246904 39878 net.cpp:131] Top shape: (1)
I1227 03:33:57.246909 39878 net.cpp:134]     with loss weight 1
I1227 03:33:57.246917 39878 net.cpp:139] Memory required for data: 5265702920
I1227 03:33:57.246923 39878 layer_factory.hpp:77] Creating layer cls_mask
I1227 03:33:57.246934 39878 net.cpp:86] Creating Layer cls_mask
I1227 03:33:57.246940 39878 net.cpp:408] cls_mask <- pool6_pool6_0_split_2
I1227 03:33:57.246951 39878 net.cpp:382] cls_mask -> cls_mask
I1227 03:33:57.247185 39878 net.cpp:124] Setting up cls_mask
I1227 03:33:57.247197 39878 net.cpp:131] Top shape: 256 2 1 1 (512)
I1227 03:33:57.247202 39878 net.cpp:139] Memory required for data: 5265704968
I1227 03:33:57.247210 39878 layer_factory.hpp:77] Creating layer loss_mask
I1227 03:33:57.247218 39878 net.cpp:86] Creating Layer loss_mask
I1227 03:33:57.247225 39878 net.cpp:408] loss_mask <- cls_mask
I1227 03:33:57.247231 39878 net.cpp:408] loss_mask <- mask_label
I1227 03:33:57.247241 39878 net.cpp:382] loss_mask -> loss_mask
I1227 03:33:57.247251 39878 layer_factory.hpp:77] Creating layer loss_mask
I1227 03:33:57.247336 39878 net.cpp:124] Setting up loss_mask
I1227 03:33:57.247346 39878 net.cpp:131] Top shape: (1)
I1227 03:33:57.247351 39878 net.cpp:134]     with loss weight 1
I1227 03:33:57.247359 39878 net.cpp:139] Memory required for data: 5265704972
I1227 03:33:57.247365 39878 layer_factory.hpp:77] Creating layer cls_glass
I1227 03:33:57.247380 39878 net.cpp:86] Creating Layer cls_glass
I1227 03:33:57.247387 39878 net.cpp:408] cls_glass <- pool6_pool6_0_split_3
I1227 03:33:57.247397 39878 net.cpp:382] cls_glass -> cls_glass
I1227 03:33:57.247638 39878 net.cpp:124] Setting up cls_glass
I1227 03:33:57.247650 39878 net.cpp:131] Top shape: 256 3 1 1 (768)
I1227 03:33:57.247658 39878 net.cpp:139] Memory required for data: 5265708044
I1227 03:33:57.247668 39878 layer_factory.hpp:77] Creating layer loss_glass
I1227 03:33:57.247675 39878 net.cpp:86] Creating Layer loss_glass
I1227 03:33:57.247680 39878 net.cpp:408] loss_glass <- cls_glass
I1227 03:33:57.247687 39878 net.cpp:408] loss_glass <- glass_label
I1227 03:33:57.247697 39878 net.cpp:382] loss_glass -> loss_glass
I1227 03:33:57.247707 39878 layer_factory.hpp:77] Creating layer loss_glass
I1227 03:33:57.247792 39878 net.cpp:124] Setting up loss_glass
I1227 03:33:57.247804 39878 net.cpp:131] Top shape: (1)
I1227 03:33:57.247809 39878 net.cpp:134]     with loss weight 1
I1227 03:33:57.247817 39878 net.cpp:139] Memory required for data: 5265708048
I1227 03:33:57.247822 39878 layer_factory.hpp:77] Creating layer cls_expre
I1227 03:33:57.247834 39878 net.cpp:86] Creating Layer cls_expre
I1227 03:33:57.247840 39878 net.cpp:408] cls_expre <- pool6_pool6_0_split_4
I1227 03:33:57.247851 39878 net.cpp:382] cls_expre -> cls_expre
I1227 03:33:57.248106 39878 net.cpp:124] Setting up cls_expre
I1227 03:33:57.248119 39878 net.cpp:131] Top shape: 256 2 1 1 (512)
I1227 03:33:57.248124 39878 net.cpp:139] Memory required for data: 5265710096
I1227 03:33:57.248133 39878 layer_factory.hpp:77] Creating layer loss_expre
I1227 03:33:57.248144 39878 net.cpp:86] Creating Layer loss_expre
I1227 03:33:57.248154 39878 net.cpp:408] loss_expre <- cls_expre
I1227 03:33:57.248162 39878 net.cpp:408] loss_expre <- expre_label
I1227 03:33:57.248170 39878 net.cpp:382] loss_expre -> loss_expre
I1227 03:33:57.248180 39878 layer_factory.hpp:77] Creating layer loss_expre
I1227 03:33:57.248267 39878 net.cpp:124] Setting up loss_expre
I1227 03:33:57.248278 39878 net.cpp:131] Top shape: (1)
I1227 03:33:57.248282 39878 net.cpp:134]     with loss weight 1
I1227 03:33:57.248291 39878 net.cpp:139] Memory required for data: 5265710100
I1227 03:33:57.248296 39878 layer_factory.hpp:77] Creating layer cls_block
I1227 03:33:57.248309 39878 net.cpp:86] Creating Layer cls_block
I1227 03:33:57.248317 39878 net.cpp:408] cls_block <- pool6_pool6_0_split_5
I1227 03:33:57.248333 39878 net.cpp:382] cls_block -> cls_block
I1227 03:33:57.248596 39878 net.cpp:124] Setting up cls_block
I1227 03:33:57.248610 39878 net.cpp:131] Top shape: 256 2 1 1 (512)
I1227 03:33:57.248615 39878 net.cpp:139] Memory required for data: 5265712148
I1227 03:33:57.248622 39878 layer_factory.hpp:77] Creating layer loss_block
I1227 03:33:57.248631 39878 net.cpp:86] Creating Layer loss_block
I1227 03:33:57.248637 39878 net.cpp:408] loss_block <- cls_block
I1227 03:33:57.248644 39878 net.cpp:408] loss_block <- block_label
I1227 03:33:57.248653 39878 net.cpp:382] loss_block -> loss_block
I1227 03:33:57.248664 39878 layer_factory.hpp:77] Creating layer loss_block
I1227 03:33:57.248756 39878 net.cpp:124] Setting up loss_block
I1227 03:33:57.248769 39878 net.cpp:131] Top shape: (1)
I1227 03:33:57.248775 39878 net.cpp:134]     with loss weight 1
I1227 03:33:57.248782 39878 net.cpp:139] Memory required for data: 5265712152
I1227 03:33:57.248788 39878 layer_factory.hpp:77] Creating layer cls_weizu
I1227 03:33:57.248800 39878 net.cpp:86] Creating Layer cls_weizu
I1227 03:33:57.248805 39878 net.cpp:408] cls_weizu <- pool6_pool6_0_split_6
I1227 03:33:57.248816 39878 net.cpp:382] cls_weizu -> cls_weizu
I1227 03:33:57.249050 39878 net.cpp:124] Setting up cls_weizu
I1227 03:33:57.249063 39878 net.cpp:131] Top shape: 256 2 1 1 (512)
I1227 03:33:57.249068 39878 net.cpp:139] Memory required for data: 5265714200
I1227 03:33:57.249075 39878 layer_factory.hpp:77] Creating layer loss_weizu
I1227 03:33:57.249083 39878 net.cpp:86] Creating Layer loss_weizu
I1227 03:33:57.249089 39878 net.cpp:408] loss_weizu <- cls_weizu
I1227 03:33:57.249095 39878 net.cpp:408] loss_weizu <- weizu_label
I1227 03:33:57.249105 39878 net.cpp:382] loss_weizu -> loss_weizu
…
  top: "age_label"
  top: "mask_label"
  top: "glass_label"
  top: "expre_label"
  top: "block_label"
  top: "weizu_label"
  include {
    phase: TEST
  }
  python_param {
    module: "myDataLayer"
    layer: "Data_Layer_train"
    param_str: "{\"mirror\": True, \"illumination\": True, \"crop_size\": (112,112), \"batch_size\": 128, \"max_rotate_angle\": 30,\"src_file\": \"/workspace/mnt/group/face/chendan/CelebA/code/mobilenet_attribute7/src/test.txt\", \"img_basepath\": \"/workspace/mnt/group/face/chendan/CelebA/code/eight-attributes/images/images_all_v2\"}"
  }
}
layer {
  name: "conv1"
  type: "Convolution"
  bottom: "data"
  top: "conv1"
  param {
    lr_mult: 1
    decay_mult: 1
  }
  convolution_param {
    num_output: 32
    bias_term: false
    pad: 1
    kernel_size: 3
    stride: 2
    weight_filler {
      type: "msra"
    }
  }
}
layer {
  name: "conv1/bn"
  type: "BatchNorm"
  bottom: "conv1"
  top: "conv1"
  batch_norm_param {
    use_global_stats: false
    eps: 1e-05
  }
}
layer {
  name: "conv1/scale"
  type: "Scale"
  bottom: "conv1"
  top: "conv1"
  param {
    lr_mult: 1
    decay_mult: 0
  }
  param {
    lr_mult: 1
    decay_mult: 0
  }
  scale_param {
    filler {
      value: 1
    }
    bias_term: true
    bias_filler {
      value: 0
    }
  }
}
layer {
  name: "relu1"
  type: "ReLU"
  bottom: "conv1"
  top: "conv1"
}
layer {
  name: "conv2_1/dw"
  type: "DepthwiseConvolution"
  bottom: "conv1"
  top: "conv2_1/dw"
  param {
    lr_mult: 1
    decay_mult: 1
  }
  convolution_param {
    num_output: 32
    bias_term: false
    pad: 1
    kernel_size: 3
    group: 32
    stride: 1
    weight_filler {
      type: "msra"
    }
    engine: CAFFE
  }
}
layer {
  name: "conv2_1/dw/bn"
  type: "BatchNorm"
  bottom: "conv2_1/dw"
  top: "conv2_1/dw"
  batch_norm_param {
    use_global_stats: false
    eps: 1e-05
  }
}
layer {
  name: "conv2_1/dw/scale"
  type: "Scale"
  bottom: "conv2_1/dw"
  top: "conv2_1/dw"
  param {
    lr_mult: 1
    decay_mult: 0
  }
  param {
    lr_mult: 1
    decay_mult: 0
  }
  scale_param {
    filler {
      value: 1
    }
    bias_term: true
    bias_filler {
      value: 0
    }
  }
}
layer {
  name: "relu2_1/dw"
  type: "ReLU"
  bottom: "conv2_1/dw"
  top: "conv2_1/dw"
}
layer {
  name: "conv2_1/sep"
  type: "Convolution"
  bottom: "conv2_1/dw"
  top: "conv2_1/sep"
  param {
    lr_mult: 1
    decay_mult: 1
  }
  convolution_param {
    num_output: 64
    bias_term: false
    pad: 0
    kernel_size: 1
    stride: 1
    weight_filler {
      type: "msra"
    }
  }
}
layer {
  name: "conv2_1/sep/bn"
  type: "BatchNorm"
  bottom: "conv2_1/sep"
  top: "conv2_1/sep"
  batch_norm_param {
    use_global_stats: false
    eps: 1e-05
  }
}
layer {
  name: "conv2_1/sep/scale"
  type: "Scale"
  bottom: "conv2_1/sep"
  top: "conv2_1/sep"
  param {
    lr_mult: 1
    decay_mult: 0
  }
  param {
    lr_mult: 1
    decay_mult: 0
  }
  scale_param {
    filler {
      value: 1
    }
    bias_term: true
    bias_filler {
      value: 0
    }
  }
}
layer {
  name: "relu2_1/sep"
  type: "ReLU"
  bottom: "conv2_1/sep"
  top: "conv2_1/sep"
}
layer {
  name: "conv2_2/dw"
  type: "DepthwiseConvolution"
  bottom: "conv2_1/sep"
  top: "conv2_2/dw"
  param {
    lr_mult: 1
    decay_mult: 1
  }
  convolution_param {
    num_output: 64
    bias_term: false
    pad: 1
    kernel_size: 3
    group: 64
    stride: 2
    weight_filler {
      type: "msra"
    }
    engine: CAFFE
  }
}
layer {
  name: "conv2_2/dw/bn"
  type: "BatchNorm"
  bottom: "conv2_2/dw"
  top: "conv2_2/dw"
  batch_norm_param {
    use_global_stats: false
    eps: 1e-05
  }
}
layer {
  name: "conv2_2/dw/scale"
  type: "Scale"
  bottom: "conv2_2/dw"
  top: "conv2_2/dw"
  param {
    lr_mult: 1
    decay_mult: 0
  }
  param {
    lr_mult: 1
    decay_mult: 0
  }
  scale_param {
    filler {
      value: 1
    }
    bias_term: true
    bias_filler {
      value: 0
    }
  }
}
layer {
  name: "relu2_2/dw"
  type: "ReLU"
  bottom: "conv2_2/dw"
  top: "conv2_2/dw"
}
layer {
  name: "conv2_2/sep"
  type: "Convolution"
  bottom: "conv2_2/dw"
  top: "conv2_2/sep"
  param {
    lr_mult: 1
    decay_mult: 1
  }
  convolution_param {
    num_output: 128
    bias_term: false
    pad: 0
    kernel_size: 1
    stride: 1
    weight_filler {
      type: "msra"
    }
  }
}
layer {
  name: "conv2_2/sep/bn"
  type: "BatchNorm"
  bottom: "conv2_2/sep"
  top: "conv2_2/sep"
  batch_norm_param {
    use_global_stats: false
    eps: 1e-05
  }
}
layer {
  name: "conv2_2/sep/scale"
  type: "Scale"
  bottom: "conv2_2/sep"
  top: "conv2_2/sep"
  param {
    lr_mult: 1
    decay_mult: 0
  }
  param {
    lr_mult: 1
    decay_mult: 0
  }
  scale_param {
    filler {
      value: 1
    }
    bias_term: true
    bias_filler {
      value: 0
    }
  }
}
layer {
  name: "relu2_2/sep"
  type: "ReLU"
  bottom: "conv2_2/sep"
  top: "conv2_2/sep"
}
layer {
  name: "conv3_1/dw"
  type: "DepthwiseConvolution"
  bottom: "conv2_2/sep"
  top: "conv3_1/dw"
  param {
    lr_mult: 1
    decay_mult: 1
  }
  convolution_param {
    num_output: 128
    bias_term: false
    pad: 1
    kernel_size: 3
    group: 128
    stride: 1
    weight_filler {
      type: "msra"
    }
    engine: CAFFE
  }
}
layer {
  name: "conv3_1/dw/bn"
  type: "BatchNorm"
  bottom: "conv3_1/dw"
  top: "conv3_1/dw"
  batch_norm_param {
    use_global_stats: false
    eps: 1e-05
  }
}
layer {
  name: "conv3_1/dw/scale"
  type: "Scale"
  bottom: "conv3_1/dw"
  top: "conv3_1/dw"
  param {
    lr_mult: 1
    decay_mult: 0
  }
  param {
    lr_mult: 1
    decay_mult: 0
  }
  scale_param {
    filler {
      value: 1
    }
    bias_term: true
    bias_filler {
      value: 0
    }
  }
}
layer {
  name: "relu3_1/dw"
  type: "ReLU"
  bottom: "conv3_1/dw"
  top: "conv3_1/dw"
}
layer {
  name: "conv3_1/sep"
  type: "Convolution"
  bottom: "conv3_1/dw"
  top: "conv3_1/sep"
  param {
    lr_mult: 1
    decay_mult: 1
  }
  convolution_param {
    num_output: 128
    bias_term: false
    pad: 0
    kernel_size: 1
    stride: 1
    weight_filler {
      type: "msra"
    }
  }
}
layer {
  name: "conv3_1/sep/bn"
  type: "BatchNorm"
  bottom: "conv3_1/sep"
  top: "conv3_1/sep"
  batch_norm_param {
    use_global_stats: false
    eps: 1e-05
  }
}
layer {
  name: "conv3_1/sep/scale"
  type: "Scale"
  bottom: "conv3_1/sep"
  top: "conv3_1/sep"
  param {
    lr_mult: 1
    decay_mult: 0
  }
  param {
    lr_mult: 1
    decay_mult: 0
  }
  scale_param {
    filler {
      value: 1
    }
    bias_term: true
    bias_filler {
      value: 0
    }
  }
}
layer {
  name: "relu3_1/sep"
  type: "ReLU"
  bottom: "conv3_1/sep"
  top: "conv3_1/sep"
}
layer {
  name: "conv3_2/dw"
  type: "Convolution"
  bottom: "conv3_1/sep"
  top: "conv3_2/dw"
  param {
    lr_mult: 1
    decay_mult: 1
  }
  convolution_param {
    num_output: 128
    bias_term: false
    pad: 1
    kernel_size: 3
    group: 128
    stride: 2
    weight_filler {
      type: "msra"
    }
    engine: CAFFE
  }
}
layer {
  name: "conv3_2/dw/bn"
  type: "BatchNorm"
  bottom: "conv3_2/dw"
  top: "conv3_2/dw"
  batch_norm_param {
    use_global_stats: false
    eps: 1e-05
  }
}
layer {
  name: "conv3_2/dw/scale"
  type: "Scale"
  bottom: "conv3_2/dw"
  top: "conv3_2/dw"
  param {
    lr_mult: 1
    decay_mult: 0
  }
  param {
    lr_mult: 1
    decay_mult: 0
  }
  scale_param {
    filler {
      value: 1
    }
    bias_term: true
    bias_filler {
      value: 0
    }
  }
}
layer {
  name: "relu3_2/dw"
  type: "ReLU"
  bottom: "conv3_2/dw"
  top: "conv3_2/dw"
}
layer {
  name: "conv3_2/sep"
  type: "Convolution"
  bottom: "conv3_2/dw"
  top: "conv3_2/sep"
  param {
    lr_mult: 1
    decay_mult: 1
  }
  convolution_param {
    num_output: 256
    bias_term: false
    pad: 0
    kernel_size: 1
    stride: 1
    weight_filler {
      type: "msra"
    }
  }
}
layer {
  name: "conv3_2/sep/bn"
  type: "BatchNorm"
  bottom: "conv3_2/sep"
  top: "conv3_2/sep"
  batch_norm_param {
    use_global_stats: false
    eps: 1e-05
  }
}
layer {
  name: "conv3_2/sep/scale"
  type: "Scale"
  bottom: "conv3_2/sep"
  top: "conv3_2/sep"
  param {
    lr_mult: 1
    decay_mult: 0
  }
  param {
    lr_mult: 1
    decay_mult: 0
  }
  scale_param {
    filler {
      value: 1
    }
    bias_term: true
    bias_filler {
      value: 0
    }
  }
}
layer {
  name: "relu3_2/sep"
  type: "ReLU"
  bottom: "conv3_2/sep"
  top: "conv3_2/sep"
}
layer {
  name: "conv4_1/dw"
  type: "DepthwiseConvolution"
  bottom: "conv3_2/sep"
  top: "conv4_1/dw"
  param {
    lr_mult: 1
    decay_mult: 1
  }
  convolution_param {
    num_output: 256
    bias_term: false
    pad: 1
    kernel_size: 3
    group: 256
    stride: 1
    weight_filler {
      type: "msra"
    }
    engine: CAFFE
  }
}
layer {
  name: "conv4_1/dw/bn"
  type: "BatchNorm"
  bottom: "conv4_1/dw"
  top: "conv4_1/dw"
  batch_norm_param {
    use_global_stats: false
    eps: 1e-05
  }
}
layer {
  name: "conv4_1/dw/scale"
  type: "Scale"
  bottom: "conv4_1/dw"
  top: "conv4_1/dw"
  param {
    lr_mult: 1
    decay_mult: 0
  }
  param {
    lr_mult: 1
    decay_mult: 0
  }
  scale_param {
    filler {
      value: 1
    }
    bias_term: true
    bias_filler {
      value: 0
    }
  }
}
layer {
  name: "relu4_1/dw"
  type: "ReLU"
  bottom: "conv4_1/dw"
  top: "conv4_1/dw"
}
layer {
  name: "conv4_1/sep"
  type: "Convolution"
  bottom: "conv4_1/dw"
  top: "conv4_1/sep"
  param {
    lr_mult: 1
    decay_mult: 1
  }
  convolution_param {
    num_output: 256
    bias_term: false
    pad: 0
    kernel_size: 1
    stride: 1
    weight_filler {
      type: "msra"
    }
  }
}
layer {
  name: "conv4_1/sep/bn"
  type: "BatchNorm"
  bottom: "conv4_1/sep"
  top: "conv4_1/sep"
  batch_norm_param {
    use_global_stats: false
    eps: 1e-05
  }
}
layer {
  name: "conv4_1/sep/scale"
  type: "Scale"
  bottom: "conv4_1/sep"
  top: "conv4_1/sep"
  param {
    lr_mult: 1
    decay_mult: 0
  }
  param {
    lr_mult: 1
    decay_mult: 0
  }
  scale_param {
    filler {
      value: 1
    }
    bias_term: true
    bias_filler {
      value: 0
    }
  }
}
layer {
  name: "relu4_1/sep"
  type: "ReLU"
  bottom: "conv4_1/sep"
  top: "conv4_1/sep"
}
layer {
  name: "conv4_2/dw"
  type: "DepthwiseConvolution"
  bottom: "conv4_1/sep"
  top: "conv4_2/dw"
  param {
    lr_mult: 1
    decay_mult: 1
  }
  convolution_param {
    num_output: 256
    bias_term: false
    pad: 1
    kernel_size: 3
    group: 256
    stride: 2
    weight_filler {
      type: "msra"
    }
    engine: CAFFE
  }
}
layer {
  name: "conv4_2/dw/bn"
  type: "BatchNorm"
  bottom: "conv4_2/dw"
  top: "conv4_2/dw"
  batch_norm_param {
    use_global_stats: false
    eps: 1e-05
  }
}
layer {
  name: "conv4_2/dw/scale"
  type: "Scale"
  bottom: "conv4_2/dw"
  top: "conv4_2/dw"
  param {
    lr_mult: 1
    decay_mult: 0
  }
  param {
    lr_mult: 1
    decay_mult: 0
  }
  scale_param {
    filler {
      value: 1
    }
    bias_term: true
    bias_filler {
      value: 0
    }
  }
}
layer {
  name: "relu4_2/dw"
  type: "ReLU"
  bottom: "conv4_2/dw"
  top: "conv4_2/dw"
}
layer {
  name: "conv4_2/sep"
  type: "Convolution"
  bottom: "conv4_2/dw"
  top: "conv4_2/sep"
  param {
    lr_mult: 1
    decay_mult: 1
  }
  convolution_param {
    num_output: 512
    bias_term: false
    pad: 0
    kernel_size: 1
    stride: 1
    weight_filler {
      type: "msra"
    }
  }
}
layer {
  name: "conv4_2/sep/bn"
  type: "BatchNorm"
  bottom: "conv4_2/sep"
  top: "conv4_2/sep"
  batch_norm_param {
    use_global_stats: false
    eps: 1e-05
  }
}
layer {
  name: "conv4_2/sep/scale"
  type: "Scale"
  bottom: "conv4_2/sep"
  top: "conv4_2/sep"
  param {
    lr_mult: 1
    decay_mult: 0
  }
  param {
    lr_mult: 1
    decay_mult: 0
  }
  scale_param {
    filler {
      value: 1
    }
    bias_term: true
    bias_filler {
      value: 0
    }
  }
}
layer {
  name: "relu4_2/sep"
  type: "ReLU"
  bottom: "conv4_2/sep"
  top: "conv4_2/sep"
}
layer {
  name: "conv5_1/dw"
  type: "DepthwiseConvolution"
  bottom: "conv4_2/sep"
  top: "conv5_1/dw"
  param {
    lr_mult: 1
    decay_mult: 1
  }
  convolution_param {
    num_output: 512
    bias_term: false
    pad: 1
    kernel_size: 3
    group: 512
    stride: 1
    weight_filler {
      type: "msra"
    }
    engine: CAFFE
  }
}
layer {
  name: "conv5_1/dw/bn"
  type: "BatchNorm"
  bottom: "conv5_1/dw"
  top: "conv5_1/dw"
  batch_norm_param {
    use_global_stats: false
    eps: 1e-05
  }
}
layer {
  name: "conv5_1/dw/scale"
  type: "Scale"
  bottom: "conv5_1/dw"
  top: "conv5_1/dw"
  param {
    lr_mult: 1
    decay_mult: 0
  }
  param {
    lr_mult: 1
    decay_mult: 0
  }
  scale_param {
    filler {
      value: 1
    }
    bias_term: true
    bias_filler {
      value: 0
    }
  }
}
layer {
  name: "relu5_1/dw"
  type: "ReLU"
  bottom: "conv5_1/dw"
  top: "conv5_1/dw"
}
layer {
  name: "conv5_1/sep"
  type: "Convolution"
  bottom: "conv5_1/dw"
  top: "conv5_1/sep"
  param {
    lr_mult: 1
    decay_mult: 1
  }
  convolution_param {
    num_output: 512
    bias_term: false
    pad: 0
    kernel_size: 1
    stride: 1
    weight_filler {
      type: "msra"
    }
  }
}
layer {
  name: "conv5_1/sep/bn"
  type: "BatchNorm"
  bottom: "conv5_1/sep"
  top: "conv5_1/sep"
  batch_norm_param {
    use_global_stats: false
    eps: 1e-05
  }
}
layer {
  name: "conv5_1/sep/scale"
  type: "Scale"
  bottom: "conv5_1/sep"
  top: "conv5_1/sep"
  param {
    lr_mult: 1
    decay_mult: 0
  }
  param {
    lr_mult: 1
    decay_mult: 0
  }
  scale_param {
    filler {
      value: 1
    }
    bias_term: true
    bias_filler {
      value: 0
    }
  }
}
layer {
  name: "relu5_1/sep"
  type: "ReLU"
  bottom: "conv5_1/sep"
  top: "conv5_1/sep"
}
layer {
  name: "conv5_2/dw"
  type: "DepthwiseConvolution"
  bottom: "conv5_1/sep"
  top: "conv5_2/dw"
  param {
    lr_mult: 1
    decay_mult: 1
  }
  convolution_param {
    num_output: 512
    bias_term: false
    pad: 1
    kernel_size: 3
    group: 512
    stride: 1
    weight_filler {
      type: "msra"
    }
    engine: CAFFE
  }
}
layer {
  name: "conv5_2/dw/bn"
  type: "BatchNorm"
  bottom: "conv5_2/dw"
  top: "conv5_2/dw"
  batch_norm_param {
    use_global_stats: false
    eps: 1e-05
  }
}
layer {
  name: "conv5_2/dw/scale"
  type: "Scale"
  bottom: "conv5_2/dw"
  top: "conv5_2/dw"
  param {
    lr_mult: 1
    decay_mult: 0
  }
  param {
    lr_mult: 1
    decay_mult: 0
  }
  scale_param {
    filler {
      value: 1
    }
    bias_term: true
    bias_filler {
      value: 0
    }
  }
}
layer {
  name: "relu5_2/dw"
  type: "ReLU"
  bottom: "conv5_2/dw"
  top: "conv5_2/dw"
}
layer {
  name: "conv5_2/sep"
  type: "Convolution"
  bottom: "conv5_2/dw"
  top: "conv5_2/sep"
  param {
    lr_mult: 1
    decay_mult: 1
  }
  convolution_param {
    num_output: 512
    bias_term: false
    pad: 0
    kernel_size: 1
    stride: 1
    weight_filler {
      type: "msra"
    }
  }
}
layer {
  name: "conv5_2/sep/bn"
  type: "BatchNorm"
  bottom: "conv5_2/sep"
  top: "conv5_2/sep"
  batch_norm_param {
    use_global_stats: false
    eps: 1e-05
  }
}
layer {
  name: "conv5_2/sep/scale"
  type: "Scale"
  bottom: "conv5_2/sep"
  top: "conv5_2/sep"
  param {
    lr_mult: 1
    decay_mult: 0
  }
  param {
    lr_mult: 1
    decay_mult: 0
  }
  scale_param {
    filler {
      value: 1
    }
    bias_term: true
    bias_filler {
      value: 0
    }
  }
}
layer {
  name: "relu5_2/sep"
  type: "ReLU"
  bottom: "conv5_2/sep"
  top: "conv5_2/sep"
}
layer {
  name: "conv5_3/dw"
  type: "DepthwiseConvolution"
  bottom: "conv5_2/sep"
  top: "conv5_3/dw"
  param {
    lr_mult: 1
    decay_mult: 1
  }
  convolution_param {
    num_output: 512
    bias_term: false
    pad: 1
    kernel_size: 3
    group: 512
    stride: 1
    weight_filler {
      type: "msra"
    }
    engine: CAFFE
  }
}
layer {
  name: "conv5_3/dw/bn"
  type: "BatchNorm"
  bottom: "conv5_3/dw"
  top: "conv5_3/dw"
  batch_norm_param {
    use_global_stats: false
    eps: 1e-05
  }
}
layer {
  name: "conv5_3/dw/scale"
  type: "Scale"
  bottom: "conv5_3/dw"
  top: "conv5_3/dw"
  param {
    lr_mult: 1
    decay_mult: 0
  }
  param {
    lr_mult: 1
    decay_mult: 0
  }
  scale_param {
    filler {
      value: 1
    }
    bias_term: true
    bias_filler {
      value: 0
    }
  }
}
layer {
  name: "relu5_3/dw"
  type: "ReLU"
  bottom: "conv5_3/dw"
  top: "conv5_3/dw"
}
layer {
  name: "conv5_3/sep"
  type: "Convolution"
  bottom: "conv5_3/dw"
  top: "conv5_3/sep"
  param {
    lr_mult: 1
    decay_mult: 1
  }
  convolution_param {
    num_output: 512
    bias_term: false
    pad: 0
    kernel_size: 1
    stride: 1
    weight_filler {
      type: "msra"
    }
  }
}
layer {
  name: "conv5_3/sep/bn"
  type: "BatchNorm"
  bottom: "conv5_3/sep"
  top: "conv5_3/sep"
  batch_norm_param {
    use_global_stats: false
    eps: 1e-05
  }
}
layer {
  name: "conv5_3/sep/scale"
  type: "Scale"
  bottom: "conv5_3/sep"
  top: "conv5_3/sep"
  param {
    lr_mult: 1
    decay_mult: 0
  }
  param {
    lr_mult: 1
    decay_mult: 0
  }
  scale_param {
    filler {
      value: 1
    }
    bias_term: true
    bias_filler {
      value: 0
    }
  }
}
layer {
  name: "relu5_3/sep"
  type: "ReLU"
  bottom: "conv5_3/sep"
  top: "conv5_3/sep"
}
layer {
  name: "conv5_4/dw"
  type: "DepthwiseConvolution"
  bottom: "conv5_3/sep"
  top: "conv5_4/dw"
  param {
    lr_mult: 1
    decay_mult: 1
  }
  convolution_param {
    num_output: 512
    bias_term: false
    pad: 1
    kernel_size: 3
    group: 512
    stride: 1
    weight_filler {
      type: "msra"
    }
    engine: CAFFE
  }
}
layer {
  name: "conv5_4/dw/bn"
  type: "BatchNorm"
  bottom: "conv5_4/dw"
  top: "conv5_4/dw"
  batch_norm_param {
    use_global_stats: false
    eps: 1e-05
  }
}
layer {
  name: "conv5_4/dw/scale"
  type: "Scale"
  bottom: "conv5_4/dw"
  top: "conv5_4/dw"
  param {
    lr_mult: 1
    decay_mult: 0
  }
  param {
    lr_mult: 1
    decay_mult: 0
  }
  scale_param {
    filler {
      value: 1
    }
    bias_term: true
    bias_filler {
      value: 0
    }
  }
}
layer {
  name: "relu5_4/dw"
  type: "ReLU"
  bottom: "conv5_4/dw"
  top: "conv5_4/dw"
}
layer {
  name: "conv5_4/sep"
  type: "Convolution"
  bottom: "conv5_4/dw"
  top: "conv5_4/sep"
  param {
    lr_mult: 1
    decay_mult: 1
  }
  convolution_param {
    num_output: 512
    bias_term: false
    pad: 0
    kernel_size: 1
    stride: 1
    weight_filler {
      type: "msra"
    }
  }
}
layer {
  name: "conv5_4/sep/bn"
  type: "BatchNorm"
  bottom: "conv5_4/sep"
  top: "conv5_4/sep"
  batch_norm_param {
    use_global_stats: false
    eps: 1e-05
  }
}
layer {
  name: "conv5_4/sep/scale"
  type: "Scale"
  bottom: "conv5_4/sep"
  top: "conv5_4/sep"
  param {
    lr_mult: 1
    decay_mult: 0
  }
  param {
    lr_mult: 1
    decay_mult: 0
  }
  scale_param {
    filler {
      value: 1
    }
    bias_term: true
    bias_filler {
      value: 0
    }
  }
}
layer {
  name: "relu5_4/sep"
  type: "ReLU"
  bottom: "conv5_4/sep"
  top: "conv5_4/sep"
}
layer {
  name: "conv5_5/dw"
  type: "DepthwiseConvolution"
  bottom: "conv5_4/sep"
  top: "conv5_5/dw"
  param {
    lr_mult: 1
    decay_mult: 1
  }
  convolution_param {
    num_output: 512
    bias_term: false
    pad: 1
    kernel_size: 3
    group: 512
    stride: 1
    weight_filler {
      type: "msra"
    }
    engine: CAFFE
  }
}
layer {
  name: "conv5_5/dw/bn"
  type: "BatchNorm"
  bottom: "conv5_5/dw"
  top: "conv5_5/dw"
  batch_norm_param {
    use_global_stats: false
    eps: 1e-05
  }
}
layer {
  name: "conv5_5/dw/scale"
  type: "Scale"
  bottom: "conv5_5/dw"
  top: "conv5_5/dw"
  param {
    lr_mult: 1
    decay_mult: 0
  }
  param {
    lr_mult: 1
    decay_mult: 0
  }
  scale_param {
    filler {
      value: 1
    }
    bias_term: true
    bias_filler {
      value: 0
    }
  }
}
layer {
  name: "relu5_5/dw"
  type: "ReLU"
  bottom: "conv5_5/dw"
  top: "conv5_5/dw"
}
layer {
  name: "conv5_5/sep"
  type: "Convolution"
  bottom: "conv5_5/dw"
  top: "conv5_5/sep"
  param {
    lr_mult: 1
    decay_mult: 1
  }
  convolution_param {
    num_output: 512
    bias_term: false
    pad: 0
    kernel_size: 1
    stride: 1
    weight_filler {
      type: "msra"
    }
  }
}
layer {
  name: "conv5_5/sep/bn"
  type: "BatchNorm"
  bottom: "conv5_5/sep"
  top: "conv5_5/sep"
  batch_norm_param {
    use_global_stats: false
    eps: 1e-05
  }
}
layer {
  name: "conv5_5/sep/scale"
  type: "Scale"
  bottom: "conv5_5/sep"
  top: "conv5_5/sep"
  param {
    lr_mult: 1
    decay_mult: 0
  }
  param {
    lr_mult: 1
    decay_mult: 0
  }
  scale_param {
    filler {
      value: 1
    }
    bias_term: true
    bias_filler {
      value: 0
    }
  }
}
layer {
  name: "relu5_5/sep"
  type: "ReLU"
  bottom: "conv5_5/sep"
  top: "conv5_5/sep"
}
layer {
  name: "conv5_6/dw"
  type: "DepthwiseConvolution"
  bottom: "conv5_5/sep"
  top: "conv5_6/dw"
  param {
    lr_mult: 1
    decay_mult: 1
  }
  convolution_param {
    num_output: 512
    bias_term: false
    pad: 1
    kernel_size: 3
    group: 512
    stride: 2
    weight_filler {
      type: "msra"
    }
    engine: CAFFE
  }
}
layer {
  name: "conv5_6/dw/bn"
  type: "BatchNorm"
  bottom: "conv5_6/dw"
  top: "conv5_6/dw"
  batch_norm_param {
    use_global_stats: false
    eps: 1e-05
  }
}
layer {
  name: "conv5_6/dw/scale"
  type: "Scale"
  bottom: "conv5_6/dw"
  top: "conv5_6/dw"
  param {
    lr_mult: 1
    decay_mult: 0
  }
  param {
    lr_mult: 1
    decay_mult: 0
  }
  scale_param {
    filler {
      value: 1
    }
    bias_term: true
    bias_filler {
      value: 0
    }
  }
}
layer {
  name: "relu5_6/dw"
  type: "ReLU"
  bottom: "conv5_6/dw"
  top: "conv5_6/dw"
}
layer {
  name: "conv5_6/sep"
  type: "Convolution"
  bottom: "conv5_6/dw"
  top: "conv5_6/sep"
  param {
    lr_mult: 1
    decay_mult: 1
  }
  convolution_param {
    num_output: 1024
    bias_term: false
    pad: 0
    kernel_size: 1
    stride: 1
    weight_filler {
      type: "msra"
    }
  }
}
layer {
  name: "conv5_6/sep/bn"
  type: "BatchNorm"
  bottom: "conv5_6/sep"
  top: "conv5_6/sep"
  batch_norm_param {
    use_global_stats: false
    eps: 1e-05
  }
}
layer {
  name: "conv5_6/sep/scale"
  type: "Scale"
  bottom: "conv5_6/sep"
  top: "conv5_6/sep"
  param {
    lr_mult: 1
    decay_mult: 0
  }
  param {
    lr_mult: 1
    decay_mult: 0
  }
  scale_param {
    filler {
      value: 1
    }
    bias_term: true
    bias_filler {
      value: 0
    }
  }
}
layer {
  name: "relu5_6/sep"
  type: "ReLU"
  bottom: "conv5_6/sep"
  top: "conv5_6/sep"
}
layer {
  name: "conv6/dw"
  type: "DepthwiseConvolution"
  bottom: "conv5_6/sep"
  top: "conv6/dw"
  param {
    lr_mult: 1
    decay_mult: 1
  }
  convolution_param {
    num_output: 1024
    bias_term: false
    pad: 1
    kernel_size: 3
    group: 1024
    stride: 1
    weight_filler {
      type: "msra"
    }
    engine: CAFFE
  }
}
layer {
  name: "conv6/dw/bn"
  type: "BatchNorm"
  bottom: "conv6/dw"
  top: "conv6/dw"
  batch_norm_param {
    use_global_stats: false
    eps: 1e-05
  }
}
layer {
  name: "conv6/dw/scale"
  type: "Scale"
  bottom: "conv6/dw"
  top: "conv6/dw"
  param {
    lr_mult: 1
    decay_mult: 0
  }
  param {
    lr_mult: 1
    decay_mult: 0
  }
  scale_param {
    filler {
      value: 1
    }
    bias_term: true
    bias_filler {
      value: 0
    }
  }
}
layer {
  name: "relu6/dw"
  type: "ReLU"
  bottom: "conv6/dw"
  top: "conv6/dw"
}
layer {
  name: "conv6/sep"
  type: "Convolution"
  bottom: "conv6/dw"
  top: "conv6/sep"
  param {
    lr_mult: 1
    decay_mult: 1
  }
  convolution_param {
    num_output: 1024
    bias_term: false
    pad: 0
    kernel_size: 1
    stride: 1
    weight_filler {
      type: "msra"
    }
  }
}
layer {
  name: "conv6/sep/bn"
  type: "BatchNorm"
  bottom: "conv6/sep"
  top: "conv6/sep"
  batch_norm_param {
    use_global_stats: false
    eps: 1e-05
  }
}
layer {
  name: "conv6/sep/scale"
  type: "Scale"
  bottom: "conv6/sep"
  top: "conv6/sep"
  param {
    lr_mult: 1
    decay_mult: 0
  }
  param {
    lr_mult: 1
    decay_mult: 0
  }
  scale_param {
    filler {
      value: 1
    }
    bias_term: true
    bias_filler {
      value: 0
    }
  }
}
layer {
  name: "relu6/sep"
  type: "ReLU"
  bottom: "conv6/sep"
  top: "conv6/sep"
}
layer {
  name: "pool6"
  type: "Pooling"
  bottom: "conv6/sep"
  top: "pool6"
  pooling_param {
    pool: AVE
    global_pooling: true
  }
}
layer {
  name: "cls_gender"
  type: "Convolution"
  bottom: "pool6"
  top: "cls_gender"
  param {
    lr_mult: 1
    decay_mult: 1
  }
  param {
    lr_mult: 2
    decay_mult: 0
  }
  convolution_param {
    num_output: 2
    kernel_size: 1
    weight_filler {
      type: "msra"
    }
    bias_filler {
      type: "constant"
      value: 0
    }
  }
}
layer {
  name: "loss_gender"
  type: "SoftmaxWithLoss"
  bottom: "cls_gender"
  bottom: "gender_label"
  top: "loss_gender"
}
layer {
  name: "gender_accuracy"
  type: "Accuracy"
  bottom: "cls_gender"
  bottom: "gender_label"
  top: "gender_accuracy"
  include {
    phase: TEST
  }
}
layer {
  name: "cls_age"
  type: "Convolution"
  bottom: "pool6"
  top: "cls_age"
  param {
    lr_mult: 1
    decay_mult: 1
  }
  param {
    lr_mult: 2
    decay_mult: 0
  }
  convolution_param {
    num_output: 7
    kernel_size: 1
    weight_filler {
      type: "msra"
    }
    bias_filler {
      type: "constant"
      value: 0
    }
  }
}
layer {
  name: "loss_age"
  type: "SoftmaxWithLoss"
  bottom: "cls_age"
  bottom: "age_label"
  top: "loss_age"
}
layer {
  name: "age_accuracy"
  type: "Accuracy"
  bottom: "cls_age"
  bottom: "age_label"
  top: "age_accuracy"
  include {
    phase: TEST
  }
}
layer {
  name: "cls_mask"
  type: "Convolution"
  bottom: "pool6"
  top: "cls_mask"
  param {
    lr_mult: 1
    decay_mult: 1
  }
  param {
    lr_mult: 2
    decay_mult: 0
  }
  convolution_param {
    num_output: 2
    kernel_size: 1
    weight_filler {
      type: "msra"
    }
    bias_filler {
      type: "constant"
      value: 0
    }
  }
}
layer {
  name: "loss_mask"
  type: "SoftmaxWithLoss"
  bottom: "cls_mask"
  bottom: "mask_label"
  top: "loss_mask"
}
layer {
  name: "mask_accuracy"
  type: "Accuracy"
  bottom: "cls_mask"
  bottom: "mask_label"
  top: "mask_accuracy"
  include {
    phase: TEST
  }
}
layer {
  name: "cls_glass"
  type: "Convolution"
  bottom: "pool6"
  top: "cls_glass"
  param {
    lr_mult: 1
    decay_mult: 1
  }
  param {
    lr_mult: 2
    decay_mult: 0
  }
  convolution_param {
    num_output: 3
    kernel_size: 1
    weight_filler {
      type: "msra"
    }
    bias_filler {
      type: "constant"
      value: 0
    }
  }
}
layer {
  name: "loss_glass"
  type: "SoftmaxWithLoss"
  bottom: "cls_glass"
  bottom: "glass_label"
  top: "loss_glass"
}
layer {
  name: "glass_accuracy"
  type: "Accuracy"
  bottom: "cls_glass"
  bottom: "glass_label"
  top: "glass_accuracy"
  include {
    phase: TEST
  }
}
layer {
  name: "cls_expre"
  type: "Convolution"
  bottom: "pool6"
  top: "cls_expre"
  param {
    lr_mult: 1
    decay_mult: 1
  }
  param {
    lr_mult: 2
    decay_mult: 0
  }
  convolution_param {
    num_output: 2
    kernel_size: 1
    weight_filler {
      type: "msra"
    }
    bias_filler {
      type: "constant"
      value: 0
    }
  }
}
layer {
  name: "loss_expre"
  type: "SoftmaxWithLoss"
  bottom: "cls_expre"
  bottom: "expre_label"
  top: "loss_expre"
}
layer {
  name: "expre_accuracy"
  type: "Accuracy"
  bottom: "cls_expre"
  bottom: "expre_label"
  top: "expre_accuracy"
  include {
    phase: TEST
  }
}
layer {
  name: "cls_block"
  type: "Convolution"
  bottom: "pool6"
  top: "cls_block"
  param {
    lr_mult: 1
    decay_mult: 1
  }
  param {
    lr_mult: 2
    decay_mult: 0
  }
  convolution_param {
    num_output: 2
    kernel_size: 1
    weight_filler {
      type: "msra"
    }
    bias_filler {
      type: "constant"
      value: 0
    }
  }
}
layer {
  name: "loss_block"
  type: "SoftmaxWithLoss"
  bottom: "cls_block"
  bottom: "block_label"
  top: "loss_block"
}
layer {
  name: "block_accuracy"
  type: "Accuracy"
  bottom: "cls_block"
  bottom: "block_label"
  top: "block_accuracy"
  include {
    phase: TEST
  }
}
layer {
  name: "cls_weizu"
  type: "Convolution"
  bottom: "pool6"
  top: "cls_weizu"
  param {
    lr_mult: 1
    decay_mult: 1
  }
  param {
    lr_mult: 2
    decay_mult: 0
  }
  convolution_param {
    num_output: 2
    kernel_size: 1
    weight_filler {
      type: "msra"
    }
    bias_filler {
      type: "constant"
      value: 0
    }
  }
}
layer {
  name: "loss_weizu"
  type: "SoftmaxWithLoss"
  bottom: "cls_weizu"
  bottom: "weizu_label"
  top: "loss_weizu"
}
layer {
  name: "weizu_accuracy"
  type: "Accuracy"
  bottom: "cls_weizu"
  bottom: "weizu_label"
  top: "weizu_accuracy"
  include {
    phase: TEST
  }
}
I1227 03:33:57.252624 39878 layer_factory.hpp:77] Creating layer data
I1227 03:33:57.252691 39878 net.cpp:86] Creating Layer data
I1227 03:33:57.252707 39878 net.cpp:382] data -> data
I1227 03:33:57.252720 39878 net.cpp:382] data -> gender_label
I1227 03:33:57.252734 39878 net.cpp:382] data -> age_label
I1227 03:33:57.252745 39878 net.cpp:382] data -> mask_label
I1227 03:33:57.252753 39878 net.cpp:382] data -> glass_label
I1227 03:33:57.252763 39878 net.cpp:382] data -> expre_label
I1227 03:33:57.252771 39878 net.cpp:382] data -> block_label
I1227 03:33:57.252780 39878 net.cpp:382] data -> weizu_label
I1227 03:33:57.267966 39878 net.cpp:124] Setting up data
I1227 03:33:57.267987 39878 net.cpp:131] Top shape: 128 3 112 112 (4816896)
I1227 03:33:57.267995 39878 net.cpp:131] Top shape: 128 1 (128)
I1227 03:33:57.268002 39878 net.cpp:131] Top shape: 128 1 (128)
I1227 03:33:57.268007 39878 net.cpp:131] Top shape: 128 1 (128)
I1227 03:33:57.268013 39878 net.cpp:131] Top shape: 128 1 (128)
I1227 03:33:57.268018 39878 net.cpp:131] Top shape: 128 1 (128)
I1227 03:33:57.268023 39878 net.cpp:131] Top shape: 128 1 (128)
I1227 03:33:57.268028 39878 net.cpp:131] Top shape: 128 1 (128)
I1227 03:33:57.268033 39878 net.cpp:139] Memory required for data: 19271168
I1227 03:33:57.268039 39878 layer_factory.hpp:77] Creating layer gender_label_data_1_split
I1227 03:33:57.268050 39878 net.cpp:86] Creating Layer gender_label_data_1_split
I1227 03:33:57.268057 39878 net.cpp:408] gender_label_data_1_split <- gender_label
I1227 03:33:57.268065 39878 net.cpp:382] gender_label_data_1_split -> gender_label_data_1_split_0
I1227 03:33:57.268076 39878 net.cpp:382] gender_label_data_1_split -> gender_label_data_1_split_1
I1227 03:33:57.268115 39878 net.cpp:124] Setting up gender_label_data_1_split
I1227 03:33:57.268126 39878 net.cpp:131] Top shape: 128 1 (128)
I1227 03:33:57.268131 39878 net.cpp:131] Top shape: 128 1 (128)
I1227 03:33:57.268136 39878 net.cpp:139] Memory required for data: 19272192
I1227 03:33:57.268141 39878 layer_factory.hpp:77] Creating layer age_label_data_2_split
I1227 03:33:57.268148 39878 net.cpp:86] Creating Layer age_label_data_2_split
I1227 03:33:57.268153 39878 net.cpp:408] age_label_data_2_split <- age_label
I1227 03:33:57.268160 39878 net.cpp:382] age_label_data_2_split -> age_label_data_2_split_0
I1227 03:33:57.268169 39878 net.cpp:382] age_label_data_2_split -> age_label_data_2_split_1
I1227 03:33:57.268203 39878 net.cpp:124] Setting up age_label_data_2_split
I1227 03:33:57.268211 39878 net.cpp:131] Top shape: 128 1 (128)
I1227 03:33:57.268216 39878 net.cpp:131] Top shape: 128 1 (128)
I1227 03:33:57.268221 39878 net.cpp:139] Memory required for data: 19273216
I1227 03:33:57.268226 39878 layer_factory.hpp:77] Creating layer mask_label_data_3_split
I1227 03:33:57.268232 39878 net.cpp:86] Creating Layer mask_label_data_3_split
I1227 03:33:57.268239 39878 net.cpp:408] mask_label_data_3_split <- mask_label
I1227 03:33:57.268245 39878 net.cpp:382] mask_label_data_3_split -> mask_label_data_3_split_0
I1227 03:33:57.268254 39878 net.cpp:382] mask_label_data_3_split -> mask_label_data_3_split_1
I1227 03:33:57.268290 39878 net.cpp:124] Setting up mask_label_data_3_split
I1227 03:33:57.268299 39878 net.cpp:131] Top shape: 128 1 (128)
I1227 03:33:57.268306 39878 net.cpp:131] Top shape: 128 1 (128)
I1227 03:33:57.268309 39878 net.cpp:139] Memory required for data: 19274240
I1227 03:33:57.268314 39878 layer_factory.hpp:77] Creating layer glass_label_data_4_split
I1227 03:33:57.268322 39878 net.cpp:86] Creating Layer glass_label_data_4_split
I1227 03:33:57.268327 39878 net.cpp:408] glass_label_data_4_split <- glass_label
I1227 03:33:57.268337 39878 net.cpp:382] glass_label_data_4_split -> glass_label_data_4_split_0
I1227 03:33:57.268347 39878 net.cpp:382] glass_label_data_4_split -> glass_label_data_4_split_1
I1227 03:33:57.268386 39878 net.cpp:124] Setting up glass_label_data_4_split
I1227 03:33:57.268395 39878 net.cpp:131] Top shape: 128 1 (128)
I1227 03:33:57.268401 39878 net.cpp:131] Top shape: 128 1 (128)
I1227 03:33:57.268405 39878 net.cpp:139] Memory required for data: 19275264
I1227 03:33:57.268410 39878 layer_factory.hpp:77] Creating layer expre_label_data_5_split
I1227 03:33:57.268417 39878 net.cpp:86] Creating Layer expre_label_data_5_split
I1227 03:33:57.268422 39878 net.cpp:408] expre_label_data_5_split <- expre_label
I1227 03:33:57.268431 39878 net.cpp:382] expre_label_data_5_split -> expre_label_data_5_split_0
I1227 03:33:57.268445 39878 net.cpp:382] expre_label_data_5_split -> expre_label_data_5_split_1
I1227 03:33:57.268482 39878 net.cpp:124] Setting up expre_label_data_5_split
I1227 03:33:57.268492 39878 net.cpp:131] Top shape: 128 1 (128)
I1227 03:33:57.268502 39878 net.cpp:131] Top shape: 128 1 (128)
I1227 03:33:57.268507 39878 net.cpp:139] Memory required for data: 19276288
I1227 03:33:57.268512 39878 layer_factory.hpp:77] Creating layer block_label_data_6_split
I1227 03:33:57.268519 39878 net.cpp:86] Creating Layer block_label_data_6_split
I1227 03:33:57.268524 39878 net.cpp:408] block_label_data_6_split <- block_label
I1227 03:33:57.268533 39878 net.cpp:382] block_label_data_6_split -> block_label_data_6_split_0
I1227 03:33:57.268543 39878 net.cpp:382] block_label_data_6_split -> block_label_data_6_split_1
I1227 03:33:57.268580 39878 net.cpp:124] Setting up block_label_data_6_split
I1227 03:33:57.268590 39878 net.cpp:131] Top shape: 128 1 (128)
I1227 03:33:57.268595 39878 net.cpp:131] Top shape: 128 1 (128)
I1227 03:33:57.268600 39878 net.cpp:139] Memory required for data: 19277312
I1227 03:33:57.268605 39878 layer_factory.hpp:77] Creating layer weizu_label_data_7_split
I1227 03:33:57.268615 39878 net.cpp:86] Creating Layer weizu_label_data_7_split
I1227 03:33:57.268621 39878 net.cpp:408] weizu_label_data_7_split <- weizu_label
I1227 03:33:57.268633 39878 net.cpp:382] weizu_label_data_7_split -> weizu_label_data_7_split_0
I1227 03:33:57.268647 39878 net.cpp:382] weizu_label_data_7_split -> weizu_label_data_7_split_1
I1227 03:33:57.268692 39878 net.cpp:124] Setting up weizu_label_data_7_split
I1227 03:33:57.268703 39878 net.cpp:131] Top shape: 128 1 (128)
I1227 03:33:57.268708 39878 net.cpp:131] Top shape: 128 1 (128)
I1227 03:33:57.268713 39878 net.cpp:139] Memory required for data: 19278336
I1227 03:33:57.268718 39878 layer_factory.hpp:77] Creating layer conv1
I1227 03:33:57.268733 39878 net.cpp:86] Creating Layer conv1
I1227 03:33:57.268739 39878 net.cpp:408] conv1 <- data
I1227 03:33:57.268748 39878 net.cpp:382] conv1 -> conv1
I1227 03:33:57.268946 39878 net.cpp:124] Setting up conv1
I1227 03:33:57.268960 39878 net.cpp:131] Top shape: 128 32 56 56 (12845056)
I1227 03:33:57.268965 39878 net.cpp:139] Memory required for data: 70658560
I1227 03:33:57.268975 39878 layer_factory.hpp:77] Creating layer conv1/bn
I1227 03:33:57.268985 39878 net.cpp:86] Creating Layer conv1/bn
I1227 03:33:57.268990 39878 net.cpp:408] conv1/bn <- conv1
I1227 03:33:57.268997 39878 net.cpp:369] conv1/bn -> conv1 (in-place)
I1227 03:33:57.269201 39878 net.cpp:124] Setting up conv1/bn
I1227 03:33:57.269212 39878 net.cpp:131] Top shape: 128 32 56 56 (12845056)
I1227 03:33:57.269217 39878 net.cpp:139] Memory required for data: 122038784
I1227 03:33:57.269229 39878 layer_factory.hpp:77] Creating layer conv1/scale
I1227 03:33:57.269239 39878 net.cpp:86] Creating Layer conv1/scale
I1227 03:33:57.269245 39878 net.cpp:408] conv1/scale <- conv1
I1227 03:33:57.269255 39878 net.cpp:369] conv1/scale -> conv1 (in-place)
I1227 03:33:57.269294 39878 layer_factory.hpp:77] Creating layer conv1/scale
I1227 03:33:57.269430 39878 net.cpp:124] Setting up conv1/scale
I1227 03:33:57.269443 39878 net.cpp:131] Top shape: 128 32 56 56 (12845056)
I1227 03:33:57.269448 39878 net.cpp:139] Memory required for data: 173419008
I1227 03:33:57.269459 39878 layer_factory.hpp:77] Creating layer relu1
I1227 03:33:57.269475 39878 net.cpp:86] Creating Layer relu1
I1227 03:33:57.269485 39878 net.cpp:408] relu1 <- conv1
I1227 03:33:57.269495 39878 net.cpp:369] relu1 -> conv1 (in-place)
I1227 03:33:57.269505 39878 net.cpp:124] Setting up relu1
I1227 03:33:57.269511 39878 net.cpp:131] Top shape: 128 32 56 56 (12845056)
I1227 03:33:57.269516 39878 net.cpp:139] Memory required for data: 224799232
I1227 03:33:57.269521 39878 layer_factory.hpp:77] Creating layer conv2_1/dw
I1227 03:33:57.269532 39878 net.cpp:86] Creating Layer conv2_1/dw
I1227 03:33:57.269538 39878 net.cpp:408] conv2_1/dw <- conv1
I1227 03:33:57.269546 39878 net.cpp:382] conv2_1/dw -> conv2_1/dw
I1227 03:33:57.269734 39878 net.cpp:124] Setting up conv2_1/dw
I1227 03:33:57.269747 39878 net.cpp:131] Top shape: 128 32 56 56 (12845056)
I1227 03:33:57.269752 39878 net.cpp:139] Memory required for data: 276179456
I1227 03:33:57.269762 39878 layer_factory.hpp:77] Creating layer conv2_1/dw/bn
I1227 03:33:57.269770 39878 net.cpp:86] Creating Layer conv2_1/dw/bn
I1227 03:33:57.269776 39878 net.cpp:408] conv2_1/dw/bn <- conv2_1/dw
I1227 03:33:57.269785 39878 net.cpp:369] conv2_1/dw/bn -> conv2_1/dw (in-place)
I1227 03:33:57.269974 39878 net.cpp:124] Setting up conv2_1/dw/bn
I1227 03:33:57.269986 39878 net.cpp:131] Top shape: 128 32 56 56 (12845056)
I1227 03:33:57.269995 39878 net.cpp:139] Memory required for data: 327559680
I1227 03:33:57.270015 39878 layer_factory.hpp:77] Creating layer conv2_1/dw/scale
I1227 03:33:57.270030 39878 net.cpp:86] Creating Layer conv2_1/dw/scale
I1227 03:33:57.270037 39878 net.cpp:408] conv2_1/dw/scale <- conv2_1/dw
I1227 03:33:57.270045 39878 net.cpp:369] conv2_1/dw/scale -> conv2_1/dw (in-place)
I1227 03:33:57.270085 39878 layer_factory.hpp:77] Creating layer conv2_1/dw/scale
I1227 03:33:57.270226 39878 net.cpp:124] Setting up conv2_1/dw/scale
I1227 03:33:57.270241 39878 net.cpp:131] Top shape: 128 32 56 56 (12845056)
I1227 03:33:57.270246 39878 net.cpp:139] Memory required for data: 378939904
I1227 03:33:57.270253 39878 layer_factory.hpp:77] Creating layer relu2_1/dw
I1227 03:33:57.270260 39878 net.cpp:86] Creating Layer relu2_1/dw
I1227 03:33:57.270267 39878 net.cpp:408] relu2_1/dw <- conv2_1/dw
I1227 03:33:57.270275 39878 net.cpp:369] relu2_1/dw -> conv2_1/dw (in-place)
I1227 03:33:57.270284 39878 net.cpp:124] Setting up relu2_1/dw
I1227 03:33:57.270292 39878 net.cpp:131] Top shape: 128 32 56 56 (12845056)
I1227 03:33:57.270295 39878 net.cpp:139] Memory required for data: 430320128
I1227 03:33:57.270300 39878 layer_factory.hpp:77] Creating layer conv2_1/sep
I1227 03:33:57.270315 39878 net.cpp:86] Creating Layer conv2_1/sep
I1227 03:33:57.270321 39878 net.cpp:408] conv2_1/sep <- conv2_1/dw
I1227 03:33:57.270328 39878 net.cpp:382] conv2_1/sep -> conv2_1/sep
I1227 03:33:57.270529 39878 net.cpp:124] Setting up conv2_1/sep
I1227 03:33:57.270541 39878 net.cpp:131] Top shape: 128 64 56 56 (25690112)
I1227 03:33:57.270547 39878 net.cpp:139] Memory required for data: 533080576
I1227 03:33:57.270553 39878 layer_factory.hpp:77] Creating layer conv2_1/sep/bn
I1227 03:33:57.270561 39878 net.cpp:86] Creating Layer conv2_1/sep/bn
I1227 03:33:57.270567 39878 net.cpp:408] conv2_1/sep/bn <- conv2_1/sep
I1227 03:33:57.270575 39878 net.cpp:369] conv2_1/sep/bn -> conv2_1/sep (in-place)
I1227 03:33:57.270762 39878 net.cpp:124] Setting up conv2_1/sep/bn
I1227 03:33:57.270772 39878 net.cpp:131] Top shape: 128 64 56 56 (25690112)
I1227 03:33:57.270777 39878 net.cpp:139] Memory required for data: 635841024
I1227 03:33:57.270787 39878 layer_factory.hpp:77] Creating layer conv2_1/sep/scale
I1227 03:33:57.270795 39878 net.cpp:86] Creating Layer conv2_1/sep/scale
I1227 03:33:57.270802 39878 net.cpp:408] conv2_1/sep/scale <- conv2_1/sep
I1227 03:33:57.270810 39878 net.cpp:369] conv2_1/sep/scale -> conv2_1/sep (in-place)
I1227 03:33:57.270867 39878 layer_factory.hpp:77] Creating layer conv2_1/sep/scale
I1227 03:33:57.270999 39878 net.cpp:124] Setting up conv2_1/sep/scale
I1227 03:33:57.271010 39878 net.cpp:131] Top shape: 128 64 56 56 (25690112)
I1227 03:33:57.271016 39878 net.cpp:139] Memory required for data: 738601472
I1227 03:33:57.271028 39878 layer_factory.hpp:77] Creating layer relu2_1/sep
I1227 03:33:57.271037 39878 net.cpp:86] Creating Layer relu2_1/sep
I1227 03:33:57.271044 39878 net.cpp:408] relu2_1/sep <- conv2_1/sep
I1227 03:33:57.271050 39878 net.cpp:369] relu2_1/sep -> conv2_1/sep (in-place)
I1227 03:33:57.271060 39878 net.cpp:124] Setting up relu2_1/sep
I1227 03:33:57.271067 39878 net.cpp:131] Top shape: 128 64 56 56 (25690112)
I1227 03:33:57.271072 39878 net.cpp:139] Memory required for data: 841361920
I1227 03:33:57.271077 39878 layer_factory.hpp:77] Creating layer conv2_2/dw
I1227 03:33:57.271085 39878 net.cpp:86] Creating Layer conv2_2/dw
I1227 03:33:57.271090 39878 net.cpp:408] conv2_2/dw <- conv2_1/sep
I1227 03:33:57.271097 39878 net.cpp:382] conv2_2/dw -> conv2_2/dw
I1227 03:33:57.271284 39878 net.cpp:124] Setting up conv2_2/dw
I1227 03:33:57.271299 39878 net.cpp:131] Top shape: 128 64 28 28 (6422528)
I1227 03:33:57.271304 39878 net.cpp:139] Memory required for data: 867052032
I1227 03:33:57.271311 39878 layer_factory.hpp:77] Creating layer conv2_2/dw/bn
I1227 03:33:57.271322 39878 net.cpp:86] Creating Layer conv2_2/dw/bn
I1227 03:33:57.271327 39878 net.cpp:408] conv2_2/dw/bn <- conv2_2/dw
I1227 03:33:57.271334 39878 net.cpp:369] conv2_2/dw/bn -> conv2_2/dw (in-place)
I1227 03:33:57.271540 39878 net.cpp:124] Setting up conv2_2/dw/bn
I1227 03:33:57.271554 39878 net.cpp:131] Top shape: 128 64 28 28 (6422528)
I1227 03:33:57.271559 39878 net.cpp:139] Memory required for data: 892742144
I1227 03:33:57.271569 39878 layer_factory.hpp:77] Creating layer conv2_2/dw/scale
I1227 03:33:57.271579 39878 net.cpp:86] Creating Layer conv2_2/dw/scale
I1227 03:33:57.271585 39878 net.cpp:408] conv2_2/dw/scale <- conv2_2/dw
I1227 03:33:57.271594 39878 net.cpp:369] conv2_2/dw/scale -> conv2_2/dw (in-place)
I1227 03:33:57.271632 39878 layer_factory.hpp:77] Creating layer conv2_2/dw/scale
I1227 03:33:57.271764 39878 net.cpp:124] Setting up conv2_2/dw/scale
I1227 03:33:57.271777 39878 net.cpp:131] Top shape: 128 64 28 28 (6422528)
I1227 03:33:57.271782 39878 net.cpp:139] Memory required for data: 918432256
I1227 03:33:57.271792 39878 layer_factory.hpp:77] Creating layer relu2_2/dw
I1227 03:33:57.271806 39878 net.cpp:86] Creating Layer relu2_2/dw
I1227 03:33:57.271816 39878 net.cpp:408] relu2_2/dw <- conv2_2/dw
I1227 03:33:57.271827 39878 net.cpp:369] relu2_2/dw -> conv2_2/dw (in-place)
I1227 03:33:57.271838 39878 net.cpp:124] Setting up relu2_2/dw
I1227 03:33:57.271845 39878 net.cpp:131] Top shape: 128 64 28 28 (6422528)
I1227 03:33:57.271850 39878 net.cpp:139] Memory required for data: 944122368
I1227 03:33:57.271855 39878 layer_factory.hpp:77] Creating layer conv2_2/sep
I1227 03:33:57.271867 39878 net.cpp:86] Creating Layer conv2_2/sep
I1227 03:33:57.271873 39878 net.cpp:408] conv2_2/sep <- conv2_2/dw
I1227 03:33:57.271881 39878 net.cpp:382] conv2_2/sep -> conv2_2/sep
I1227 03:33:57.272166 39878 net.cpp:124] Setting up conv2_2/sep
I1227 03:33:57.272179 39878 net.cpp:131] Top shape: 128 128 28 28 (12845056)
I1227 03:33:57.272184 39878 net.cpp:139] Memory required for data: 995502592
I1227 03:33:57.272193 39878 layer_factory.hpp:77] Creating layer conv2_2/sep/bn
I1227 03:33:57.272205 39878 net.cpp:86] Creating Layer conv2_2/sep/bn
I1227 03:33:57.272212 39878 net.cpp:408] conv2_2/sep/bn <- conv2_2/sep
I1227 03:33:57.272219 39878 net.cpp:369] conv2_2/sep/bn -> conv2_2/sep (in-place)
I1227 03:33:57.272397 39878 net.cpp:124] Setting up conv2_2/sep/bn
I1227 03:33:57.272408 39878 net.cpp:131] Top shape: 128 128 28 28 (12845056)
I1227 03:33:57.272413 39878 net.cpp:139] Memory required for data: 1046882816
I1227 03:33:57.272423 39878 layer_factory.hpp:77] Creating layer conv2_2/sep/scale
I1227 03:33:57.272433 39878 net.cpp:86] Creating Layer conv2_2/sep/scale
I1227 03:33:57.272439 39878 net.cpp:408] conv2_2/sep/scale <- conv2_2/sep
I1227 03:33:57.272446 39878 net.cpp:369] conv2_2/sep/scale -> conv2_2/sep (in-place)
I1227 03:33:57.272485 39878 layer_factory.hpp:77] Creating layer conv2_2/sep/scale
I1227 03:33:57.272599 39878 net.cpp:124] Setting up conv2_2/sep/scale
I1227 03:33:57.272614 39878 net.cpp:131] Top shape: 128 128 28 28 (12845056)
I1227 03:33:57.272619 39878 net.cpp:139] Memory required for data: 1098263040
I1227 03:33:57.272626 39878 layer_factory.hpp:77] Creating layer relu2_2/sep
I1227 03:33:57.272634 39878 net.cpp:86] Creating Layer relu2_2/sep
I1227 03:33:57.272639 39878 net.cpp:408] relu2_2/sep <- conv2_2/sep
I1227 03:33:57.272646 39878 net.cpp:369] relu2_2/sep -> conv2_2/sep (in-place)
I1227 03:33:57.272655 39878 net.cpp:124] Setting up relu2_2/sep
I1227 03:33:57.272663 39878 net.cpp:131] Top shape: 128 128 28 28 (12845056)
I1227 03:33:57.272668 39878 net.cpp:139] Memory required for data: 1149643264
I1227 03:33:57.272673 39878 layer_factory.hpp:77] Creating layer conv3_1/dw
I1227 03:33:57.272681 39878 net.cpp:86] Creating Layer conv3_1/dw
I1227 03:33:57.272693 39878 net.cpp:408] conv3_1/dw <- conv2_2/sep
I1227 03:33:57.272704 39878 net.cpp:382] conv3_1/dw -> conv3_1/dw
I1227 03:33:57.272899 39878 net.cpp:124] Setting up conv3_1/dw
I1227 03:33:57.272913 39878 net.cpp:131] Top shape: 128 128 28 28 (12845056)
I1227 03:33:57.272919 39878 net.cpp:139] Memory required for data: 1201023488
I1227 03:33:57.272925 39878 layer_factory.hpp:77] Creating layer conv3_1/dw/bn
I1227 03:33:57.272933 39878 net.cpp:86] Creating Layer conv3_1/dw/bn
I1227 03:33:57.272939 39878 net.cpp:408] conv3_1/dw/bn <- conv3_1/dw
I1227 03:33:57.272946 39878 net.cpp:369] conv3_1/dw/bn -> conv3_1/dw (in-place)
I1227 03:33:57.273120 39878 net.cpp:124] Setting up conv3_1/dw/bn
I1227 03:33:57.273130 39878 net.cpp:131] Top shape: 128 128 28 28 (12845056)
I1227 03:33:57.273135 39878 net.cpp:139] Memory required for data: 1252403712
I1227 03:33:57.273150 39878 layer_factory.hpp:77] Creating layer conv3_1/dw/scale
I1227 03:33:57.273160 39878 net.cpp:86] Creating Layer conv3_1/dw/scale
I1227 03:33:57.273166 39878 net.cpp:408] conv3_1/dw/scale <- conv3_1/dw
I1227 03:33:57.273175 39878 net.cpp:369] conv3_1/dw/scale -> conv3_1/dw (in-place)
I1227 03:33:57.273213 39878 layer_factory.hpp:77] Creating layer conv3_1/dw/scale
I1227 03:33:57.273326 39878 net.cpp:124] Setting up conv3_1/dw/scale
I1227 03:33:57.273340 39878 net.cpp:131] Top shape: 128 128 28 28 (12845056)
I1227 03:33:57.273345 39878 net.cpp:139] Memory required for data: 1303783936
I1227 03:33:57.273353 39878 layer_factory.hpp:77] Creating layer relu3_1/dw
I1227 03:33:57.273360 39878 net.cpp:86] Creating Layer relu3_1/dw
I1227 03:33:57.273366 39878 net.cpp:408] relu3_1/dw <- conv3_1/dw
I1227 03:33:57.273373 39878 net.cpp:369] relu3_1/dw -> conv3_1/dw (in-place)
I1227 03:33:57.273381 39878 net.cpp:124] Setting up relu3_1/dw
I1227 03:33:57.273387 39878 net.cpp:131] Top shape: 128 128 28 28 (12845056)
I1227 03:33:57.273392 39878 net.cpp:139] Memory required for data: 1355164160
I1227 03:33:57.273397 39878 layer_factory.hpp:77] Creating layer conv3_1/sep
I1227 03:33:57.273412 39878 net.cpp:86] Creating Layer conv3_1/sep
I1227 03:33:57.273418 39878 net.cpp:408] conv3_1/sep <- conv3_1/dw
I1227 03:33:57.273425 39878 net.cpp:382] conv3_1/sep -> conv3_1/sep
I1227 03:33:57.273789 39878 net.cpp:124] Setting up conv3_1/sep
I1227 03:33:57.273803 39878 net.cpp:131] Top shape: 128 128 28 28 (12845056)
I1227 03:33:57.273809 39878 net.cpp:139] Memory required for data: 1406544384
I1227 03:33:57.273816 39878 layer_factory.hpp:77] Creating layer conv3_1/sep/bn
I1227 03:33:57.273824 39878 net.cpp:86] Creating Layer conv3_1/sep/bn
I1227 03:33:57.273830 39878 net.cpp:408] conv3_1/sep/bn <- conv3_1/sep
I1227 03:33:57.273839 39878 net.cpp:369] conv3_1/sep/bn -> conv3_1/sep (in-place)
I1227 03:33:57.274019 39878 net.cpp:124] Setting up conv3_1/sep/bn
I1227 03:33:57.274030 39878 net.cpp:131] Top shape: 128 128 28 28 (12845056)
I1227 03:33:57.274035 39878 net.cpp:139] Memory required for data: 1457924608
I1227 03:33:57.274044 39878 layer_factory.hpp:77] Creating layer conv3_1/sep/scale
I1227 03:33:57.274053 39878 net.cpp:86] Creating Layer conv3_1/sep/scale
I1227 03:33:57.274060 39878 net.cpp:408] conv3_1/sep/scale <- conv3_1/sep
I1227 03:33:57.274071 39878 net.cpp:369] conv3_1/sep/scale -> conv3_1/sep (in-place)
I1227 03:33:57.274107 39878 layer_factory.hpp:77] Creating layer conv3_1/sep/scale
I1227 03:33:57.274219 39878 net.cpp:124] Setting up conv3_1/sep/scale
I1227 03:33:57.274232 39878 net.cpp:131] Top shape: 128 128 28 28 (12845056)
I1227 03:33:57.274238 39878 net.cpp:139] Memory required for data: 1509304832
I1227 03:33:57.274245 39878 layer_factory.hpp:77] Creating layer relu3_1/sep
I1227 03:33:57.274253 39878 net.cpp:86] Creating Layer relu3_1/sep
I1227 03:33:57.274258 39878 net.cpp:408] relu3_1/sep <- conv3_1/sep
I1227 03:33:57.274266 39878 net.cpp:369] relu3_1/sep -> conv3_1/sep (in-place)
I1227 03:33:57.274273 39878 net.cpp:124] Setting up relu3_1/sep
I1227 03:33:57.274282 39878 net.cpp:131] Top shape: 128 128 28 28 (12845056)
I1227 03:33:57.274287 39878 net.cpp:139] Memory required for data: 1560685056
I1227 03:33:57.274296 39878 layer_factory.hpp:77] Creating layer conv3_2/dw
I1227 03:33:57.274305 39878 net.cpp:86] Creating Layer conv3_2/dw
I1227 03:33:57.274310 39878 net.cpp:408] conv3_2/dw <- conv3_1/sep
I1227 03:33:57.274320 39878 net.cpp:382] conv3_2/dw -> conv3_2/dw
I1227 03:33:57.274507 39878 net.cpp:124] Setting up conv3_2/dw
I1227 03:33:57.274518 39878 net.cpp:131] Top shape: 128 128 14 14 (3211264)
I1227 03:33:57.274524 39878 net.cpp:139] Memory required for data: 1573530112
I1227 03:33:57.274530 39878 layer_factory.hpp:77] Creating layer conv3_2/dw/bn
I1227 03:33:57.274539 39878 net.cpp:86] Creating Layer conv3_2/dw/bn
I1227 03:33:57.274544 39878 net.cpp:408] conv3_2/dw/bn <- conv3_2/dw
I1227 03:33:57.274551 39878 net.cpp:369] conv3_2/dw/bn -> conv3_2/dw (in-place)
I1227 03:33:57.274735 39878 net.cpp:124] Setting up conv3_2/dw/bn
I1227 03:33:57.274754 39878 net.cpp:131] Top shape: 128 128 14 14 (3211264)
I1227 03:33:57.274760 39878 net.cpp:139] Memory required for data: 1586375168
I1227 03:33:57.274772 39878 layer_factory.hpp:77] Creating layer conv3_2/dw/scale
I1227 03:33:57.274782 39878 net.cpp:86] Creating Layer conv3_2/dw/scale
I1227 03:33:57.274788 39878 net.cpp:408] conv3_2/dw/scale <- conv3_2/dw
I1227 03:33:57.274796 39878 net.cpp:369] conv3_2/dw/scale -> conv3_2/dw (in-place)
I1227 03:33:57.274881 39878 layer_factory.hpp:77] Creating layer conv3_2/dw/scale
I1227 03:33:57.274996 39878 net.cpp:124] Setting up conv3_2/dw/scale
I1227 03:33:57.275015 39878 net.cpp:131] Top shape: 128 128 14 14 (3211264)
I1227 03:33:57.275023 39878 net.cpp:139] Memory required for data: 1599220224
I1227 03:33:57.275035 39878 layer_factory.hpp:77] Creating layer relu3_2/dw
I1227 03:33:57.275046 39878 net.cpp:86] Creating Layer relu3_2/dw
I1227 03:33:57.275053 39878 net.cpp:408] relu3_2/dw <- conv3_2/dw
I1227 03:33:57.275061 39878 net.cpp:369] relu3_2/dw -> conv3_2/dw (in-place)
I1227 03:33:57.275070 39878 net.cpp:124] Setting up relu3_2/dw
I1227 03:33:57.275077 39878 net.cpp:131] Top shape: 128 128 14 14 (3211264)
I1227 03:33:57.275082 39878 net.cpp:139] Memory required for data: 1612065280
I1227 03:33:57.275087 39878 layer_factory.hpp:77] Creating layer conv3_2/sep
I1227 03:33:57.275096 39878 net.cpp:86] Creating Layer conv3_2/sep
I1227 03:33:57.275101 39878 net.cpp:408] conv3_2/sep <- conv3_2/dw
I1227 03:33:57.275111 39878 net.cpp:382] conv3_2/sep -> conv3_2/sep
I1227 03:33:57.275656 39878 net.cpp:124] Setting up conv3_2/sep
I1227 03:33:57.275671 39878 net.cpp:131] Top shape: 128 256 14 14 (6422528)
I1227 03:33:57.275676 39878 net.cpp:139] Memory required for data: 1637755392
I1227 03:33:57.275682 39878 layer_factory.hpp:77] Creating layer conv3_2/sep/bn
I1227 03:33:57.275692 39878 net.cpp:86] Creating Layer conv3_2/sep/bn
I1227 03:33:57.275698 39878 net.cpp:408] conv3_2/sep/bn <- conv3_2/sep
I1227 03:33:57.275705 39878 net.cpp:369] conv3_2/sep/bn -> conv3_2/sep (in-place)
I1227 03:33:57.275903 39878 net.cpp:124] Setting up conv3_2/sep/bn
I1227 03:33:57.275915 39878 net.cpp:131] Top shape: 128 256 14 14 (6422528)
I1227 03:33:57.275920 39878 net.cpp:139] Memory required for data: 1663445504
I1227 03:33:57.275929 39878 layer_factory.hpp:77] Creating layer conv3_2/sep/scale
I1227 03:33:57.275941 39878 net.cpp:86] Creating Layer conv3_2/sep/scale
I1227 03:33:57.275948 39878 net.cpp:408] conv3_2/sep/scale <- conv3_2/sep
I1227 03:33:57.275954 39878 net.cpp:369] conv3_2/sep/scale -> conv3_2/sep (in-place)
I1227 03:33:57.275992 39878 layer_factory.hpp:77] Creating layer conv3_2/sep/scale
I1227 03:33:57.276109 39878 net.cpp:124] Setting up conv3_2/sep/scale
I1227 03:33:57.276123 39878 net.cpp:131] Top shape: 128 256 14 14 (6422528)
I1227 03:33:57.276127 39878 net.cpp:139] Memory required for data: 1689135616
I1227 03:33:57.276134 39878 layer_factory.hpp:77] Creating layer relu3_2/sep
I1227 03:33:57.276142 39878 net.cpp:86] Creating Layer relu3_2/sep
I1227 03:33:57.276149 39878 net.cpp:408] relu3_2/sep <- conv3_2/sep
I1227 03:33:57.276156 39878 net.cpp:369] relu3_2/sep -> conv3_2/sep (in-place)
I1227 03:33:57.276168 39878 net.cpp:124] Setting up relu3_2/sep
I1227 03:33:57.276176 39878 net.cpp:131] Top shape: 128 256 14 14 (6422528)
I1227 03:33:57.276180 39878 net.cpp:139] Memory required for data: 1714825728
I1227 03:33:57.276185 39878 layer_factory.hpp:77] Creating layer conv4_1/dw
I1227 03:33:57.276196 39878 net.cpp:86] Creating Layer conv4_1/dw
I1227 03:33:57.276202 39878 net.cpp:408] conv4_1/dw <- conv3_2/sep
I1227 03:33:57.276209 39878 net.cpp:382] conv4_1/dw -> conv4_1/dw
I1227 03:33:57.276407 39878 net.cpp:124] Setting up conv4_1/dw
I1227 03:33:57.276418 39878 net.cpp:131] Top shape: 128 256 14 14 (6422528)
I1227 03:33:57.276424 39878 net.cpp:139] Memory required for data: 1740515840
I1227 03:33:57.276430 39878 layer_factory.hpp:77] Creating layer conv4_1/dw/bn
I1227 03:33:57.276438 39878 net.cpp:86] Creating Layer conv4_1/dw/bn
I1227 03:33:57.276444 39878 net.cpp:408] conv4_1/dw/bn <- conv4_1/dw
I1227 03:33:57.276453 39878 net.cpp:369] conv4_1/dw/bn -> conv4_1/dw (in-place)
I1227 03:33:57.276629 39878 net.cpp:124] Setting up conv4_1/dw/bn
I1227 03:33:57.276639 39878 net.cpp:131] Top shape: 128 256 14 14 (6422528)
I1227 03:33:57.276644 39878 net.cpp:139] Memory required for data: 1766205952
I1227 03:33:57.276654 39878 layer_factory.hpp:77] Creating layer conv4_1/dw/scale
I1227 03:33:57.276664 39878 net.cpp:86] Creating Layer conv4_1/dw/scale
I1227 03:33:57.276669 39878 net.cpp:408] conv4_1/dw/scale <- conv4_1/dw
I1227 03:33:57.276679 39878 net.cpp:369] conv4_1/dw/scale -> conv4_1/dw (in-place)
I1227 03:33:57.276713 39878 layer_factory.hpp:77] Creating layer conv4_1/dw/scale
I1227 03:33:57.276821 39878 net.cpp:124] Setting up conv4_1/dw/scale
I1227 03:33:57.276836 39878 net.cpp:131] Top shape: 128 256 14 14 (6422528)
I1227 03:33:57.276841 39878 net.cpp:139] Memory required for data: 1791896064
I1227 03:33:57.276849 39878 layer_factory.hpp:77] Creating layer relu4_1/dw
I1227 03:33:57.276857 39878 net.cpp:86] Creating Layer relu4_1/dw
I1227 03:33:57.276862 39878 net.cpp:408] relu4_1/dw <- conv4_1/dw
I1227 03:33:57.276870 39878 net.cpp:369] relu4_1/dw -> conv4_1/dw (in-place)
I1227 03:33:57.276877 39878 net.cpp:124] Setting up relu4_1/dw
I1227 03:33:57.276885 39878 net.cpp:131] Top shape: 128 256 14 14 (6422528)
I1227 03:33:57.276890 39878 net.cpp:139] Memory required for data: 1817586176
I1227 03:33:57.276893 39878 layer_factory.hpp:77] Creating layer conv4_1/sep
I1227 03:33:57.276906 39878 net.cpp:86] Creating Layer conv4_1/sep
I1227 03:33:57.276911 39878 net.cpp:408] conv4_1/sep <- conv4_1/dw
I1227 03:33:57.276924 39878 net.cpp:382] conv4_1/sep -> conv4_1/sep
I1227 03:33:57.277828 39878 net.cpp:124] Setting up conv4_1/sep
I1227 03:33:57.277843 39878 net.cpp:131] Top shape: 128 256 14 14 (6422528)
I1227 03:33:57.277848 39878 net.cpp:139] Memory required for data: 1843276288
I1227 03:33:57.277855 39878 layer_factory.hpp:77] Creating layer conv4_1/sep/bn
I1227 03:33:57.277863 39878 net.cpp:86] Creating Layer conv4_1/sep/bn
I1227 03:33:57.277869 39878 net.cpp:408] conv4_1/sep/bn <- conv4_1/sep
I1227 03:33:57.277878 39878 net.cpp:369] conv4_1/sep/bn -> conv4_1/sep (in-place)
I1227 03:33:57.278059 39878 net.cpp:124] Setting up conv4_1/sep/bn
I1227 03:33:57.278069 39878 net.cpp:131] Top shape: 128 256 14 14 (6422528)
I1227 03:33:57.278074 39878 net.cpp:139] Memory required for data: 1868966400
I1227 03:33:57.278084 39878 layer_factory.hpp:77] Creating layer conv4_1/sep/scale
I1227 03:33:57.278093 39878 net.cpp:86] Creating Layer conv4_1/sep/scale
I1227 03:33:57.278098 39878 net.cpp:408] conv4_1/sep/scale <- conv4_1/sep
I1227 03:33:57.278108 39878 net.cpp:369] conv4_1/sep/scale -> conv4_1/sep (in-place)
I1227 03:33:57.278144 39878 layer_factory.hpp:77] Creating layer conv4_1/sep/scale
I1227 03:33:57.278249 39878 net.cpp:124] Setting up conv4_1/sep/scale
I1227 03:33:57.278262 39878 net.cpp:131] Top shape: 128 256 14 14 (6422528)
I1227 03:33:57.278268 39878 net.cpp:139] Memory required for data: 1894656512
I1227 03:33:57.278285 39878 layer_factory.hpp:77] Creating layer relu4_1/sep
I1227 03:33:57.278296 39878 net.cpp:86] Creating Layer relu4_1/sep
I1227 03:33:57.278304 39878 net.cpp:408] relu4_1/sep <- conv4_1/sep
I1227 03:33:57.278312 39878 net.cpp:369] relu4_1/sep -> conv4_1/sep (in-place)
I1227 03:33:57.278321 39878 net.cpp:124] Setting up relu4_1/sep
I1227 03:33:57.278328 39878 net.cpp:131] Top shape: 128 256 14 14 (6422528)
I1227 03:33:57.278332 39878 net.cpp:139] Memory required for data: 1920346624
I1227 03:33:57.278338 39878 layer_factory.hpp:77] Creating layer conv4_2/dw
I1227 03:33:57.278352 39878 net.cpp:86] Creating Layer conv4_2/dw
I1227 03:33:57.278362 39878 net.cpp:408] conv4_2/dw <- conv4_1/sep
I1227 03:33:57.278374 39878 net.cpp:382] conv4_2/dw -> conv4_2/dw
I1227 03:33:57.278597 39878 net.cpp:124] Setting up conv4_2/dw
I1227 03:33:57.278610 39878 net.cpp:131] Top shape: 128 256 7 7 (1605632)
I1227 03:33:57.278615 39878 net.cpp:139] Memory required for data: 1926769152
I1227 03:33:57.278622 39878 layer_factory.hpp:77] Creating layer conv4_2/dw/bn
I1227 03:33:57.278630 39878 net.cpp:86] Creating Layer conv4_2/dw/bn
I1227 03:33:57.278636 39878 net.cpp:408] conv4_2/dw/bn <- conv4_2/dw
I1227 03:33:57.278645 39878 net.cpp:369] conv4_2/dw/bn -> conv4_2/dw (in-place)
I1227 03:33:57.278857 39878 net.cpp:124] Setting up conv4_2/dw/bn
I1227 03:33:57.278872 39878 net.cpp:131] Top shape: 128 256 7 7 (1605632)
I1227 03:33:57.278877 39878 net.cpp:139] Memory required for data: 1933191680
I1227 03:33:57.278887 39878 layer_factory.hpp:77] Creating layer conv4_2/dw/scale
I1227 03:33:57.278895 39878 net.cpp:86] Creating Layer conv4_2/dw/scale
I1227 03:33:57.278901 39878 net.cpp:408] conv4_2/dw/scale <- conv4_2/dw
I1227 03:33:57.278911 39878 net.cpp:369] conv4_2/dw/scale -> conv4_2/dw (in-place)
I1227 03:33:57.278947 39878 layer_factory.hpp:77] Creating layer conv4_2/dw/scale
I1227 03:33:57.279055 39878 net.cpp:124] Setting up conv4_2/dw/scale
I1227 03:33:57.279067 39878 net.cpp:131] Top shape: 128 256 7 7 (1605632)
I1227 03:33:57.279072 39878 net.cpp:139] Memory required for data: 1939614208
I1227 03:33:57.279079 39878 layer_factory.hpp:77] Creating layer relu4_2/dw
I1227 03:33:57.279089 39878 net.cpp:86] Creating Layer relu4_2/dw
I1227 03:33:57.279095 39878 net.cpp:408] relu4_2/dw <- conv4_2/dw
I1227 03:33:57.279101 39878 net.cpp:369] relu4_2/dw -> conv4_2/dw (in-place)
I1227 03:33:57.279109 39878 net.cpp:124] Setting up relu4_2/dw
I1227 03:33:57.279116 39878 net.cpp:131] Top shape: 128 256 7 7 (1605632)
I1227 03:33:57.279121 39878 net.cpp:139] Memory required for data: 1946036736
I1227 03:33:57.279126 39878 layer_factory.hpp:77] Creating layer conv4_2/sep
I1227 03:33:57.279139 39878 net.cpp:86] Creating Layer conv4_2/sep
I1227 03:33:57.279145 39878 net.cpp:408] conv4_2/sep <- conv4_2/dw
I1227 03:33:57.279155 39878 net.cpp:382] conv4_2/sep -> conv4_2/sep
I1227 03:33:57.280725 39878 net.cpp:124] Setting up conv4_2/sep
I1227 03:33:57.280738 39878 net.cpp:131] Top shape: 128 512 7 7 (3211264)
I1227 03:33:57.280745 39878 net.cpp:139] Memory required for data: 1958881792
I1227 03:33:57.280751 39878 layer_factory.hpp:77] Creating layer conv4_2/sep/bn
I1227 03:33:57.280761 39878 net.cpp:86] Creating Layer conv4_2/sep/bn
I1227 03:33:57.280767 39878 net.cpp:408] conv4_2/sep/bn <- conv4_2/sep
I1227 03:33:57.280774 39878 net.cpp:369] conv4_2/sep/bn -> conv4_2/sep (in-place)
I1227 03:33:57.280964 39878 net.cpp:124] Setting up conv4_2/sep/bn
I1227 03:33:57.280975 39878 net.cpp:131] Top shape: 128 512 7 7 (3211264)
I1227 03:33:57.280980 39878 net.cpp:139] Memory required for data: 1971726848
I1227 03:33:57.280989 39878 layer_factory.hpp:77] Creating layer conv4_2/sep/scale
I1227 03:33:57.281002 39878 net.cpp:86] Creating Layer conv4_2/sep/scale
I1227 03:33:57.281008 39878 net.cpp:408] conv4_2/sep/scale <- conv4_2/sep
I1227 03:33:57.281014 39878 net.cpp:369] conv4_2/sep/scale -> conv4_2/sep (in-place)
I1227 03:33:57.281059 39878 layer_factory.hpp:77] Creating layer conv4_2/sep/scale
I1227 03:33:57.281193 39878 net.cpp:124] Setting up conv4_2/sep/scale
I1227 03:33:57.281209 39878 net.cpp:131] Top shape: 128 512 7 7 (3211264)
I1227 03:33:57.281219 39878 net.cpp:139] Memory required for data: 1984571904
I1227 03:33:57.281237 39878 layer_factory.hpp:77] Creating layer relu4_2/sep
I1227 03:33:57.281257 39878 net.cpp:86] Creating Layer relu4_2/sep
I1227 03:33:57.281267 39878 net.cpp:408] relu4_2/sep <- conv4_2/sep
I1227 03:33:57.281280 39878 net.cpp:369] relu4_2/sep -> conv4_2/sep (in-place)
I1227 03:33:57.281292 39878 net.cpp:124] Setting up relu4_2/sep
I1227 03:33:57.281304 39878 net.cpp:131] Top shape: 128 512 7 7 (3211264)
I1227 03:33:57.281312 39878 net.cpp:139] Memory required for data: 1997416960
I1227 03:33:57.281322 39878 layer_factory.hpp:77] Creating layer conv5_1/dw
I1227 03:33:57.281338 39878 net.cpp:86] Creating Layer conv5_1/dw
I1227 03:33:57.281347 39878 net.cpp:408] conv5_1/dw <- conv4_2/sep
I1227 03:33:57.281360 39878 net.cpp:382] conv5_1/dw -> conv5_1/dw
I1227 03:33:57.281672 39878 net.cpp:124] Setting up conv5_1/dw
I1227 03:33:57.281690 39878 net.cpp:131] Top shape: 128 512 7 7 (3211264)
I1227 03:33:57.281699 39878 net.cpp:139] Memory required for data: 2010262016
I1227 03:33:57.281711 39878 layer_factory.hpp:77] Creating layer conv5_1/dw/bn
I1227 03:33:57.281724 39878 net.cpp:86] Creating Layer conv5_1/dw/bn
I1227 03:33:57.281734 39878 net.cpp:408] conv5_1/dw/bn <- conv5_1/dw
I1227 03:33:57.281746 39878 net.cpp:369] conv5_1/dw/bn -> conv5_1/dw (in-place)
I1227 03:33:57.281936 39878 net.cpp:124] Setting up conv5_1/dw/bn
I1227 03:33:57.281947 39878 net.cpp:131] Top shape: 128 512 7 7 (3211264)
I1227 03:33:57.281952 39878 net.cpp:139] Memory required for data: 2023107072
I1227 03:33:57.281962 39878 layer_factory.hpp:77] Creating layer conv5_1/dw/scale
I1227 03:33:57.281972 39878 net.cpp:86] Creating Layer conv5_1/dw/scale
I1227 03:33:57.281978 39878 net.cpp:408] conv5_1/dw/scale <- conv5_1/dw
I1227 03:33:57.281987 39878 net.cpp:369] conv5_1/dw/scale -> conv5_1/dw (in-place)
I1227 03:33:57.282023 39878 layer_factory.hpp:77] Creating layer conv5_1/dw/scale
I1227 03:33:57.282138 39878 net.cpp:124] Setting up conv5_1/dw/scale
I1227 03:33:57.282150 39878 net.cpp:131] Top shape: 128 512 7 7 (3211264)
I1227 03:33:57.282155 39878 net.cpp:139] Memory required for data: 2035952128
I1227 03:33:57.282162 39878 layer_factory.hpp:77] Creating layer relu5_1/dw
I1227 03:33:57.282173 39878 net.cpp:86] Creating Layer relu5_1/dw
I1227 03:33:57.282178 39878 net.cpp:408] relu5_1/dw <- conv5_1/dw
I1227 03:33:57.282186 39878 net.cpp:369] relu5_1/dw -> conv5_1/dw (in-place)
I1227 03:33:57.282193 39878 net.cpp:124] Setting up relu5_1/dw
I1227 03:33:57.282200 39878 net.cpp:131] Top shape: 128 512 7 7 (3211264)
I1227 03:33:57.282205 39878 net.cpp:139] Memory required for data: 2048797184
I1227 03:33:57.282210 39878 layer_factory.hpp:77] Creating layer conv5_1/sep
I1227 03:33:57.282229 39878 net.cpp:86] Creating Layer conv5_1/sep
I1227 03:33:57.282235 39878 net.cpp:408] conv5_1/sep <- conv5_1/dw
I1227 03:33:57.282243 39878 net.cpp:382] conv5_1/sep -> conv5_1/sep
I1227 03:33:57.287362 39878 net.cpp:124] Setting up conv5_1/sep
I1227 03:33:57.287382 39878 net.cpp:131] Top shape: 128 512 7 7 (3211264)
I1227 03:33:57.287389 39878 net.cpp:139] Memory required for data: 2061642240
I1227 03:33:57.287397 39878 layer_factory.hpp:77] Creating layer conv5_1/sep/bn
I1227 03:33:57.287410 39878 net.cpp:86] Creating Layer conv5_1/sep/bn
I1227 03:33:57.287415 39878 net.cpp:408] conv5_1/sep/bn <- conv5_1/sep
I1227 03:33:57.287423 39878 net.cpp:369] conv5_1/sep/bn -> conv5_1/sep (in-place)
I1227 03:33:57.287622 39878 net.cpp:124] Setting up conv5_1/sep/bn
I1227 03:33:57.287636 39878 net.cpp:131] Top shape: 128 512 7 7 (3211264)
I1227 03:33:57.287642 39878 net.cpp:139] Memory required for data: 2074487296
I1227 03:33:57.287652 39878 layer_factory.hpp:77] Creating layer conv5_1/sep/scale
I1227 03:33:57.287662 39878 net.cpp:86] Creating Layer conv5_1/sep/scale
I1227 03:33:57.287667 39878 net.cpp:408] conv5_1/sep/scale <- conv5_1/sep
I1227 03:33:57.287675 39878 net.cpp:369] conv5_1/sep/scale -> conv5_1/sep (in-place)
I1227 03:33:57.287714 39878 layer_factory.hpp:77] Creating layer conv5_1/sep/scale
I1227 03:33:57.287842 39878 net.cpp:124] Setting up conv5_1/sep/scale
I1227 03:33:57.287854 39878 net.cpp:131] Top shape: 128 512 7 7 (3211264)
I1227 03:33:57.287860 39878 net.cpp:139] Memory required for data: 2087332352
I1227 03:33:57.287868 39878 layer_factory.hpp:77] Creating layer relu5_1/sep
I1227 03:33:57.287875 39878 net.cpp:86] Creating Layer relu5_1/sep
I1227 03:33:57.287881 39878 net.cpp:408] relu5_1/sep <- conv5_1/sep
I1227 03:33:57.287890 39878 net.cpp:369] relu5_1/sep -> conv5_1/sep (in-place)
I1227 03:33:57.287899 39878 net.cpp:124] Setting up relu5_1/sep
I1227 03:33:57.287906 39878 net.cpp:131] Top shape: 128 512 7 7 (3211264)
I1227 03:33:57.287911 39878 net.cpp:139] Memory required for data: 2100177408
I1227 03:33:57.287916 39878 layer_factory.hpp:77] Creating layer conv5_2/dw
I1227 03:33:57.287925 39878 net.cpp:86] Creating Layer conv5_2/dw
I1227 03:33:57.287930 39878 net.cpp:408] conv5_2/dw <- conv5_1/sep
I1227 03:33:57.287940 39878 net.cpp:382] conv5_2/dw -> conv5_2/dw
I1227 03:33:57.288163 39878 net.cpp:124] Setting up conv5_2/dw
I1227 03:33:57.288175 39878 net.cpp:131] Top shape: 128 512 7 7 (3211264)
I1227 03:33:57.288180 39878 net.cpp:139] Memory required for data: 2113022464
I1227 03:33:57.288187 39878 layer_factory.hpp:77] Creating layer conv5_2/dw/bn
I1227 03:33:57.288197 39878 net.cpp:86] Creating Layer conv5_2/dw/bn
I1227 03:33:57.288203 39878 net.cpp:408] conv5_2/dw/bn <- conv5_2/dw
I1227 03:33:57.288211 39878 net.cpp:369] conv5_2/dw/bn -> conv5_2/dw (in-place)
I1227 03:33:57.288408 39878 net.cpp:124] Setting up conv5_2/dw/bn
I1227 03:33:57.288425 39878 net.cpp:131] Top shape: 128 512 7 7 (3211264)
I1227 03:33:57.288431 39878 net.cpp:139] Memory required for data: 2125867520
I1227 03:33:57.288441 39878 layer_factory.hpp:77] Creating layer conv5_2/dw/scale
I1227 03:33:57.288450 39878 net.cpp:86] Creating Layer conv5_2/dw/scale
I1227 03:33:57.288456 39878 net.cpp:408] conv5_2/dw/scale <- conv5_2/dw
I1227 03:33:57.288465 39878 net.cpp:369] conv5_2/dw/scale -> conv5_2/dw (in-place)
I1227 03:33:57.288502 39878 layer_factory.hpp:77] Creating layer conv5_2/dw/scale
I1227 03:33:57.288625 39878 net.cpp:124] Setting up conv5_2/dw/scale
I1227 03:33:57.288637 39878 net.cpp:131] Top shape: 128 512 7 7 (3211264)
I1227 03:33:57.288642 39878 net.cpp:139] Memory required for data: 2138712576
I1227 03:33:57.288650 39878 layer_factory.hpp:77] Creating layer relu5_2/dw
I1227 03:33:57.288658 39878 net.cpp:86] Creating Layer relu5_2/dw
I1227 03:33:57.288671 39878 net.cpp:408] relu5_2/dw <- conv5_2/dw
I1227 03:33:57.288681 39878 net.cpp:369] relu5_2/dw -> conv5_2/dw (in-place)
I1227 03:33:57.288689 39878 net.cpp:124] Setting up relu5_2/dw
I1227 03:33:57.288695 39878 net.cpp:131] Top shape: 128 512 7 7 (3211264)
I1227 03:33:57.288700 39878 net.cpp:139] Memory required for data: 2151557632
I1227 03:33:57.288705 39878 layer_factory.hpp:77] Creating layer conv5_2/sep
I1227 03:33:57.288715 39878 net.cpp:86] Creating Layer conv5_2/sep
I1227 03:33:57.288720 39878 net.cpp:408] conv5_2/sep <- conv5_2/dw
I1227 03:33:57.288733 39878 net.cpp:382] conv5_2/sep -> conv5_2/sep
I1227 03:33:57.291748 39878 net.cpp:124] Setting up conv5_2/sep
I1227 03:33:57.291769 39878 net.cpp:131] Top shape: 128 512 7 7 (3211264)
I1227 03:33:57.291775 39878 net.cpp:139] Memory required for data: 2164402688
I1227 03:33:57.291784 39878 layer_factory.hpp:77] Creating layer conv5_2/sep/bn
I1227 03:33:57.291792 39878 net.cpp:86] Creating Layer conv5_2/sep/bn
I1227 03:33:57.291798 39878 net.cpp:408] conv5_2/sep/bn <- conv5_2/sep
I1227 03:33:57.291806 39878 net.cpp:369] conv5_2/sep/bn -> conv5_2/sep (in-place)
I1227 03:33:57.291996 39878 net.cpp:124] Setting up conv5_2/sep/bn
I1227 03:33:57.292008 39878 net.cpp:131] Top shape: 128 512 7 7 (3211264)
I1227 03:33:57.292013 39878 net.cpp:139] Memory required for data: 2177247744
I1227 03:33:57.292023 39878 layer_factory.hpp:77] Creating layer conv5_2/sep/scale
I1227 03:33:57.292034 39878 net.cpp:86] Creating Layer conv5_2/sep/scale
I1227 03:33:57.292040 39878 net.cpp:408] conv5_2/sep/scale <- conv5_2/sep
I1227 03:33:57.292052 39878 net.cpp:369] conv5_2/sep/scale -> conv5_2/sep (in-place)
I1227 03:33:57.292089 39878 layer_factory.hpp:77] Creating layer conv5_2/sep/scale
I1227 03:33:57.292207 39878 net.cpp:124] Setting up conv5_2/sep/scale
I1227 03:33:57.292219 39878 net.cpp:131] Top shape: 128 512 7 7 (3211264)
I1227 03:33:57.292224 39878 net.cpp:139] Memory required for data: 2190092800
I1227 03:33:57.292232 39878 layer_factory.hpp:77] Creating layer relu5_2/sep
I1227 03:33:57.292241 39878 net.cpp:86] Creating Layer relu5_2/sep
I1227 03:33:57.292246 39878 net.cpp:408] relu5_2/sep <- conv5_2/sep
I1227 03:33:57.292254 39878 net.cpp:369] relu5_2/sep -> conv5_2/sep (in-place)
I1227 03:33:57.292263 39878 net.cpp:124] Setting up relu5_2/sep
I1227 03:33:57.292271 39878 net.cpp:131] Top shape: 128 512 7 7 (3211264)
I1227 03:33:57.292275 39878 net.cpp:139] Memory required for data: 2202937856
I1227 03:33:57.292280 39878 layer_factory.hpp:77] Creating layer conv5_3/dw
I1227 03:33:57.292290 39878 net.cpp:86] Creating Layer conv5_3/dw
I1227 03:33:57.292296 39878 net.cpp:408] conv5_3/dw <- conv5_2/sep
I1227 03:33:57.292304 39878 net.cpp:382] conv5_3/dw -> conv5_3/dw
I1227 03:33:57.292528 39878 net.cpp:124] Setting up conv5_3/dw
I1227 03:33:57.292541 39878 net.cpp:131] Top shape: 128 512 7 7 (3211264)
I1227 03:33:57.292547 39878 net.cpp:139] Memory required for data: 2215782912
I1227 03:33:57.292553 39878 layer_factory.hpp:77] Creating layer conv5_3/dw/bn
I1227 03:33:57.292563 39878 net.cpp:86] Creating Layer conv5_3/dw/bn
I1227 03:33:57.292569 39878 net.cpp:408] conv5_3/dw/bn <- conv5_3/dw
I1227 03:33:57.292578 39878 net.cpp:369] conv5_3/dw/bn -> conv5_3/dw (in-place)
I1227 03:33:57.292765 39878 net.cpp:124] Setting up conv5_3/dw/bn
I1227 03:33:57.292783 39878 net.cpp:131] Top shape: 128 512 7 7 (3211264)
I1227 03:33:57.292791 39878 net.cpp:139] Memory required for data: 2228627968
I1227 03:33:57.292801 39878 layer_factory.hpp:77] Creating layer conv5_3/dw/scale
I1227 03:33:57.292814 39878 net.cpp:86] Creating Layer conv5_3/dw/scale
I1227 03:33:57.292819 39878 net.cpp:408] conv5_3/dw/scale <- conv5_3/dw
I1227 03:33:57.292827 39878 net.cpp:369] conv5_3/dw/scale -> conv5_3/dw (in-place)
I1227 03:33:57.292865 39878 layer_factory.hpp:77] Creating layer conv5_3/dw/scale
I1227 03:33:57.292997 39878 net.cpp:124] Setting up conv5_3/dw/scale
I1227 03:33:57.293011 39878 net.cpp:131] Top shape: 128 512 7 7 (3211264)
I1227 03:33:57.293016 39878 net.cpp:139] Memory required for data: 2241473024
I1227 03:33:57.293025 39878 layer_factory.hpp:77] Creating layer relu5_3/dw
I1227 03:33:57.293035 39878 net.cpp:86] Creating Layer relu5_3/dw
I1227 03:33:57.293040 39878 net.cpp:408] relu5_3/dw <- conv5_3/dw
I1227 03:33:57.293048 39878 net.cpp:369] relu5_3/dw -> conv5_3/dw (in-place)
I1227 03:33:57.293056 39878 net.cpp:124] Setting up relu5_3/dw
I1227 03:33:57.293064 39878 net.cpp:131] Top shape: 128 512 7 7 (3211264)
I1227 03:33:57.293069 39878 net.cpp:139] Memory required for data: 2254318080
I1227 03:33:57.293073 39878 layer_factory.hpp:77] Creating layer conv5_3/sep
I1227 03:33:57.293085 39878 net.cpp:86] Creating Layer conv5_3/sep
I1227 03:33:57.293092 39878 net.cpp:408] conv5_3/sep <- conv5_3/dw
I1227 03:33:57.293100 39878 net.cpp:382] conv5_3/sep -> conv5_3/sep
I1227 03:33:57.297947 39878 net.cpp:124] Setting up conv5_3/sep
I1227 03:33:57.297969 39878 net.cpp:131] Top shape: 128 512 7 7 (3211264)
I1227 03:33:57.297976 39878 net.cpp:139] Memory required for data: 2267163136
I1227 03:33:57.297982 39878 layer_factory.hpp:77] Creating layer conv5_3/sep/bn
I1227 03:33:57.297993 39878 net.cpp:86] Creating Layer conv5_3/sep/bn
I1227 03:33:57.297999 39878 net.cpp:408] conv5_3/sep/bn <- conv5_3/sep
I1227 03:33:57.298007 39878 net.cpp:369] conv5_3/sep/bn -> conv5_3/sep (in-place)
I1227 03:33:57.298192 39878 net.cpp:124] Setting up conv5_3/sep/bn
I1227 03:33:57.298204 39878 net.cpp:131] Top shape: 128 512 7 7 (3211264)
I1227 03:33:57.298210 39878 net.cpp:139] Memory required for data: 2280008192
I1227 03:33:57.298219 39878 layer_factory.hpp:77] Creating layer conv5_3/sep/scale
I1227 03:33:57.298235 39878 net.cpp:86] Creating Layer conv5_3/sep/scale
I1227 03:33:57.298243 39878 net.cpp:408] conv5_3/sep/scale <- conv5_3/sep
I1227 03:33:57.298250 39878 net.cpp:369] conv5_3/sep/scale -> conv5_3/sep (in-place)
I1227 03:33:57.298288 39878 layer_factory.hpp:77] Creating layer conv5_3/sep/scale
I1227 03:33:57.298427 39878 net.cpp:124] Setting up conv5_3/sep/scale
I1227 03:33:57.298442 39878 net.cpp:131] Top shape: 128 512 7 7 (3211264)
I1227 03:33:57.298447 39878 net.cpp:139] Memory required for data: 2292853248
I1227 03:33:57.298455 39878 layer_factory.hpp:77] Creating layer relu5_3/sep
I1227 03:33:57.298465 39878 net.cpp:86] Creating Layer relu5_3/sep
I1227 03:33:57.298470 39878 net.cpp:408] relu5_3/sep <- conv5_3/sep
I1227 03:33:57.298478 39878 net.cpp:369] relu5_3/sep -> conv5_3/sep (in-place)
I1227 03:33:57.298487 39878 net.cpp:124] Setting up relu5_3/sep
I1227 03:33:57.298499 39878 net.cpp:131] Top shape: 128 512 7 7 (3211264)
I1227 03:33:57.298506 39878 net.cpp:139] Memory required for data: 2305698304
I1227 03:33:57.298511 39878 layer_factory.hpp:77] Creating layer conv5_4/dw
I1227 03:33:57.298522 39878 net.cpp:86] Creating Layer conv5_4/dw
I1227 03:33:57.298527 39878 net.cpp:408] conv5_4/dw <- conv5_3/sep
I1227 03:33:57.298537 39878 net.cpp:382] conv5_4/dw -> conv5_4/dw
I1227 03:33:57.298770 39878 net.cpp:124] Setting up conv5_4/dw
I1227 03:33:57.298784 39878 net.cpp:131] Top shape: 128 512 7 7 (3211264)
I1227 03:33:57.298791 39878 net.cpp:139] Memory required for data: 2318543360
I1227 03:33:57.298804 39878 layer_factory.hpp:77] Creating layer conv5_4/dw/bn
I1227 03:33:57.298815 39878 net.cpp:86] Creating Layer conv5_4/dw/bn
I1227 03:33:57.298841 39878 net.cpp:408] conv5_4/dw/bn <- conv5_4/dw
I1227 03:33:57.298852 39878 net.cpp:369] conv5_4/dw/bn -> conv5_4/dw (in-place)
I1227 03:33:57.299041 39878 net.cpp:124] Setting up conv5_4/dw/bn
I1227 03:33:57.299052 39878 net.cpp:131] Top shape: 128 512 7 7 (3211264)
I1227 03:33:57.299057 39878 net.cpp:139] Memory required for data: 2331388416
I1227 03:33:57.299067 39878 layer_factory.hpp:77] Creating layer conv5_4/dw/scale
I1227 03:33:57.299077 39878 net.cpp:86] Creating Layer conv5_4/dw/scale
I1227 03:33:57.299082 39878 net.cpp:408] conv5_4/dw/scale <- conv5_4/dw
I1227 03:33:57.299090 39878 net.cpp:369] conv5_4/dw/scale -> conv5_4/dw (in-place)
I1227 03:33:57.299125 39878 layer_factory.hpp:77] Creating layer conv5_4/dw/scale
I1227 03:33:57.299244 39878 net.cpp:124] Setting up conv5_4/dw/scale
I1227 03:33:57.299257 39878 net.cpp:131] Top shape: 128 512 7 7 (3211264)
I1227 03:33:57.299262 39878 net.cpp:139] Memory required for data: 2344233472
I1227 03:33:57.299269 39878 layer_factory.hpp:77] Creating layer relu5_4/dw
I1227 03:33:57.299278 39878 net.cpp:86] Creating Layer relu5_4/dw
I1227 03:33:57.299283 39878 net.cpp:408] relu5_4/dw <- conv5_4/dw
I1227 03:33:57.299293 39878 net.cpp:369] relu5_4/dw -> conv5_4/dw (in-place)
I1227 03:33:57.299300 39878 net.cpp:124] Setting up relu5_4/dw
I1227 03:33:57.299307 39878 net.cpp:131] Top shape: 128 512 7 7 (3211264)
I1227 03:33:57.299312 39878 net.cpp:139] Memory required for data: 2357078528
I1227 03:33:57.299317 39878 layer_factory.hpp:77] Creating layer conv5_4/sep
I1227 03:33:57.299326 39878 net.cpp:86] Creating Layer conv5_4/sep
I1227 03:33:57.299332 39878 net.cpp:408] conv5_4/sep <- conv5_4/dw
I1227 03:33:57.299340 39878 net.cpp:382] conv5_4/sep -> conv5_4/sep
I1227 03:33:57.302157 39878 net.cpp:124] Setting up conv5_4/sep
I1227 03:33:57.302173 39878 net.cpp:131] Top shape: 128 512 7 7 (3211264)
I1227 03:33:57.302178 39878 net.cpp:139] Memory required for data: 2369923584
I1227 03:33:57.302186 39878 layer_factory.hpp:77] Creating layer conv5_4/sep/bn
I1227 03:33:57.302194 39878 net.cpp:86] Creating Layer conv5_4/sep/bn
I1227 03:33:57.302201 39878 net.cpp:408] conv5_4/sep/bn <- conv5_4/sep
I1227 03:33:57.302207 39878 net.cpp:369] conv5_4/sep/bn -> conv5_4/sep (in-place)
I1227 03:33:57.302382 39878 net.cpp:124] Setting up conv5_4/sep/bn
I1227 03:33:57.302393 39878 net.cpp:131] Top shape: 128 512 7 7 (3211264)
I1227 03:33:57.302402 39878 net.cpp:139] Memory required for data: 2382768640
I1227 03:33:57.302412 39878 layer_factory.hpp:77] Creating layer conv5_4/sep/scale
I1227 03:33:57.302423 39878 net.cpp:86] Creating Layer conv5_4/sep/scale
I1227 03:33:57.302428 39878 net.cpp:408] conv5_4/sep/scale <- conv5_4/sep
I1227 03:33:57.302435 39878 net.cpp:369] conv5_4/sep/scale -> conv5_4/sep (in-place)
I1227 03:33:57.302470 39878 layer_factory.hpp:77] Creating layer conv5_4/sep/scale
I1227 03:33:57.302582 39878 net.cpp:124] Setting up conv5_4/sep/scale
I1227 03:33:57.302594 39878 net.cpp:131] Top shape: 128 512 7 7 (3211264)
I1227 03:33:57.302598 39878 net.cpp:139] Memory required for data: 2395613696
I1227 03:33:57.302606 39878 layer_factory.hpp:77] Creating layer relu5_4/sep
I1227 03:33:57.302615 39878 net.cpp:86] Creating Layer relu5_4/sep
I1227 03:33:57.302621 39878 net.cpp:408] relu5_4/sep <- conv5_4/sep
I1227 03:33:57.302628 39878 net.cpp:369] relu5_4/sep -> conv5_4/sep (in-place)
I1227 03:33:57.302636 39878 net.cpp:124] Setting up relu5_4/sep
I1227 03:33:57.302644 39878 net.cpp:131] Top shape: 128 512 7 7 (3211264)
I1227 03:33:57.302647 39878 net.cpp:139] Memory required for data: 2408458752
I1227 03:33:57.302652 39878 layer_factory.hpp:77] Creating layer conv5_5/dw
I1227 03:33:57.302661 39878 net.cpp:86] Creating Layer conv5_5/dw
I1227 03:33:57.302666 39878 net.cpp:408] conv5_5/dw <- conv5_4/sep
I1227 03:33:57.302675 39878 net.cpp:382] conv5_5/dw -> conv5_5/dw
I1227 03:33:57.302898 39878 net.cpp:124] Setting up conv5_5/dw
I1227 03:33:57.302911 39878 net.cpp:131] Top shape: 128 512 7 7 (3211264)
I1227 03:33:57.302917 39878 net.cpp:139] Memory required for data: 2421303808
I1227 03:33:57.302923 39878 layer_factory.hpp:77] Creating layer conv5_5/dw/bn
I1227 03:33:57.302932 39878 net.cpp:86] Creating Layer conv5_5/dw/bn
I1227 03:33:57.302937 39878 net.cpp:408] conv5_5/dw/bn <- conv5_5/dw
I1227 03:33:57.302947 39878 net.cpp:369] conv5_5/dw/bn -> conv5_5/dw (in-place)
I1227 03:33:57.303117 39878 net.cpp:124] Setting up conv5_5/dw/bn
I1227 03:33:57.303128 39878 net.cpp:131] Top shape: 128 512 7 7 (3211264)
I1227 03:33:57.303133 39878 net.cpp:139] Memory required for data: 2434148864
I1227 03:33:57.303156 39878 layer_factory.hpp:77] Creating layer conv5_5/dw/scale
I1227 03:33:57.303167 39878 net.cpp:86] Creating Layer conv5_5/dw/scale
I1227 03:33:57.303174 39878 net.cpp:408] conv5_5/dw/scale <- conv5_5/dw
I1227 03:33:57.303181 39878 net.cpp:369] conv5_5/dw/scale -> conv5_5/dw (in-place)
I1227 03:33:57.303218 39878 layer_factory.hpp:77] Creating layer conv5_5/dw/scale
I1227 03:33:57.303329 39878 net.cpp:124] Setting up conv5_5/dw/scale
I1227 03:33:57.303340 39878 net.cpp:131] Top shape: 128 512 7 7 (3211264)
I1227 03:33:57.303344 39878 net.cpp:139] Memory required for data: 2446993920
I1227 03:33:57.303352 39878 layer_factory.hpp:77] Creating layer relu5_5/dw
I1227 03:33:57.303360 39878 net.cpp:86] Creating Layer relu5_5/dw
I1227 03:33:57.303366 39878 net.cpp:408] relu5_5/dw <- conv5_5/dw
I1227 03:33:57.303373 39878 net.cpp:369] relu5_5/dw -> conv5_5/dw (in-place)
I1227 03:33:57.303381 39878 net.cpp:124] Setting up relu5_5/dw
I1227 03:33:57.303388 39878 net.cpp:131] Top shape: 128 512 7 7 (3211264)
I1227 03:33:57.303392 39878 net.cpp:139] Memory required for data: 2459838976
I1227 03:33:57.303397 39878 layer_factory.hpp:77] Creating layer conv5_5/sep
I1227 03:33:57.303408 39878 net.cpp:86] Creating Layer conv5_5/sep
I1227 03:33:57.303414 39878 net.cpp:408] conv5_5/sep <- conv5_5/dw
I1227 03:33:57.303422 39878 net.cpp:382] conv5_5/sep -> conv5_5/sep
I1227 03:33:57.308041 39878 net.cpp:124] Setting up conv5_5/sep
I1227 03:33:57.308061 39878 net.cpp:131] Top shape: 128 512 7 7 (3211264)
I1227 03:33:57.308068 39878 net.cpp:139] Memory required for data: 2472684032
I1227 03:33:57.308074 39878 layer_factory.hpp:77] Creating layer conv5_5/sep/bn
I1227 03:33:57.308084 39878 net.cpp:86] Creating Layer conv5_5/sep/bn
I1227 03:33:57.308090 39878 net.cpp:408] conv5_5/sep/bn <- conv5_5/sep
I1227 03:33:57.308102 39878 net.cpp:369] conv5_5/sep/bn -> conv5_5/sep (in-place)
I1227 03:33:57.308311 39878 net.cpp:124] Setting up conv5_5/sep/bn
I1227 03:33:57.308324 39878 net.cpp:131] Top shape: 128 512 7 7 (3211264)
I1227 03:33:57.308331 39878 net.cpp:139] Memory required for data: 2485529088
I1227 03:33:57.308339 39878 layer_factory.hpp:77] Creating layer conv5_5/sep/scale
I1227 03:33:57.308349 39878 net.cpp:86] Creating Layer conv5_5/sep/scale
I1227 03:33:57.308356 39878 net.cpp:408] conv5_5/sep/scale <- conv5_5/sep
I1227 03:33:57.308365 39878 net.cpp:369] conv5_5/sep/scale -> conv5_5/sep (in-place)
I1227 03:33:57.308408 39878 layer_factory.hpp:77] Creating layer conv5_5/sep/scale
I1227 03:33:57.308529 39878 net.cpp:124] Setting up conv5_5/sep/scale
I1227 03:33:57.308543 39878 net.cpp:131] Top shape: 128 512 7 7 (3211264)
I1227 03:33:57.308548 39878 net.cpp:139] Memory required for data: 2498374144
I1227 03:33:57.308557 39878 layer_factory.hpp:77] Creating layer relu5_5/sep
I1227 03:33:57.308564 39878 net.cpp:86] Creating Layer relu5_5/sep
I1227 03:33:57.308570 39878 net.cpp:408] relu5_5/sep <- conv5_5/sep
I1227 03:33:57.308578 39878 net.cpp:369] relu5_5/sep -> conv5_5/sep (in-place)
I1227 03:33:57.308585 39878 net.cpp:124] Setting up relu5_5/sep
I1227 03:33:57.308594 39878 net.cpp:131] Top shape: 128 512 7 7 (3211264)
I1227 03:33:57.308599 39878 net.cpp:139] Memory required for data: 2511219200
I1227 03:33:57.308604 39878 layer_factory.hpp:77] Creating layer conv5_6/dw
I1227 03:33:57.308614 39878 net.cpp:86] Creating Layer conv5_6/dw
I1227 03:33:57.308620 39878 net.cpp:408] conv5_6/dw <- conv5_5/sep
I1227 03:33:57.308630 39878 net.cpp:382] conv5_6/dw -> conv5_6/dw
I1227 03:33:57.308858 39878 net.cpp:124] Setting up conv5_6/dw
I1227 03:33:57.308871 39878 net.cpp:131] Top shape: 128 512 4 4 (1048576)
I1227 03:33:57.308876 39878 net.cpp:139] Memory required for data: 2515413504
I1227 03:33:57.308882 39878 layer_factory.hpp:77] Creating layer conv5_6/dw/bn
I1227 03:33:57.308890 39878 net.cpp:86] Creating Layer conv5_6/dw/bn
I1227 03:33:57.308899 39878 net.cpp:408] conv5_6/dw/bn <- conv5_6/dw
I1227 03:33:57.308912 39878 net.cpp:369] conv5_6/dw/bn -> conv5_6/dw (in-place)
I1227 03:33:57.309105 39878 net.cpp:124] Setting up conv5_6/dw/bn
I1227 03:33:57.309118 39878 net.cpp:131] Top shape: 128 512 4 4 (1048576)
I1227 03:33:57.309123 39878 net.cpp:139] Memory required for data: 2519607808
I1227 03:33:57.309132 39878 layer_factory.hpp:77] Creating layer conv5_6/dw/scale
I1227 03:33:57.309144 39878 net.cpp:86] Creating Layer conv5_6/dw/scale
I1227 03:33:57.309150 39878 net.cpp:408] conv5_6/dw/scale <- conv5_6/dw
I1227 03:33:57.309157 39878 net.cpp:369] conv5_6/dw/scale -> conv5_6/dw (in-place)
I1227 03:33:57.309196 39878 layer_factory.hpp:77] Creating layer conv5_6/dw/scale
I1227 03:33:57.309314 39878 net.cpp:124] Setting up conv5_6/dw/scale
I1227 03:33:57.309326 39878 net.cpp:131] Top shape: 128 512 4 4 (1048576)
I1227 03:33:57.309331 39878 net.cpp:139] Memory required for data: 2523802112
I1227 03:33:57.309340 39878 layer_factory.hpp:77] Creating layer relu5_6/dw
I1227 03:33:57.309348 39878 net.cpp:86] Creating Layer relu5_6/dw
I1227 03:33:57.309355 39878 net.cpp:408] relu5_6/dw <- conv5_6/dw
I1227 03:33:57.309361 39878 net.cpp:369] relu5_6/dw -> conv5_6/dw (in-place)
I1227 03:33:57.309370 39878 net.cpp:124] Setting up relu5_6/dw
I1227 03:33:57.309376 39878 net.cpp:131] Top shape: 128 512 4 4 (1048576)
I1227 03:33:57.309381 39878 net.cpp:139] Memory required for data: 2527996416
I1227 03:33:57.309386 39878 layer_factory.hpp:77] Creating layer conv5_6/sep
I1227 03:33:57.309397 39878 net.cpp:86] Creating Layer conv5_6/sep
I1227 03:33:57.309403 39878 net.cpp:408] conv5_6/sep <- conv5_6/dw
I1227 03:33:57.309412 39878 net.cpp:382] conv5_6/sep -> conv5_6/sep
I1227 03:33:57.316470 39878 net.cpp:124] Setting up conv5_6/sep
I1227 03:33:57.316490 39878 net.cpp:131] Top shape: 128 1024 4 4 (2097152)
I1227 03:33:57.316496 39878 net.cpp:139] Memory required for data: 2536385024
I1227 03:33:57.316504 39878 layer_factory.hpp:77] Creating layer conv5_6/sep/bn
I1227 03:33:57.316517 39878 net.cpp:86] Creating Layer conv5_6/sep/bn
I1227 03:33:57.316524 39878 net.cpp:408] conv5_6/sep/bn <- conv5_6/sep
I1227 03:33:57.316531 39878 net.cpp:369] conv5_6/sep/bn -> conv5_6/sep (in-place)
I1227 03:33:57.316723 39878 net.cpp:124] Setting up conv5_6/sep/bn
I1227 03:33:57.316736 39878 net.cpp:131] Top shape: 128 1024 4 4 (2097152)
I1227 03:33:57.316742 39878 net.cpp:139] Memory required for data: 2544773632
I1227 03:33:57.316751 39878 layer_factory.hpp:77] Creating layer conv5_6/sep/scale
I1227 03:33:57.316761 39878 net.cpp:86] Creating Layer conv5_6/sep/scale
I1227 03:33:57.316767 39878 net.cpp:408] conv5_6/sep/scale <- conv5_6/sep
I1227 03:33:57.316774 39878 net.cpp:369] conv5_6/sep/scale -> conv5_6/sep (in-place)
I1227 03:33:57.316815 39878 layer_factory.hpp:77] Creating layer conv5_6/sep/scale
I1227 03:33:57.316957 39878 net.cpp:124] Setting up conv5_6/sep/scale
I1227 03:33:57.316972 39878 net.cpp:131] Top shape: 128 1024 4 4 (2097152)
I1227 03:33:57.316993 39878 net.cpp:139] Memory required for data: 2553162240
I1227 03:33:57.317003 39878 layer_factory.hpp:77] Creating layer relu5_6/sep
I1227 03:33:57.317014 39878 net.cpp:86] Creating Layer relu5_6/sep
I1227 03:33:57.317020 39878 net.cpp:408] relu5_6/sep <- conv5_6/sep
I1227 03:33:57.317028 39878 net.cpp:369] relu5_6/sep -> conv5_6/sep (in-place)
I1227 03:33:57.317035 39878 net.cpp:124] Setting up relu5_6/sep
I1227 03:33:57.317042 39878 net.cpp:131] Top shape: 128 1024 4 4 (2097152)
I1227 03:33:57.317047 39878 net.cpp:139] Memory required for data: 2561550848
I1227 03:33:57.317051 39878 layer_factory.hpp:77] Creating layer conv6/dw
I1227 03:33:57.317065 39878 net.cpp:86] Creating Layer conv6/dw
I1227 03:33:57.317075 39878 net.cpp:408] conv6/dw <- conv5_6/sep
I1227 03:33:57.317086 39878 net.cpp:382] conv6/dw -> conv6/dw
I1227 03:33:57.317363 39878 net.cpp:124] Setting up conv6/dw
I1227 03:33:57.317376 39878 net.cpp:131] Top shape: 128 1024 4 4 (2097152)
I1227 03:33:57.317381 39878 net.cpp:139] Memory required for data: 2569939456
I1227 03:33:57.317389 39878 layer_factory.hpp:77] Creating layer conv6/dw/bn
I1227 03:33:57.317399 39878 net.cpp:86] Creating Layer conv6/dw/bn
I1227 03:33:57.317404 39878 net.cpp:408] conv6/dw/bn <- conv6/dw
I1227 03:33:57.317412 39878 net.cpp:369] conv6/dw/bn -> conv6/dw (in-place)
I1227 03:33:57.317598 39878 net.cpp:124] Setting up conv6/dw/bn
I1227 03:33:57.317610 39878 net.cpp:131] Top shape: 128 1024 4 4 (2097152)
I1227 03:33:57.317613 39878 net.cpp:139] Memory required for data: 2578328064
I1227 03:33:57.317623 39878 layer_factory.hpp:77] Creating layer conv6/dw/scale
I1227 03:33:57.317632 39878 net.cpp:86] Creating Layer conv6/dw/scale
I1227 03:33:57.317638 39878 net.cpp:408] conv6/dw/scale <- conv6/dw
I1227 03:33:57.317647 39878 net.cpp:369] conv6/dw/scale -> conv6/dw (in-place)
I1227 03:33:57.317684 39878 layer_factory.hpp:77] Creating layer conv6/dw/scale
I1227 03:33:57.317802 39878 net.cpp:124] Setting up conv6/dw/scale
I1227 03:33:57.317813 39878 net.cpp:131] Top shape: 128 1024 4 4 (2097152)
I1227 03:33:57.317818 39878 net.cpp:139] Memory required for data: 2586716672
I1227 03:33:57.317832 39878 layer_factory.hpp:77] Creating layer relu6/dw
I1227 03:33:57.317840 39878 net.cpp:86] Creating Layer relu6/dw
I1227 03:33:57.317845 39878 net.cpp:408] relu6/dw <- conv6/dw
I1227 03:33:57.317852 39878 net.cpp:369] relu6/dw -> conv6/dw (in-place)
I1227 03:33:57.317860 39878 net.cpp:124] Setting up relu6/dw
I1227 03:33:57.317867 39878 net.cpp:131] Top shape: 128 1024 4 4 (2097152)
I1227 03:33:57.317872 39878 net.cpp:139] Memory required for data: 2595105280
I1227 03:33:57.317875 39878 layer_factory.hpp:77] Creating layer conv6/sep
I1227 03:33:57.317888 39878 net.cpp:86] Creating Layer conv6/sep
I1227 03:33:57.317893 39878 net.cpp:408] conv6/sep <- conv6/dw
I1227 03:33:57.317903 39878 net.cpp:382] conv6/sep -> conv6/sep
I1227 03:33:57.331362 39878 net.cpp:124] Setting up conv6/sep
I1227 03:33:57.331387 39878 net.cpp:131] Top shape: 128 1024 4 4 (2097152)
I1227 03:33:57.331393 39878 net.cpp:139] Memory required for data: 2603493888
I1227 03:33:57.331406 39878 layer_factory.hpp:77] Creating layer conv6/sep/bn
I1227 03:33:57.331418 39878 net.cpp:86] Creating Layer conv6/sep/bn
I1227 03:33:57.331423 39878 net.cpp:408] conv6/sep/bn <- conv6/sep
I1227 03:33:57.331434 39878 net.cpp:369] conv6/sep/bn -> conv6/sep (in-place)
I1227 03:33:57.331630 39878 net.cpp:124] Setting up conv6/sep/bn
I1227 03:33:57.331642 39878 net.cpp:131] Top shape: 128 1024 4 4 (2097152)
I1227 03:33:57.331647 39878 net.cpp:139] Memory required for data: 2611882496
I1227 03:33:57.331656 39878 layer_factory.hpp:77] Creating layer conv6/sep/scale
I1227 03:33:57.331666 39878 net.cpp:86] Creating Layer conv6/sep/scale
I1227 03:33:57.331672 39878 net.cpp:408] conv6/sep/scale <- conv6/sep
I1227 03:33:57.331682 39878 net.cpp:369] conv6/sep/scale -> conv6/sep (in-place)
I1227 03:33:57.331718 39878 layer_factory.hpp:77] Creating layer conv6/sep/scale
I1227 03:33:57.331837 39878 net.cpp:124] Setting up conv6/sep/scale
I1227 03:33:57.331851 39878 net.cpp:131] Top shape: 128 1024 4 4 (2097152)
I1227 03:33:57.331857 39878 net.cpp:139] Memory required for data: 2620271104
I1227 03:33:57.331866 39878 layer_factory.hpp:77] Creating layer relu6/sep
I1227 03:33:57.331873 39878 net.cpp:86] Creating Layer relu6/sep
I1227 03:33:57.331878 39878 net.cpp:408] relu6/sep <- conv6/sep
I1227 03:33:57.331885 39878 net.cpp:369] relu6/sep -> conv6/sep (in-place)
I1227 03:33:57.331893 39878 net.cpp:124] Setting up relu6/sep
I1227 03:33:57.331900 39878 net.cpp:131] Top shape: 128 1024 4 4 (2097152)
I1227 03:33:57.331904 39878 net.cpp:139] Memory required for data: 2628659712
I1227 03:33:57.331909 39878 layer_factory.hpp:77] Creating layer pool6
I1227 03:33:57.331920 39878 net.cpp:86] Creating Layer pool6
I1227 03:33:57.331925 39878 net.cpp:408] pool6 <- conv6/sep
I1227 03:33:57.331933 39878 net.cpp:382] pool6 -> pool6
I1227 03:33:57.331959 39878 net.cpp:124] Setting up pool6
I1227 03:33:57.331970 39878 net.cpp:131] Top shape: 128 1024 1 1 (131072)
I1227 03:33:57.331975 39878 net.cpp:139] Memory required for data: 2629184000
I1227 03:33:57.331980 39878 layer_factory.hpp:77] Creating layer pool6_pool6_0_split
I1227 03:33:57.331990 39878 net.cpp:86] Creating Layer pool6_pool6_0_split
I1227 03:33:57.331995 39878 net.cpp:408] pool6_pool6_0_split <- pool6
I1227 03:33:57.332005 39878 net.cpp:382] pool6_pool6_0_split -> pool6_pool6_0_split_0
I1227 03:33:57.332015 39878 net.cpp:382] pool6_pool6_0_split -> pool6_pool6_0_split_1
I1227 03:33:57.332026 39878 net.cpp:382] pool6_pool6_0_split -> pool6_pool6_0_split_2
I1227 03:33:57.332034 39878 net.cpp:382] pool6_pool6_0_split -> pool6_pool6_0_split_3
I1227 03:33:57.332043 39878 net.cpp:382] pool6_pool6_0_split -> pool6_pool6_0_split_4
I1227 03:33:57.332051 39878 net.cpp:382] pool6_pool6_0_split -> pool6_pool6_0_split_5
I1227 03:33:57.332060 39878 net.cpp:382] pool6_pool6_0_split -> pool6_pool6_0_split_6
I1227 03:33:57.332154 39878 net.cpp:124] Setting up pool6_pool6_0_split
I1227 03:33:57.332165 39878 net.cpp:131] Top shape: 128 1024 1 1 (131072)
I1227 03:33:57.332171 39878 net.cpp:131] Top shape: 128 1024 1 1 (131072)
I1227 03:33:57.332177 39878 net.cpp:131] Top shape: 128 1024 1 1 (131072)
I1227 03:33:57.332182 39878 net.cpp:131] Top shape: 128 1024 1 1 (131072)
I1227 03:33:57.332187 39878 net.cpp:131] Top shape: 128 1024 1 1 (131072)
I1227 03:33:57.332193 39878 net.cpp:131] Top shape: 128 1024 1 1 (131072)
I1227 03:33:57.332199 39878 net.cpp:131] Top shape: 128 1024 1 1 (131072)
I1227 03:33:57.332203 39878 net.cpp:139] Memory required for data: 2632854016
I1227 03:33:57.332208 39878 layer_factory.hpp:77] Creating layer cls_gender
I1227 03:33:57.332221 39878 net.cpp:86] Creating Layer cls_gender
I1227 03:33:57.332227 39878 net.cpp:408] cls_gender <- pool6_pool6_0_split_0
I1227 03:33:57.332239 39878 net.cpp:382] cls_gender -> cls_gender
I1227 03:33:57.332509 39878 net.cpp:124] Setting up cls_gender
I1227 03:33:57.332521 39878 net.cpp:131] Top shape: 128 2 1 1 (256)
I1227 03:33:57.332526 39878 net.cpp:139] Memory required for data: 2632855040
I1227 03:33:57.332535 39878 layer_factory.hpp:77] Creating layer cls_gender_cls_gender_0_split
I1227 03:33:57.332546 39878 net.cpp:86] Creating Layer cls_gender_cls_gender_0_split
I1227 03:33:57.332552 39878 net.cpp:408] cls_gender_cls_gender_0_split <- cls_gender
I1227 03:33:57.332567 39878 net.cpp:382] cls_gender_cls_gender_0_split -> cls_gender_cls_gender_0_split_0
I1227 03:33:57.332581 39878 net.cpp:382] cls_gender_cls_gender_0_split -> cls_gender_cls_gender_0_split_1
I1227 03:33:57.332623 39878 net.cpp:124] Setting up cls_gender_cls_gender_0_split
I1227 03:33:57.332633 39878 net.cpp:131] Top shape: 128 2 1 1 (256)
I1227 03:33:57.332639 39878 net.cpp:131] Top shape: 128 2 1 1 (256)
I1227 03:33:57.332643 39878 net.cpp:139] Memory required for data: 2632857088
I1227 03:33:57.332648 39878 layer_factory.hpp:77] Creating layer loss_gender
I1227 03:33:57.332657 39878 net.cpp:86] Creating Layer loss_gender
I1227 03:33:57.332662 39878 net.cpp:408] loss_gender <- cls_gender_cls_gender_0_split_0
I1227 03:33:57.332670 39878 net.cpp:408] loss_gender <- gender_label_data_1_split_0
…
