…
  top: "mask_label"
  top: "glass_label"
  top: "expre_label"
  top: "block_label"
  top: "weizu_label"
  include {
    phase: TRAIN
  }
  python_param {
    module: "myDataLayer"
    layer: "Data_Layer_train"
    param_str: "{\"mirror\": True, \"illumination\": True, \"crop_size\": (112,112), \"batch_size\": 256,  \"max_rotate_angle\": 20, \"src_file\": \"/workspace/mnt/group/face/chendan/CelebA/code/mobilenet_attribute7/src/train.txt\",\"img_basepath\": \"/workspace/mnt/group/face/chendan/CelebA/code/eight-attributes/images/images_all_v2\"}"
  }
}
layer {
  name: "conv1"
  type: "Convolution"
  bottom: "data"
  top: "conv1"
  param {
    lr_mult: 1
    decay_mult: 1
  }
  convolution_param {
    num_output: 32
    bias_term: false
    pad: 1
    kernel_size: 3
    stride: 2
    weight_filler {
      type: "msra"
    }
  }
}
layer {
  name: "conv1/bn"
  type: "BatchNorm"
  bottom: "conv1"
  top: "conv1"
  batch_norm_param {
    use_global_stats: false
    eps: 1e-05
  }
}
layer {
  name: "conv1/scale"
  type: "Scale"
  bottom: "conv1"
  top: "conv1"
  param {
    lr_mult: 1
    decay_mult: 0
  }
  param {
    lr_mult: 1
    decay_mult: 0
  }
  scale_param {
    filler {
      value: 1
    }
    bias_term: true
    bias_filler {
      value: 0
    }
  }
}
layer {
  name: "relu1"
  type: "ReLU"
  bottom: "conv1"
  top: "conv1"
}
layer {
  name: "conv2_1/dw"
  type: "DepthwiseConvolution"
  bottom: "conv1"
  top: "conv2_1/dw"
  param {
    lr_mult: 1
    decay_mult: 1
  }
  convolution_param {
    num_output: 32
    bias_term: false
    pad: 1
    kernel_size: 3
    group: 32
    stride: 1
    weight_filler {
      type: "msra"
    }
    engine: CAFFE
  }
}
layer {
  name: "conv2_1/dw/bn"
  type: "BatchNorm"
  bottom: "conv2_1/dw"
  top: "conv2_1/dw"
  batch_norm_param {
    use_global_stats: false
    eps: 1e-05
  }
}
layer {
  name: "conv2_1/dw/scale"
  type: "Scale"
  bottom: "conv2_1/dw"
  top: "conv2_1/dw"
  param {
    lr_mult: 1
    decay_mult: 0
  }
  param {
    lr_mult: 1
    decay_mult: 0
  }
  scale_param {
    filler {
      value: 1
    }
    bias_term: true
    bias_filler {
      value: 0
    }
  }
}
layer {
  name: "relu2_1/dw"
  type: "ReLU"
  bottom: "conv2_1/dw"
  top: "conv2_1/dw"
}
layer {
  name: "conv2_1/sep"
  type: "Convolution"
  bottom: "conv2_1/dw"
  top: "conv2_1/sep"
  param {
    lr_mult: 1
    decay_mult: 1
  }
  convolution_param {
    num_output: 64
    bias_term: false
    pad: 0
    kernel_size: 1
    stride: 1
    weight_filler {
      type: "msra"
    }
  }
}
layer {
  name: "conv2_1/sep/bn"
  type: "BatchNorm"
  bottom: "conv2_1/sep"
  top: "conv2_1/sep"
  batch_norm_param {
    use_global_stats: false
    eps: 1e-05
  }
}
layer {
  name: "conv2_1/sep/scale"
  type: "Scale"
  bottom: "conv2_1/sep"
  top: "conv2_1/sep"
  param {
    lr_mult: 1
    decay_mult: 0
  }
  param {
    lr_mult: 1
    decay_mult: 0
  }
  scale_param {
    filler {
      value: 1
    }
    bias_term: true
    bias_filler {
      value: 0
    }
  }
}
layer {
  name: "relu2_1/sep"
  type: "ReLU"
  bottom: "conv2_1/sep"
  top: "conv2_1/sep"
}
layer {
  name: "conv2_2/dw"
  type: "DepthwiseConvolution"
  bottom: "conv2_1/sep"
  top: "conv2_2/dw"
  param {
    lr_mult: 1
    decay_mult: 1
  }
  convolution_param {
    num_output: 64
    bias_term: false
    pad: 1
    kernel_size: 3
    group: 64
    stride: 2
    weight_filler {
      type: "msra"
    }
    engine: CAFFE
  }
}
layer {
  name: "conv2_2/dw/bn"
  type: "BatchNorm"
  bottom: "conv2_2/dw"
  top: "conv2_2/dw"
  batch_norm_param {
    use_global_stats: false
    eps: 1e-05
  }
}
layer {
  name: "conv2_2/dw/scale"
  type: "Scale"
  bottom: "conv2_2/dw"
  top: "conv2_2/dw"
  param {
    lr_mult: 1
    decay_mult: 0
  }
  param {
    lr_mult: 1
    decay_mult: 0
  }
  scale_param {
    filler {
      value: 1
    }
    bias_term: true
    bias_filler {
      value: 0
    }
  }
}
layer {
  name: "relu2_2/dw"
  type: "ReLU"
  bottom: "conv2_2/dw"
  top: "conv2_2/dw"
}
layer {
  name: "conv2_2/sep"
  type: "Convolution"
  bottom: "conv2_2/dw"
  top: "conv2_2/sep"
  param {
    lr_mult: 1
    decay_mult: 1
  }
  convolution_param {
    num_output: 128
    bias_term: false
    pad: 0
    kernel_size: 1
    stride: 1
    weight_filler {
      type: "msra"
    }
  }
}
layer {
  name: "conv2_2/sep/bn"
  type: "BatchNorm"
  bottom: "conv2_2/sep"
  top: "conv2_2/sep"
  batch_norm_param {
    use_global_stats: false
    eps: 1e-05
  }
}
layer {
  name: "conv2_2/sep/scale"
  type: "Scale"
  bottom: "conv2_2/sep"
  top: "conv2_2/sep"
  param {
    lr_mult: 1
    decay_mult: 0
  }
  param {
    lr_mult: 1
    decay_mult: 0
  }
  scale_param {
    filler {
      value: 1
    }
    bias_term: true
    bias_filler {
      value: 0
    }
  }
}
layer {
  name: "relu2_2/sep"
  type: "ReLU"
  bottom: "conv2_2/sep"
  top: "conv2_2/sep"
}
layer {
  name: "conv3_1/dw"
  type: "DepthwiseConvolution"
  bottom: "conv2_2/sep"
  top: "conv3_1/dw"
  param {
    lr_mult: 1
    decay_mult: 1
  }
  convolution_param {
    num_output: 128
    bias_term: false
    pad: 1
    kernel_size: 3
    group: 128
    stride: 1
    weight_filler {
      type: "msra"
    }
    engine: CAFFE
  }
}
layer {
  name: "conv3_1/dw/bn"
  type: "BatchNorm"
  bottom: "conv3_1/dw"
  top: "conv3_1/dw"
  batch_norm_param {
    use_global_stats: false
    eps: 1e-05
  }
}
layer {
  name: "conv3_1/dw/scale"
  type: "Scale"
  bottom: "conv3_1/dw"
  top: "conv3_1/dw"
  param {
    lr_mult: 1
    decay_mult: 0
  }
  param {
    lr_mult: 1
    decay_mult: 0
  }
  scale_param {
    filler {
      value: 1
    }
    bias_term: true
    bias_filler {
      value: 0
    }
  }
}
layer {
  name: "relu3_1/dw"
  type: "ReLU"
  bottom: "conv3_1/dw"
  top: "conv3_1/dw"
}
layer {
  name: "conv3_1/sep"
  type: "Convolution"
  bottom: "conv3_1/dw"
  top: "conv3_1/sep"
  param {
    lr_mult: 1
    decay_mult: 1
  }
  convolution_param {
    num_output: 128
    bias_term: false
    pad: 0
    kernel_size: 1
    stride: 1
    weight_filler {
      type: "msra"
    }
  }
}
layer {
  name: "conv3_1/sep/bn"
  type: "BatchNorm"
  bottom: "conv3_1/sep"
  top: "conv3_1/sep"
  batch_norm_param {
    use_global_stats: false
    eps: 1e-05
  }
}
layer {
  name: "conv3_1/sep/scale"
  type: "Scale"
  bottom: "conv3_1/sep"
  top: "conv3_1/sep"
  param {
    lr_mult: 1
    decay_mult: 0
  }
  param {
    lr_mult: 1
    decay_mult: 0
  }
  scale_param {
    filler {
      value: 1
    }
    bias_term: true
    bias_filler {
      value: 0
    }
  }
}
layer {
  name: "relu3_1/sep"
  type: "ReLU"
  bottom: "conv3_1/sep"
  top: "conv3_1/sep"
}
layer {
  name: "conv3_2/dw"
  type: "Convolution"
  bottom: "conv3_1/sep"
  top: "conv3_2/dw"
  param {
    lr_mult: 1
    decay_mult: 1
  }
  convolution_param {
    num_output: 128
    bias_term: false
    pad: 1
    kernel_size: 3
    group: 128
    stride: 2
    weight_filler {
      type: "msra"
    }
    engine: CAFFE
  }
}
layer {
  name: "conv3_2/dw/bn"
  type: "BatchNorm"
  bottom: "conv3_2/dw"
  top: "conv3_2/dw"
  batch_norm_param {
    use_global_stats: false
    eps: 1e-05
  }
}
layer {
  name: "conv3_2/dw/scale"
  type: "Scale"
  bottom: "conv3_2/dw"
  top: "conv3_2/dw"
  param {
    lr_mult: 1
    decay_mult: 0
  }
  param {
    lr_mult: 1
    decay_mult: 0
  }
  scale_param {
    filler {
      value: 1
    }
    bias_term: true
    bias_filler {
      value: 0
    }
  }
}
layer {
  name: "relu3_2/dw"
  type: "ReLU"
  bottom: "conv3_2/dw"
  top: "conv3_2/dw"
}
layer {
  name: "conv3_2/sep"
  type: "Convolution"
  bottom: "conv3_2/dw"
  top: "conv3_2/sep"
  param {
    lr_mult: 1
    decay_mult: 1
  }
  convolution_param {
    num_output: 256
    bias_term: false
    pad: 0
    kernel_size: 1
    stride: 1
    weight_filler {
      type: "msra"
    }
  }
}
layer {
  name: "conv3_2/sep/bn"
  type: "BatchNorm"
  bottom: "conv3_2/sep"
  top: "conv3_2/sep"
  batch_norm_param {
    use_global_stats: false
    eps: 1e-05
  }
}
layer {
  name: "conv3_2/sep/scale"
  type: "Scale"
  bottom: "conv3_2/sep"
  top: "conv3_2/sep"
  param {
    lr_mult: 1
    decay_mult: 0
  }
  param {
    lr_mult: 1
    decay_mult: 0
  }
  scale_param {
    filler {
      value: 1
    }
    bias_term: true
    bias_filler {
      value: 0
    }
  }
}
layer {
  name: "relu3_2/sep"
  type: "ReLU"
  bottom: "conv3_2/sep"
  top: "conv3_2/sep"
}
layer {
  name: "conv4_1/dw"
  type: "DepthwiseConvolution"
  bottom: "conv3_2/sep"
  top: "conv4_1/dw"
  param {
    lr_mult: 1
    decay_mult: 1
  }
  convolution_param {
    num_output: 256
    bias_term: false
    pad: 1
    kernel_size: 3
    group: 256
    stride: 1
    weight_filler {
      type: "msra"
    }
    engine: CAFFE
  }
}
layer {
  name: "conv4_1/dw/bn"
  type: "BatchNorm"
  bottom: "conv4_1/dw"
  top: "conv4_1/dw"
  batch_norm_param {
    use_global_stats: false
    eps: 1e-05
  }
}
layer {
  name: "conv4_1/dw/scale"
  type: "Scale"
  bottom: "conv4_1/dw"
  top: "conv4_1/dw"
  param {
    lr_mult: 1
    decay_mult: 0
  }
  param {
    lr_mult: 1
    decay_mult: 0
  }
  scale_param {
    filler {
      value: 1
    }
    bias_term: true
    bias_filler {
      value: 0
    }
  }
}
layer {
  name: "relu4_1/dw"
  type: "ReLU"
  bottom: "conv4_1/dw"
  top: "conv4_1/dw"
}
layer {
  name: "conv4_1/sep"
  type: "Convolution"
  bottom: "conv4_1/dw"
  top: "conv4_1/sep"
  param {
    lr_mult: 1
    decay_mult: 1
  }
  convolution_param {
    num_output: 256
    bias_term: false
    pad: 0
    kernel_size: 1
    stride: 1
    weight_filler {
      type: "msra"
    }
  }
}
layer {
  name: "conv4_1/sep/bn"
  type: "BatchNorm"
  bottom: "conv4_1/sep"
  top: "conv4_1/sep"
  batch_norm_param {
    use_global_stats: false
    eps: 1e-05
  }
}
layer {
  name: "conv4_1/sep/scale"
  type: "Scale"
  bottom: "conv4_1/sep"
  top: "conv4_1/sep"
  param {
    lr_mult: 1
    decay_mult: 0
  }
  param {
    lr_mult: 1
    decay_mult: 0
  }
  scale_param {
    filler {
      value: 1
    }
    bias_term: true
    bias_filler {
      value: 0
    }
  }
}
layer {
  name: "relu4_1/sep"
  type: "ReLU"
  bottom: "conv4_1/sep"
  top: "conv4_1/sep"
}
layer {
  name: "conv4_2/dw"
  type: "DepthwiseConvolution"
  bottom: "conv4_1/sep"
  top: "conv4_2/dw"
  param {
    lr_mult: 1
    decay_mult: 1
  }
  convolution_param {
    num_output: 256
    bias_term: false
    pad: 1
    kernel_size: 3
    group: 256
    stride: 2
    weight_filler {
      type: "msra"
    }
    engine: CAFFE
  }
}
layer {
  name: "conv4_2/dw/bn"
  type: "BatchNorm"
  bottom: "conv4_2/dw"
  top: "conv4_2/dw"
  batch_norm_param {
    use_global_stats: false
    eps: 1e-05
  }
}
layer {
  name: "conv4_2/dw/scale"
  type: "Scale"
  bottom: "conv4_2/dw"
  top: "conv4_2/dw"
  param {
    lr_mult: 1
    decay_mult: 0
  }
  param {
    lr_mult: 1
    decay_mult: 0
  }
  scale_param {
    filler {
      value: 1
    }
    bias_term: true
    bias_filler {
      value: 0
    }
  }
}
layer {
  name: "relu4_2/dw"
  type: "ReLU"
  bottom: "conv4_2/dw"
  top: "conv4_2/dw"
}
layer {
  name: "conv4_2/sep"
  type: "Convolution"
  bottom: "conv4_2/dw"
  top: "conv4_2/sep"
  param {
    lr_mult: 1
    decay_mult: 1
  }
  convolution_param {
    num_output: 512
    bias_term: false
    pad: 0
    kernel_size: 1
    stride: 1
    weight_filler {
      type: "msra"
    }
  }
}
layer {
  name: "conv4_2/sep/bn"
  type: "BatchNorm"
  bottom: "conv4_2/sep"
  top: "conv4_2/sep"
  batch_norm_param {
    use_global_stats: false
    eps: 1e-05
  }
}
layer {
  name: "conv4_2/sep/scale"
  type: "Scale"
  bottom: "conv4_2/sep"
  top: "conv4_2/sep"
  param {
    lr_mult: 1
    decay_mult: 0
  }
  param {
    lr_mult: 1
    decay_mult: 0
  }
  scale_param {
    filler {
      value: 1
    }
    bias_term: true
    bias_filler {
      value: 0
    }
  }
}
layer {
  name: "relu4_2/sep"
  type: "ReLU"
  bottom: "conv4_2/sep"
  top: "conv4_2/sep"
}
layer {
  name: "conv5_1/dw"
  type: "DepthwiseConvolution"
  bottom: "conv4_2/sep"
  top: "conv5_1/dw"
  param {
    lr_mult: 1
    decay_mult: 1
  }
  convolution_param {
    num_output: 512
    bias_term: false
    pad: 1
    kernel_size: 3
    group: 512
    stride: 1
    weight_filler {
      type: "msra"
    }
    engine: CAFFE
  }
}
layer {
  name: "conv5_1/dw/bn"
  type: "BatchNorm"
  bottom: "conv5_1/dw"
  top: "conv5_1/dw"
  batch_norm_param {
    use_global_stats: false
    eps: 1e-05
  }
}
layer {
  name: "conv5_1/dw/scale"
  type: "Scale"
  bottom: "conv5_1/dw"
  top: "conv5_1/dw"
  param {
    lr_mult: 1
    decay_mult: 0
  }
  param {
    lr_mult: 1
    decay_mult: 0
  }
  scale_param {
    filler {
      value: 1
    }
    bias_term: true
    bias_filler {
      value: 0
    }
  }
}
layer {
  name: "relu5_1/dw"
  type: "ReLU"
  bottom: "conv5_1/dw"
  top: "conv5_1/dw"
}
layer {
  name: "conv5_1/sep"
  type: "Convolution"
  bottom: "conv5_1/dw"
  top: "conv5_1/sep"
  param {
    lr_mult: 1
    decay_mult: 1
  }
  convolution_param {
    num_output: 512
    bias_term: false
    pad: 0
    kernel_size: 1
    stride: 1
    weight_filler {
      type: "msra"
    }
  }
}
layer {
  name: "conv5_1/sep/bn"
  type: "BatchNorm"
  bottom: "conv5_1/sep"
  top: "conv5_1/sep"
  batch_norm_param {
    use_global_stats: false
    eps: 1e-05
  }
}
layer {
  name: "conv5_1/sep/scale"
  type: "Scale"
  bottom: "conv5_1/sep"
  top: "conv5_1/sep"
  param {
    lr_mult: 1
    decay_mult: 0
  }
  param {
    lr_mult: 1
    decay_mult: 0
  }
  scale_param {
    filler {
      value: 1
    }
    bias_term: true
    bias_filler {
      value: 0
    }
  }
}
layer {
  name: "relu5_1/sep"
  type: "ReLU"
  bottom: "conv5_1/sep"
  top: "conv5_1/sep"
}
layer {
  name: "conv5_2/dw"
  type: "DepthwiseConvolution"
  bottom: "conv5_1/sep"
  top: "conv5_2/dw"
  param {
    lr_mult: 1
    decay_mult: 1
  }
  convolution_param {
    num_output: 512
    bias_term: false
    pad: 1
    kernel_size: 3
    group: 512
    stride: 1
    weight_filler {
      type: "msra"
    }
    engine: CAFFE
  }
}
layer {
  name: "conv5_2/dw/bn"
  type: "BatchNorm"
  bottom: "conv5_2/dw"
  top: "conv5_2/dw"
  batch_norm_param {
    use_global_stats: false
    eps: 1e-05
  }
}
layer {
  name: "conv5_2/dw/scale"
  type: "Scale"
  bottom: "conv5_2/dw"
  top: "conv5_2/dw"
  param {
    lr_mult: 1
    decay_mult: 0
  }
  param {
    lr_mult: 1
    decay_mult: 0
  }
  scale_param {
    filler {
      value: 1
    }
    bias_term: true
    bias_filler {
      value: 0
    }
  }
}
layer {
  name: "relu5_2/dw"
  type: "ReLU"
  bottom: "conv5_2/dw"
  top: "conv5_2/dw"
}
layer {
  name: "conv5_2/sep"
  type: "Convolution"
  bottom: "conv5_2/dw"
  top: "conv5_2/sep"
  param {
    lr_mult: 1
    decay_mult: 1
  }
  convolution_param {
    num_output: 512
    bias_term: false
    pad: 0
    kernel_size: 1
    stride: 1
    weight_filler {
      type: "msra"
    }
  }
}
layer {
  name: "conv5_2/sep/bn"
  type: "BatchNorm"
  bottom: "conv5_2/sep"
  top: "conv5_2/sep"
  batch_norm_param {
    use_global_stats: false
    eps: 1e-05
  }
}
layer {
  name: "conv5_2/sep/scale"
  type: "Scale"
  bottom: "conv5_2/sep"
  top: "conv5_2/sep"
  param {
    lr_mult: 1
    decay_mult: 0
  }
  param {
    lr_mult: 1
    decay_mult: 0
  }
  scale_param {
    filler {
      value: 1
    }
    bias_term: true
    bias_filler {
      value: 0
    }
  }
}
layer {
  name: "relu5_2/sep"
  type: "ReLU"
  bottom: "conv5_2/sep"
  top: "conv5_2/sep"
}
layer {
  name: "conv5_3/dw"
  type: "DepthwiseConvolution"
  bottom: "conv5_2/sep"
  top: "conv5_3/dw"
  param {
    lr_mult: 1
    decay_mult: 1
  }
  convolution_param {
    num_output: 512
    bias_term: false
    pad: 1
    kernel_size: 3
    group: 512
    stride: 1
    weight_filler {
      type: "msra"
    }
    engine: CAFFE
  }
}
layer {
  name: "conv5_3/dw/bn"
  type: "BatchNorm"
  bottom: "conv5_3/dw"
  top: "conv5_3/dw"
  batch_norm_param {
    use_global_stats: false
    eps: 1e-05
  }
}
layer {
  name: "conv5_3/dw/scale"
  type: "Scale"
  bottom: "conv5_3/dw"
  top: "conv5_3/dw"
  param {
    lr_mult: 1
    decay_mult: 0
  }
  param {
    lr_mult: 1
    decay_mult: 0
  }
  scale_param {
    filler {
      value: 1
    }
    bias_term: true
    bias_filler {
      value: 0
    }
  }
}
layer {
  name: "relu5_3/dw"
  type: "ReLU"
  bottom: "conv5_3/dw"
  top: "conv5_3/dw"
}
layer {
  name: "conv5_3/sep"
  type: "Convolution"
  bottom: "conv5_3/dw"
  top: "conv5_3/sep"
  param {
    lr_mult: 1
    decay_mult: 1
  }
  convolution_param {
    num_output: 512
    bias_term: false
    pad: 0
    kernel_size: 1
    stride: 1
    weight_filler {
      type: "msra"
    }
  }
}
layer {
  name: "conv5_3/sep/bn"
  type: "BatchNorm"
  bottom: "conv5_3/sep"
  top: "conv5_3/sep"
  batch_norm_param {
    use_global_stats: false
    eps: 1e-05
  }
}
layer {
  name: "conv5_3/sep/scale"
  type: "Scale"
  bottom: "conv5_3/sep"
  top: "conv5_3/sep"
  param {
    lr_mult: 1
    decay_mult: 0
  }
  param {
    lr_mult: 1
    decay_mult: 0
  }
  scale_param {
    filler {
      value: 1
    }
    bias_term: true
    bias_filler {
      value: 0
    }
  }
}
layer {
  name: "relu5_3/sep"
  type: "ReLU"
  bottom: "conv5_3/sep"
  top: "conv5_3/sep"
}
layer {
  name: "conv5_4/dw"
  type: "DepthwiseConvolution"
  bottom: "conv5_3/sep"
  top: "conv5_4/dw"
  param {
    lr_mult: 1
    decay_mult: 1
  }
  convolution_param {
    num_output: 512
    bias_term: false
    pad: 1
    kernel_size: 3
    group: 512
    stride: 1
    weight_filler {
      type: "msra"
    }
    engine: CAFFE
  }
}
layer {
  name: "conv5_4/dw/bn"
  type: "BatchNorm"
  bottom: "conv5_4/dw"
  top: "conv5_4/dw"
  batch_norm_param {
    use_global_stats: false
    eps: 1e-05
  }
}
layer {
  name: "conv5_4/dw/scale"
  type: "Scale"
  bottom: "conv5_4/dw"
  top: "conv5_4/dw"
  param {
    lr_mult: 1
    decay_mult: 0
  }
  param {
    lr_mult: 1
    decay_mult: 0
  }
  scale_param {
    filler {
      value: 1
    }
    bias_term: true
    bias_filler {
      value: 0
    }
  }
}
layer {
  name: "relu5_4/dw"
  type: "ReLU"
  bottom: "conv5_4/dw"
  top: "conv5_4/dw"
}
layer {
  name: "conv5_4/sep"
  type: "Convolution"
  bottom: "conv5_4/dw"
  top: "conv5_4/sep"
  param {
    lr_mult: 1
    decay_mult: 1
  }
  convolution_param {
    num_output: 512
    bias_term: false
    pad: 0
    kernel_size: 1
    stride: 1
    weight_filler {
      type: "msra"
    }
  }
}
layer {
  name: "conv5_4/sep/bn"
  type: "BatchNorm"
  bottom: "conv5_4/sep"
  top: "conv5_4/sep"
  batch_norm_param {
    use_global_stats: false
    eps: 1e-05
  }
}
layer {
  name: "conv5_4/sep/scale"
  type: "Scale"
  bottom: "conv5_4/sep"
  top: "conv5_4/sep"
  param {
    lr_mult: 1
    decay_mult: 0
  }
  param {
    lr_mult: 1
    decay_mult: 0
  }
  scale_param {
    filler {
      value: 1
    }
    bias_term: true
    bias_filler {
      value: 0
    }
  }
}
layer {
  name: "relu5_4/sep"
  type: "ReLU"
  bottom: "conv5_4/sep"
  top: "conv5_4/sep"
}
layer {
  name: "conv5_5/dw"
  type: "DepthwiseConvolution"
  bottom: "conv5_4/sep"
  top: "conv5_5/dw"
  param {
    lr_mult: 1
    decay_mult: 1
  }
  convolution_param {
    num_output: 512
    bias_term: false
    pad: 1
    kernel_size: 3
    group: 512
    stride: 1
    weight_filler {
      type: "msra"
    }
    engine: CAFFE
  }
}
layer {
  name: "conv5_5/dw/bn"
  type: "BatchNorm"
  bottom: "conv5_5/dw"
  top: "conv5_5/dw"
  batch_norm_param {
    use_global_stats: false
    eps: 1e-05
  }
}
layer {
  name: "conv5_5/dw/scale"
  type: "Scale"
  bottom: "conv5_5/dw"
  top: "conv5_5/dw"
  param {
    lr_mult: 1
    decay_mult: 0
  }
  param {
    lr_mult: 1
    decay_mult: 0
  }
  scale_param {
    filler {
      value: 1
    }
    bias_term: true
    bias_filler {
      value: 0
    }
  }
}
layer {
  name: "relu5_5/dw"
  type: "ReLU"
  bottom: "conv5_5/dw"
  top: "conv5_5/dw"
}
layer {
  name: "conv5_5/sep"
  type: "Convolution"
  bottom: "conv5_5/dw"
  top: "conv5_5/sep"
  param {
    lr_mult: 1
    decay_mult: 1
  }
  convolution_param {
    num_output: 512
    bias_term: false
    pad: 0
    kernel_size: 1
    stride: 1
    weight_filler {
      type: "msra"
    }
  }
}
layer {
  name: "conv5_5/sep/bn"
  type: "BatchNorm"
  bottom: "conv5_5/sep"
  top: "conv5_5/sep"
  batch_norm_param {
    use_global_stats: false
    eps: 1e-05
  }
}
layer {
  name: "conv5_5/sep/scale"
  type: "Scale"
  bottom: "conv5_5/sep"
  top: "conv5_5/sep"
  param {
    lr_mult: 1
    decay_mult: 0
  }
  param {
    lr_mult: 1
    decay_mult: 0
  }
  scale_param {
    filler {
      value: 1
    }
    bias_term: true
    bias_filler {
      value: 0
    }
  }
}
layer {
  name: "relu5_5/sep"
  type: "ReLU"
  bottom: "conv5_5/sep"
  top: "conv5_5/sep"
}
layer {
  name: "conv5_6/dw"
  type: "DepthwiseConvolution"
  bottom: "conv5_5/sep"
  top: "conv5_6/dw"
  param {
    lr_mult: 1
    decay_mult: 1
  }
  convolution_param {
    num_output: 512
    bias_term: false
    pad: 1
    kernel_size: 3
    group: 512
    stride: 2
    weight_filler {
      type: "msra"
    }
    engine: CAFFE
  }
}
layer {
  name: "conv5_6/dw/bn"
  type: "BatchNorm"
  bottom: "conv5_6/dw"
  top: "conv5_6/dw"
  batch_norm_param {
    use_global_stats: false
    eps: 1e-05
  }
}
layer {
  name: "conv5_6/dw/scale"
  type: "Scale"
  bottom: "conv5_6/dw"
  top: "conv5_6/dw"
  param {
    lr_mult: 1
    decay_mult: 0
  }
  param {
    lr_mult: 1
    decay_mult: 0
  }
  scale_param {
    filler {
      value: 1
    }
    bias_term: true
    bias_filler {
      value: 0
    }
  }
}
layer {
  name: "relu5_6/dw"
  type: "ReLU"
  bottom: "conv5_6/dw"
  top: "conv5_6/dw"
}
layer {
  name: "conv5_6/sep"
  type: "Convolution"
  bottom: "conv5_6/dw"
  top: "conv5_6/sep"
  param {
    lr_mult: 1
    decay_mult: 1
  }
  convolution_param {
    num_output: 1024
    bias_term: false
    pad: 0
    kernel_size: 1
    stride: 1
    weight_filler {
      type: "msra"
    }
  }
}
layer {
  name: "conv5_6/sep/bn"
  type: "BatchNorm"
  bottom: "conv5_6/sep"
  top: "conv5_6/sep"
  batch_norm_param {
    use_global_stats: false
    eps: 1e-05
  }
}
layer {
  name: "conv5_6/sep/scale"
  type: "Scale"
  bottom: "conv5_6/sep"
  top: "conv5_6/sep"
  param {
    lr_mult: 1
    decay_mult: 0
  }
  param {
    lr_mult: 1
    decay_mult: 0
  }
  scale_param {
    filler {
      value: 1
    }
    bias_term: true
    bias_filler {
      value: 0
    }
  }
}
layer {
  name: "relu5_6/sep"
  type: "ReLU"
  bottom: "conv5_6/sep"
  top: "conv5_6/sep"
}
layer {
  name: "conv6/dw"
  type: "DepthwiseConvolution"
  bottom: "conv5_6/sep"
  top: "conv6/dw"
  param {
    lr_mult: 1
    decay_mult: 1
  }
  convolution_param {
    num_output: 1024
    bias_term: false
    pad: 1
    kernel_size: 3
    group: 1024
    stride: 1
    weight_filler {
      type: "msra"
    }
    engine: CAFFE
  }
}
layer {
  name: "conv6/dw/bn"
  type: "BatchNorm"
  bottom: "conv6/dw"
  top: "conv6/dw"
  batch_norm_param {
    use_global_stats: false
    eps: 1e-05
  }
}
layer {
  name: "conv6/dw/scale"
  type: "Scale"
  bottom: "conv6/dw"
  top: "conv6/dw"
  param {
    lr_mult: 1
    decay_mult: 0
  }
  param {
    lr_mult: 1
    decay_mult: 0
  }
  scale_param {
    filler {
      value: 1
    }
    bias_term: true
    bias_filler {
      value: 0
    }
  }
}
layer {
  name: "relu6/dw"
  type: "ReLU"
  bottom: "conv6/dw"
  top: "conv6/dw"
}
layer {
  name: "conv6/sep"
  type: "Convolution"
  bottom: "conv6/dw"
  top: "conv6/sep"
  param {
    lr_mult: 1
    decay_mult: 1
  }
  convolution_param {
    num_output: 1024
    bias_term: false
    pad: 0
    kernel_size: 1
    stride: 1
    weight_filler {
      type: "msra"
    }
  }
}
layer {
  name: "conv6/sep/bn"
  type: "BatchNorm"
  bottom: "conv6/sep"
  top: "conv6/sep"
  batch_norm_param {
    use_global_stats: false
    eps: 1e-05
  }
}
layer {
  name: "conv6/sep/scale"
  type: "Scale"
  bottom: "conv6/sep"
  top: "conv6/sep"
  param {
    lr_mult: 1
    decay_mult: 0
  }
  param {
    lr_mult: 1
    decay_mult: 0
  }
  scale_param {
    filler {
      value: 1
    }
    bias_term: true
    bias_filler {
      value: 0
    }
  }
}
layer {
  name: "relu6/sep"
  type: "ReLU"
  bottom: "conv6/sep"
  top: "conv6/sep"
}
layer {
  name: "pool6"
  type: "Pooling"
  bottom: "conv6/sep"
  top: "pool6"
  pooling_param {
    pool: AVE
    global_pooling: true
  }
}
layer {
  name: "cls_gender"
  type: "Convolution"
  bottom: "pool6"
  top: "cls_gender"
  param {
    lr_mult: 1
    decay_mult: 1
  }
  param {
    lr_mult: 2
    decay_mult: 0
  }
  convolution_param {
    num_output: 2
    kernel_size: 1
    weight_filler {
      type: "msra"
    }
    bias_filler {
      type: "constant"
      value: 0
    }
  }
}
layer {
  name: "loss_gender"
  type: "SoftmaxWithLoss"
  bottom: "cls_gender"
  bottom: "gender_label"
  top: "loss_gender"
}
layer {
  name: "cls_age"
  type: "Convolution"
  bottom: "pool6"
  top: "cls_age"
  param {
    lr_mult: 1
    decay_mult: 1
  }
  param {
    lr_mult: 2
    decay_mult: 0
  }
  convolution_param {
    num_output: 7
    kernel_size: 1
    weight_filler {
      type: "msra"
    }
    bias_filler {
      type: "constant"
      value: 0
    }
  }
}
layer {
  name: "loss_age"
  type: "SoftmaxWithLoss"
  bottom: "cls_age"
  bottom: "age_label"
  top: "loss_age"
}
layer {
  name: "cls_mask"
  type: "Convolution"
  bottom: "pool6"
  top: "cls_mask"
  param {
    lr_mult: 1
    decay_mult: 1
  }
  param {
    lr_mult: 2
    decay_mult: 0
  }
  convolution_param {
    num_output: 2
    kernel_size: 1
    weight_filler {
      type: "msra"
    }
    bias_filler {
      type: "constant"
      value: 0
    }
  }
}
layer {
  name: "loss_mask"
  type: "SoftmaxWithLoss"
  bottom: "cls_mask"
  bottom: "mask_label"
  top: "loss_mask"
}
layer {
  name: "cls_glass"
  type: "Convolution"
  bottom: "pool6"
  top: "cls_glass"
  param {
    lr_mult: 1
    decay_mult: 1
  }
  param {
    lr_mult: 2
    decay_mult: 0
  }
  convolution_param {
    num_output: 3
    kernel_size: 1
    weight_filler {
      type: "msra"
    }
    bias_filler {
      type: "constant"
      value: 0
    }
  }
}
layer {
  name: "loss_glass"
  type: "SoftmaxWithLoss"
  bottom: "cls_glass"
  bottom: "glass_label"
  top: "loss_glass"
}
layer {
  name: "cls_expre"
  type: "Convolution"
  bottom: "pool6"
  top: "cls_expre"
  param {
    lr_mult: 1
    decay_mult: 1
  }
  param {
    lr_mult: 2
    decay_mult: 0
  }
  convolution_param {
    num_output: 2
    kernel_size: 1
    weight_filler {
      type: "msra"
    }
    bias_filler {
      type: "constant"
      value: 0
    }
  }
}
layer {
  name: "loss_expre"
  type: "SoftmaxWithLoss"
  bottom: "cls_expre"
  bottom: "expre_label"
  top: "loss_expre"
}
layer {
  name: "cls_block"
  type: "Convolution"
  bottom: "pool6"
  top: "cls_block"
  param {
    lr_mult: 1
    decay_mult: 1
  }
  param {
    lr_mult: 2
    decay_mult: 0
  }
  convolution_param {
    num_output: 2
    kernel_size: 1
    weight_filler {
      type: "msra"
    }
    bias_filler {
      type: "constant"
      value: 0
    }
  }
}
layer {
  name: "loss_block"
  type: "SoftmaxWithLoss"
  bottom: "cls_block"
  bottom: "block_label"
  top: "loss_block"
}
layer {
  name: "cls_weizu"
  type: "Convolution"
  bottom: "pool6"
  top: "cls_weizu"
  param {
    lr_mult: 1
    decay_mult: 1
  }
  param {
    lr_mult: 2
    decay_mult: 0
  }
  convolution_param {
    num_output: 2
    kernel_size: 1
    weight_filler {
      type: "msra"
    }
    bias_filler {
      type: "constant"
      value: 0
    }
  }
}
layer {
  name: "loss_weizu"
  type: "SoftmaxWithLoss"
  bottom: "cls_weizu"
  bottom: "weizu_label"
  top: "loss_weizu"
}
I1227 03:31:30.854857 35358 layer_factory.hpp:77] Creating layer data
I1227 03:31:30.879901 35358 net.cpp:86] Creating Layer data
I1227 03:31:30.879945 35358 net.cpp:382] data -> data
I1227 03:31:30.879977 35358 net.cpp:382] data -> gender_label
I1227 03:31:30.879992 35358 net.cpp:382] data -> age_label
I1227 03:31:30.880005 35358 net.cpp:382] data -> mask_label
I1227 03:31:30.880017 35358 net.cpp:382] data -> glass_label
I1227 03:31:30.880030 35358 net.cpp:382] data -> expre_label
I1227 03:31:30.880041 35358 net.cpp:382] data -> block_label
I1227 03:31:30.880053 35358 net.cpp:382] data -> weizu_label
I1227 03:31:31.070706 35358 net.cpp:124] Setting up data
I1227 03:31:31.070749 35358 net.cpp:131] Top shape: 256 3 112 112 (9633792)
I1227 03:31:31.070756 35358 net.cpp:131] Top shape: 256 1 (256)
I1227 03:31:31.070762 35358 net.cpp:131] Top shape: 256 1 (256)
I1227 03:31:31.070768 35358 net.cpp:131] Top shape: 256 1 (256)
I1227 03:31:31.070773 35358 net.cpp:131] Top shape: 256 1 (256)
I1227 03:31:31.070778 35358 net.cpp:131] Top shape: 256 1 (256)
I1227 03:31:31.070782 35358 net.cpp:131] Top shape: 256 1 (256)
I1227 03:31:31.070787 35358 net.cpp:131] Top shape: 256 1 (256)
I1227 03:31:31.070791 35358 net.cpp:139] Memory required for data: 38542336
I1227 03:31:31.070799 35358 layer_factory.hpp:77] Creating layer conv1
I1227 03:31:31.070837 35358 net.cpp:86] Creating Layer conv1
I1227 03:31:31.070845 35358 net.cpp:408] conv1 <- data
I1227 03:31:31.070858 35358 net.cpp:382] conv1 -> conv1
I1227 03:31:31.072484 35358 net.cpp:124] Setting up conv1
I1227 03:31:31.072499 35358 net.cpp:131] Top shape: 256 32 56 56 (25690112)
I1227 03:31:31.072505 35358 net.cpp:139] Memory required for data: 141302784
I1227 03:31:31.072518 35358 layer_factory.hpp:77] Creating layer conv1/bn
I1227 03:31:31.072530 35358 net.cpp:86] Creating Layer conv1/bn
I1227 03:31:31.072536 35358 net.cpp:408] conv1/bn <- conv1
I1227 03:31:31.072542 35358 net.cpp:369] conv1/bn -> conv1 (in-place)
I1227 03:31:31.074071 35358 net.cpp:124] Setting up conv1/bn
I1227 03:31:31.074095 35358 net.cpp:131] Top shape: 256 32 56 56 (25690112)
I1227 03:31:31.074100 35358 net.cpp:139] Memory required for data: 244063232
I1227 03:31:31.074115 35358 layer_factory.hpp:77] Creating layer conv1/scale
I1227 03:31:31.074129 35358 net.cpp:86] Creating Layer conv1/scale
I1227 03:31:31.074134 35358 net.cpp:408] conv1/scale <- conv1
I1227 03:31:31.074141 35358 net.cpp:369] conv1/scale -> conv1 (in-place)
I1227 03:31:31.074184 35358 layer_factory.hpp:77] Creating layer conv1/scale
I1227 03:31:31.074298 35358 net.cpp:124] Setting up conv1/scale
I1227 03:31:31.074307 35358 net.cpp:131] Top shape: 256 32 56 56 (25690112)
I1227 03:31:31.074311 35358 net.cpp:139] Memory required for data: 346823680
I1227 03:31:31.074321 35358 layer_factory.hpp:77] Creating layer relu1
I1227 03:31:31.074331 35358 net.cpp:86] Creating Layer relu1
I1227 03:31:31.074335 35358 net.cpp:408] relu1 <- conv1
I1227 03:31:31.074342 35358 net.cpp:369] relu1 -> conv1 (in-place)
I1227 03:31:31.074357 35358 net.cpp:124] Setting up relu1
I1227 03:31:31.074363 35358 net.cpp:131] Top shape: 256 32 56 56 (25690112)
I1227 03:31:31.074368 35358 net.cpp:139] Memory required for data: 449584128
I1227 03:31:31.074378 35358 layer_factory.hpp:77] Creating layer conv2_1/dw
I1227 03:31:31.074388 35358 net.cpp:86] Creating Layer conv2_1/dw
I1227 03:31:31.074393 35358 net.cpp:408] conv2_1/dw <- conv1
I1227 03:31:31.074399 35358 net.cpp:382] conv2_1/dw -> conv2_1/dw
I1227 03:31:31.074558 35358 net.cpp:124] Setting up conv2_1/dw
I1227 03:31:31.074568 35358 net.cpp:131] Top shape: 256 32 56 56 (25690112)
I1227 03:31:31.074573 35358 net.cpp:139] Memory required for data: 552344576
I1227 03:31:31.074579 35358 layer_factory.hpp:77] Creating layer conv2_1/dw/bn
I1227 03:31:31.074585 35358 net.cpp:86] Creating Layer conv2_1/dw/bn
I1227 03:31:31.074590 35358 net.cpp:408] conv2_1/dw/bn <- conv2_1/dw
I1227 03:31:31.074595 35358 net.cpp:369] conv2_1/dw/bn -> conv2_1/dw (in-place)
I1227 03:31:31.074750 35358 net.cpp:124] Setting up conv2_1/dw/bn
I1227 03:31:31.074759 35358 net.cpp:131] Top shape: 256 32 56 56 (25690112)
I1227 03:31:31.074764 35358 net.cpp:139] Memory required for data: 655105024
I1227 03:31:31.074774 35358 layer_factory.hpp:77] Creating layer conv2_1/dw/scale
I1227 03:31:31.074781 35358 net.cpp:86] Creating Layer conv2_1/dw/scale
I1227 03:31:31.074785 35358 net.cpp:408] conv2_1/dw/scale <- conv2_1/dw
I1227 03:31:31.074791 35358 net.cpp:369] conv2_1/dw/scale -> conv2_1/dw (in-place)
I1227 03:31:31.074838 35358 layer_factory.hpp:77] Creating layer conv2_1/dw/scale
I1227 03:31:31.074936 35358 net.cpp:124] Setting up conv2_1/dw/scale
I1227 03:31:31.074945 35358 net.cpp:131] Top shape: 256 32 56 56 (25690112)
I1227 03:31:31.074950 35358 net.cpp:139] Memory required for data: 757865472
I1227 03:31:31.074957 35358 layer_factory.hpp:77] Creating layer relu2_1/dw
I1227 03:31:31.074965 35358 net.cpp:86] Creating Layer relu2_1/dw
I1227 03:31:31.074970 35358 net.cpp:408] relu2_1/dw <- conv2_1/dw
I1227 03:31:31.074975 35358 net.cpp:369] relu2_1/dw -> conv2_1/dw (in-place)
I1227 03:31:31.074982 35358 net.cpp:124] Setting up relu2_1/dw
I1227 03:31:31.074988 35358 net.cpp:131] Top shape: 256 32 56 56 (25690112)
I1227 03:31:31.074992 35358 net.cpp:139] Memory required for data: 860625920
I1227 03:31:31.074996 35358 layer_factory.hpp:77] Creating layer conv2_1/sep
I1227 03:31:31.075006 35358 net.cpp:86] Creating Layer conv2_1/sep
I1227 03:31:31.075009 35358 net.cpp:408] conv2_1/sep <- conv2_1/dw
I1227 03:31:31.075016 35358 net.cpp:382] conv2_1/sep -> conv2_1/sep
I1227 03:31:31.075182 35358 net.cpp:124] Setting up conv2_1/sep
I1227 03:31:31.075191 35358 net.cpp:131] Top shape: 256 64 56 56 (51380224)
I1227 03:31:31.075196 35358 net.cpp:139] Memory required for data: 1066146816
I1227 03:31:31.075201 35358 layer_factory.hpp:77] Creating layer conv2_1/sep/bn
I1227 03:31:31.075209 35358 net.cpp:86] Creating Layer conv2_1/sep/bn
I1227 03:31:31.075214 35358 net.cpp:408] conv2_1/sep/bn <- conv2_1/sep
I1227 03:31:31.075220 35358 net.cpp:369] conv2_1/sep/bn -> conv2_1/sep (in-place)
I1227 03:31:31.075378 35358 net.cpp:124] Setting up conv2_1/sep/bn
I1227 03:31:31.075387 35358 net.cpp:131] Top shape: 256 64 56 56 (51380224)
I1227 03:31:31.075392 35358 net.cpp:139] Memory required for data: 1271667712
I1227 03:31:31.075400 35358 layer_factory.hpp:77] Creating layer conv2_1/sep/scale
I1227 03:31:31.075407 35358 net.cpp:86] Creating Layer conv2_1/sep/scale
I1227 03:31:31.075412 35358 net.cpp:408] conv2_1/sep/scale <- conv2_1/sep
I1227 03:31:31.075419 35358 net.cpp:369] conv2_1/sep/scale -> conv2_1/sep (in-place)
I1227 03:31:31.075448 35358 layer_factory.hpp:77] Creating layer conv2_1/sep/scale
I1227 03:31:31.075551 35358 net.cpp:124] Setting up conv2_1/sep/scale
I1227 03:31:31.075561 35358 net.cpp:131] Top shape: 256 64 56 56 (51380224)
I1227 03:31:31.075564 35358 net.cpp:139] Memory required for data: 1477188608
I1227 03:31:31.075574 35358 layer_factory.hpp:77] Creating layer relu2_1/sep
I1227 03:31:31.075582 35358 net.cpp:86] Creating Layer relu2_1/sep
I1227 03:31:31.075590 35358 net.cpp:408] relu2_1/sep <- conv2_1/sep
I1227 03:31:31.075598 35358 net.cpp:369] relu2_1/sep -> conv2_1/sep (in-place)
I1227 03:31:31.075603 35358 net.cpp:124] Setting up relu2_1/sep
I1227 03:31:31.075610 35358 net.cpp:131] Top shape: 256 64 56 56 (51380224)
I1227 03:31:31.075614 35358 net.cpp:139] Memory required for data: 1682709504
I1227 03:31:31.075618 35358 layer_factory.hpp:77] Creating layer conv2_2/dw
I1227 03:31:31.075628 35358 net.cpp:86] Creating Layer conv2_2/dw
I1227 03:31:31.075631 35358 net.cpp:408] conv2_2/dw <- conv2_1/sep
I1227 03:31:31.075639 35358 net.cpp:382] conv2_2/dw -> conv2_2/dw
I1227 03:31:31.075815 35358 net.cpp:124] Setting up conv2_2/dw
I1227 03:31:31.075825 35358 net.cpp:131] Top shape: 256 64 28 28 (12845056)
I1227 03:31:31.075829 35358 net.cpp:139] Memory required for data: 1734089728
I1227 03:31:31.075835 35358 layer_factory.hpp:77] Creating layer conv2_2/dw/bn
I1227 03:31:31.075842 35358 net.cpp:86] Creating Layer conv2_2/dw/bn
I1227 03:31:31.075847 35358 net.cpp:408] conv2_2/dw/bn <- conv2_2/dw
I1227 03:31:31.075853 35358 net.cpp:369] conv2_2/dw/bn -> conv2_2/dw (in-place)
I1227 03:31:31.076006 35358 net.cpp:124] Setting up conv2_2/dw/bn
I1227 03:31:31.076015 35358 net.cpp:131] Top shape: 256 64 28 28 (12845056)
I1227 03:31:31.076020 35358 net.cpp:139] Memory required for data: 1785469952
I1227 03:31:31.076027 35358 layer_factory.hpp:77] Creating layer conv2_2/dw/scale
I1227 03:31:31.076035 35358 net.cpp:86] Creating Layer conv2_2/dw/scale
I1227 03:31:31.076040 35358 net.cpp:408] conv2_2/dw/scale <- conv2_2/dw
I1227 03:31:31.076046 35358 net.cpp:369] conv2_2/dw/scale -> conv2_2/dw (in-place)
I1227 03:31:31.076076 35358 layer_factory.hpp:77] Creating layer conv2_2/dw/scale
I1227 03:31:31.076179 35358 net.cpp:124] Setting up conv2_2/dw/scale
I1227 03:31:31.076187 35358 net.cpp:131] Top shape: 256 64 28 28 (12845056)
I1227 03:31:31.076192 35358 net.cpp:139] Memory required for data: 1836850176
I1227 03:31:31.076198 35358 layer_factory.hpp:77] Creating layer relu2_2/dw
I1227 03:31:31.076207 35358 net.cpp:86] Creating Layer relu2_2/dw
I1227 03:31:31.076212 35358 net.cpp:408] relu2_2/dw <- conv2_2/dw
I1227 03:31:31.076217 35358 net.cpp:369] relu2_2/dw -> conv2_2/dw (in-place)
I1227 03:31:31.076223 35358 net.cpp:124] Setting up relu2_2/dw
I1227 03:31:31.076231 35358 net.cpp:131] Top shape: 256 64 28 28 (12845056)
I1227 03:31:31.076234 35358 net.cpp:139] Memory required for data: 1888230400
I1227 03:31:31.076238 35358 layer_factory.hpp:77] Creating layer conv2_2/sep
I1227 03:31:31.076246 35358 net.cpp:86] Creating Layer conv2_2/sep
I1227 03:31:31.076251 35358 net.cpp:408] conv2_2/sep <- conv2_2/dw
I1227 03:31:31.076258 35358 net.cpp:382] conv2_2/sep -> conv2_2/sep
I1227 03:31:31.077894 35358 net.cpp:124] Setting up conv2_2/sep
I1227 03:31:31.077919 35358 net.cpp:131] Top shape: 256 128 28 28 (25690112)
I1227 03:31:31.077924 35358 net.cpp:139] Memory required for data: 1990990848
I1227 03:31:31.077931 35358 layer_factory.hpp:77] Creating layer conv2_2/sep/bn
I1227 03:31:31.077939 35358 net.cpp:86] Creating Layer conv2_2/sep/bn
I1227 03:31:31.077944 35358 net.cpp:408] conv2_2/sep/bn <- conv2_2/sep
I1227 03:31:31.077955 35358 net.cpp:369] conv2_2/sep/bn -> conv2_2/sep (in-place)
I1227 03:31:31.078122 35358 net.cpp:124] Setting up conv2_2/sep/bn
I1227 03:31:31.078133 35358 net.cpp:131] Top shape: 256 128 28 28 (25690112)
I1227 03:31:31.078137 35358 net.cpp:139] Memory required for data: 2093751296
I1227 03:31:31.078146 35358 layer_factory.hpp:77] Creating layer conv2_2/sep/scale
I1227 03:31:31.078155 35358 net.cpp:86] Creating Layer conv2_2/sep/scale
I1227 03:31:31.078161 35358 net.cpp:408] conv2_2/sep/scale <- conv2_2/sep
I1227 03:31:31.078167 35358 net.cpp:369] conv2_2/sep/scale -> conv2_2/sep (in-place)
I1227 03:31:31.078197 35358 layer_factory.hpp:77] Creating layer conv2_2/sep/scale
I1227 03:31:31.078311 35358 net.cpp:124] Setting up conv2_2/sep/scale
I1227 03:31:31.078320 35358 net.cpp:131] Top shape: 256 128 28 28 (25690112)
I1227 03:31:31.078328 35358 net.cpp:139] Memory required for data: 2196511744
I1227 03:31:31.078336 35358 layer_factory.hpp:77] Creating layer relu2_2/sep
I1227 03:31:31.078342 35358 net.cpp:86] Creating Layer relu2_2/sep
I1227 03:31:31.078347 35358 net.cpp:408] relu2_2/sep <- conv2_2/sep
I1227 03:31:31.078353 35358 net.cpp:369] relu2_2/sep -> conv2_2/sep (in-place)
I1227 03:31:31.078361 35358 net.cpp:124] Setting up relu2_2/sep
I1227 03:31:31.078366 35358 net.cpp:131] Top shape: 256 128 28 28 (25690112)
I1227 03:31:31.078371 35358 net.cpp:139] Memory required for data: 2299272192
I1227 03:31:31.078374 35358 layer_factory.hpp:77] Creating layer conv3_1/dw
I1227 03:31:31.078383 35358 net.cpp:86] Creating Layer conv3_1/dw
I1227 03:31:31.078388 35358 net.cpp:408] conv3_1/dw <- conv2_2/sep
I1227 03:31:31.078395 35358 net.cpp:382] conv3_1/dw -> conv3_1/dw
I1227 03:31:31.078574 35358 net.cpp:124] Setting up conv3_1/dw
I1227 03:31:31.078584 35358 net.cpp:131] Top shape: 256 128 28 28 (25690112)
I1227 03:31:31.078589 35358 net.cpp:139] Memory required for data: 2402032640
I1227 03:31:31.078594 35358 layer_factory.hpp:77] Creating layer conv3_1/dw/bn
I1227 03:31:31.078601 35358 net.cpp:86] Creating Layer conv3_1/dw/bn
I1227 03:31:31.078606 35358 net.cpp:408] conv3_1/dw/bn <- conv3_1/dw
I1227 03:31:31.078613 35358 net.cpp:369] conv3_1/dw/bn -> conv3_1/dw (in-place)
I1227 03:31:31.078758 35358 net.cpp:124] Setting up conv3_1/dw/bn
I1227 03:31:31.078768 35358 net.cpp:131] Top shape: 256 128 28 28 (25690112)
I1227 03:31:31.078773 35358 net.cpp:139] Memory required for data: 2504793088
I1227 03:31:31.078784 35358 layer_factory.hpp:77] Creating layer conv3_1/dw/scale
I1227 03:31:31.078793 35358 net.cpp:86] Creating Layer conv3_1/dw/scale
I1227 03:31:31.078797 35358 net.cpp:408] conv3_1/dw/scale <- conv3_1/dw
I1227 03:31:31.078804 35358 net.cpp:369] conv3_1/dw/scale -> conv3_1/dw (in-place)
I1227 03:31:31.078846 35358 layer_factory.hpp:77] Creating layer conv3_1/dw/scale
I1227 03:31:31.078941 35358 net.cpp:124] Setting up conv3_1/dw/scale
I1227 03:31:31.078950 35358 net.cpp:131] Top shape: 256 128 28 28 (25690112)
I1227 03:31:31.078955 35358 net.cpp:139] Memory required for data: 2607553536
I1227 03:31:31.078963 35358 layer_factory.hpp:77] Creating layer relu3_1/dw
I1227 03:31:31.078969 35358 net.cpp:86] Creating Layer relu3_1/dw
I1227 03:31:31.078972 35358 net.cpp:408] relu3_1/dw <- conv3_1/dw
I1227 03:31:31.078979 35358 net.cpp:369] relu3_1/dw -> conv3_1/dw (in-place)
I1227 03:31:31.078985 35358 net.cpp:124] Setting up relu3_1/dw
I1227 03:31:31.078991 35358 net.cpp:131] Top shape: 256 128 28 28 (25690112)
I1227 03:31:31.078995 35358 net.cpp:139] Memory required for data: 2710313984
I1227 03:31:31.079000 35358 layer_factory.hpp:77] Creating layer conv3_1/sep
I1227 03:31:31.079010 35358 net.cpp:86] Creating Layer conv3_1/sep
I1227 03:31:31.079015 35358 net.cpp:408] conv3_1/sep <- conv3_1/dw
I1227 03:31:31.079020 35358 net.cpp:382] conv3_1/sep -> conv3_1/sep
I1227 03:31:31.079352 35358 net.cpp:124] Setting up conv3_1/sep
I1227 03:31:31.079363 35358 net.cpp:131] Top shape: 256 128 28 28 (25690112)
I1227 03:31:31.079367 35358 net.cpp:139] Memory required for data: 2813074432
I1227 03:31:31.079373 35358 layer_factory.hpp:77] Creating layer conv3_1/sep/bn
I1227 03:31:31.079380 35358 net.cpp:86] Creating Layer conv3_1/sep/bn
I1227 03:31:31.079385 35358 net.cpp:408] conv3_1/sep/bn <- conv3_1/sep
I1227 03:31:31.079391 35358 net.cpp:369] conv3_1/sep/bn -> conv3_1/sep (in-place)
I1227 03:31:31.079540 35358 net.cpp:124] Setting up conv3_1/sep/bn
I1227 03:31:31.079548 35358 net.cpp:131] Top shape: 256 128 28 28 (25690112)
I1227 03:31:31.079552 35358 net.cpp:139] Memory required for data: 2915834880
I1227 03:31:31.079560 35358 layer_factory.hpp:77] Creating layer conv3_1/sep/scale
I1227 03:31:31.079568 35358 net.cpp:86] Creating Layer conv3_1/sep/scale
I1227 03:31:31.079573 35358 net.cpp:408] conv3_1/sep/scale <- conv3_1/sep
I1227 03:31:31.079579 35358 net.cpp:369] conv3_1/sep/scale -> conv3_1/sep (in-place)
I1227 03:31:31.079608 35358 layer_factory.hpp:77] Creating layer conv3_1/sep/scale
I1227 03:31:31.079710 35358 net.cpp:124] Setting up conv3_1/sep/scale
I1227 03:31:31.079720 35358 net.cpp:131] Top shape: 256 128 28 28 (25690112)
I1227 03:31:31.079723 35358 net.cpp:139] Memory required for data: 3018595328
I1227 03:31:31.079730 35358 layer_factory.hpp:77] Creating layer relu3_1/sep
I1227 03:31:31.079736 35358 net.cpp:86] Creating Layer relu3_1/sep
I1227 03:31:31.079741 35358 net.cpp:408] relu3_1/sep <- conv3_1/sep
I1227 03:31:31.079747 35358 net.cpp:369] relu3_1/sep -> conv3_1/sep (in-place)
I1227 03:31:31.079753 35358 net.cpp:124] Setting up relu3_1/sep
I1227 03:31:31.079759 35358 net.cpp:131] Top shape: 256 128 28 28 (25690112)
I1227 03:31:31.079763 35358 net.cpp:139] Memory required for data: 3121355776
I1227 03:31:31.079767 35358 layer_factory.hpp:77] Creating layer conv3_2/dw
I1227 03:31:31.079777 35358 net.cpp:86] Creating Layer conv3_2/dw
I1227 03:31:31.079780 35358 net.cpp:408] conv3_2/dw <- conv3_1/sep
I1227 03:31:31.079788 35358 net.cpp:382] conv3_2/dw -> conv3_2/dw
I1227 03:31:31.079946 35358 net.cpp:124] Setting up conv3_2/dw
I1227 03:31:31.079957 35358 net.cpp:131] Top shape: 256 128 14 14 (6422528)
I1227 03:31:31.079960 35358 net.cpp:139] Memory required for data: 3147045888
I1227 03:31:31.079967 35358 layer_factory.hpp:77] Creating layer conv3_2/dw/bn
I1227 03:31:31.079973 35358 net.cpp:86] Creating Layer conv3_2/dw/bn
I1227 03:31:31.079978 35358 net.cpp:408] conv3_2/dw/bn <- conv3_2/dw
I1227 03:31:31.079984 35358 net.cpp:369] conv3_2/dw/bn -> conv3_2/dw (in-place)
I1227 03:31:31.080132 35358 net.cpp:124] Setting up conv3_2/dw/bn
I1227 03:31:31.080140 35358 net.cpp:131] Top shape: 256 128 14 14 (6422528)
I1227 03:31:31.080144 35358 net.cpp:139] Memory required for data: 3172736000
I1227 03:31:31.080152 35358 layer_factory.hpp:77] Creating layer conv3_2/dw/scale
I1227 03:31:31.080160 35358 net.cpp:86] Creating Layer conv3_2/dw/scale
I1227 03:31:31.080164 35358 net.cpp:408] conv3_2/dw/scale <- conv3_2/dw
I1227 03:31:31.080170 35358 net.cpp:369] conv3_2/dw/scale -> conv3_2/dw (in-place)
I1227 03:31:31.080200 35358 layer_factory.hpp:77] Creating layer conv3_2/dw/scale
I1227 03:31:31.080291 35358 net.cpp:124] Setting up conv3_2/dw/scale
I1227 03:31:31.080298 35358 net.cpp:131] Top shape: 256 128 14 14 (6422528)
I1227 03:31:31.080303 35358 net.cpp:139] Memory required for data: 3198426112
I1227 03:31:31.080309 35358 layer_factory.hpp:77] Creating layer relu3_2/dw
I1227 03:31:31.080319 35358 net.cpp:86] Creating Layer relu3_2/dw
I1227 03:31:31.080324 35358 net.cpp:408] relu3_2/dw <- conv3_2/dw
I1227 03:31:31.080330 35358 net.cpp:369] relu3_2/dw -> conv3_2/dw (in-place)
I1227 03:31:31.080337 35358 net.cpp:124] Setting up relu3_2/dw
I1227 03:31:31.080343 35358 net.cpp:131] Top shape: 256 128 14 14 (6422528)
I1227 03:31:31.080346 35358 net.cpp:139] Memory required for data: 3224116224
I1227 03:31:31.080350 35358 layer_factory.hpp:77] Creating layer conv3_2/sep
I1227 03:31:31.080359 35358 net.cpp:86] Creating Layer conv3_2/sep
I1227 03:31:31.080363 35358 net.cpp:408] conv3_2/sep <- conv3_2/dw
I1227 03:31:31.080370 35358 net.cpp:382] conv3_2/sep -> conv3_2/sep
I1227 03:31:31.082211 35358 net.cpp:124] Setting up conv3_2/sep
I1227 03:31:31.082227 35358 net.cpp:131] Top shape: 256 256 14 14 (12845056)
I1227 03:31:31.082232 35358 net.cpp:139] Memory required for data: 3275496448
I1227 03:31:31.082239 35358 layer_factory.hpp:77] Creating layer conv3_2/sep/bn
I1227 03:31:31.082247 35358 net.cpp:86] Creating Layer conv3_2/sep/bn
I1227 03:31:31.082252 35358 net.cpp:408] conv3_2/sep/bn <- conv3_2/sep
I1227 03:31:31.082259 35358 net.cpp:369] conv3_2/sep/bn -> conv3_2/sep (in-place)
I1227 03:31:31.082412 35358 net.cpp:124] Setting up conv3_2/sep/bn
I1227 03:31:31.082430 35358 net.cpp:131] Top shape: 256 256 14 14 (12845056)
I1227 03:31:31.082435 35358 net.cpp:139] Memory required for data: 3326876672
I1227 03:31:31.082443 35358 layer_factory.hpp:77] Creating layer conv3_2/sep/scale
I1227 03:31:31.082460 35358 net.cpp:86] Creating Layer conv3_2/sep/scale
I1227 03:31:31.082469 35358 net.cpp:408] conv3_2/sep/scale <- conv3_2/sep
I1227 03:31:31.082476 35358 net.cpp:369] conv3_2/sep/scale -> conv3_2/sep (in-place)
I1227 03:31:31.082509 35358 layer_factory.hpp:77] Creating layer conv3_2/sep/scale
I1227 03:31:31.082607 35358 net.cpp:124] Setting up conv3_2/sep/scale
I1227 03:31:31.082617 35358 net.cpp:131] Top shape: 256 256 14 14 (12845056)
I1227 03:31:31.082620 35358 net.cpp:139] Memory required for data: 3378256896
I1227 03:31:31.082628 35358 layer_factory.hpp:77] Creating layer relu3_2/sep
I1227 03:31:31.082634 35358 net.cpp:86] Creating Layer relu3_2/sep
I1227 03:31:31.082638 35358 net.cpp:408] relu3_2/sep <- conv3_2/sep
I1227 03:31:31.082645 35358 net.cpp:369] relu3_2/sep -> conv3_2/sep (in-place)
I1227 03:31:31.082653 35358 net.cpp:124] Setting up relu3_2/sep
I1227 03:31:31.082659 35358 net.cpp:131] Top shape: 256 256 14 14 (12845056)
I1227 03:31:31.082662 35358 net.cpp:139] Memory required for data: 3429637120
I1227 03:31:31.082666 35358 layer_factory.hpp:77] Creating layer conv4_1/dw
I1227 03:31:31.082675 35358 net.cpp:86] Creating Layer conv4_1/dw
I1227 03:31:31.082679 35358 net.cpp:408] conv4_1/dw <- conv3_2/sep
I1227 03:31:31.082687 35358 net.cpp:382] conv4_1/dw -> conv4_1/dw
I1227 03:31:31.082870 35358 net.cpp:124] Setting up conv4_1/dw
I1227 03:31:31.082880 35358 net.cpp:131] Top shape: 256 256 14 14 (12845056)
I1227 03:31:31.082885 35358 net.cpp:139] Memory required for data: 3481017344
I1227 03:31:31.082890 35358 layer_factory.hpp:77] Creating layer conv4_1/dw/bn
I1227 03:31:31.082897 35358 net.cpp:86] Creating Layer conv4_1/dw/bn
I1227 03:31:31.082902 35358 net.cpp:408] conv4_1/dw/bn <- conv4_1/dw
I1227 03:31:31.082909 35358 net.cpp:369] conv4_1/dw/bn -> conv4_1/dw (in-place)
I1227 03:31:31.083058 35358 net.cpp:124] Setting up conv4_1/dw/bn
I1227 03:31:31.083067 35358 net.cpp:131] Top shape: 256 256 14 14 (12845056)
I1227 03:31:31.083072 35358 net.cpp:139] Memory required for data: 3532397568
I1227 03:31:31.083081 35358 layer_factory.hpp:77] Creating layer conv4_1/dw/scale
I1227 03:31:31.083088 35358 net.cpp:86] Creating Layer conv4_1/dw/scale
I1227 03:31:31.083092 35358 net.cpp:408] conv4_1/dw/scale <- conv4_1/dw
I1227 03:31:31.083099 35358 net.cpp:369] conv4_1/dw/scale -> conv4_1/dw (in-place)
I1227 03:31:31.083129 35358 layer_factory.hpp:77] Creating layer conv4_1/dw/scale
I1227 03:31:31.083221 35358 net.cpp:124] Setting up conv4_1/dw/scale
I1227 03:31:31.083230 35358 net.cpp:131] Top shape: 256 256 14 14 (12845056)
I1227 03:31:31.083235 35358 net.cpp:139] Memory required for data: 3583777792
I1227 03:31:31.083241 35358 layer_factory.hpp:77] Creating layer relu4_1/dw
I1227 03:31:31.083248 35358 net.cpp:86] Creating Layer relu4_1/dw
I1227 03:31:31.083252 35358 net.cpp:408] relu4_1/dw <- conv4_1/dw
I1227 03:31:31.083259 35358 net.cpp:369] relu4_1/dw -> conv4_1/dw (in-place)
I1227 03:31:31.083266 35358 net.cpp:124] Setting up relu4_1/dw
I1227 03:31:31.083271 35358 net.cpp:131] Top shape: 256 256 14 14 (12845056)
I1227 03:31:31.083276 35358 net.cpp:139] Memory required for data: 3635158016
I1227 03:31:31.083279 35358 layer_factory.hpp:77] Creating layer conv4_1/sep
I1227 03:31:31.083288 35358 net.cpp:86] Creating Layer conv4_1/sep
I1227 03:31:31.083292 35358 net.cpp:408] conv4_1/sep <- conv4_1/dw
I1227 03:31:31.083300 35358 net.cpp:382] conv4_1/sep -> conv4_1/sep
I1227 03:31:31.084110 35358 net.cpp:124] Setting up conv4_1/sep
I1227 03:31:31.084121 35358 net.cpp:131] Top shape: 256 256 14 14 (12845056)
I1227 03:31:31.084125 35358 net.cpp:139] Memory required for data: 3686538240
I1227 03:31:31.084131 35358 layer_factory.hpp:77] Creating layer conv4_1/sep/bn
I1227 03:31:31.084138 35358 net.cpp:86] Creating Layer conv4_1/sep/bn
I1227 03:31:31.084142 35358 net.cpp:408] conv4_1/sep/bn <- conv4_1/sep
I1227 03:31:31.084149 35358 net.cpp:369] conv4_1/sep/bn -> conv4_1/sep (in-place)
I1227 03:31:31.084296 35358 net.cpp:124] Setting up conv4_1/sep/bn
I1227 03:31:31.084305 35358 net.cpp:131] Top shape: 256 256 14 14 (12845056)
I1227 03:31:31.084309 35358 net.cpp:139] Memory required for data: 3737918464
I1227 03:31:31.084321 35358 layer_factory.hpp:77] Creating layer conv4_1/sep/scale
I1227 03:31:31.084329 35358 net.cpp:86] Creating Layer conv4_1/sep/scale
I1227 03:31:31.084334 35358 net.cpp:408] conv4_1/sep/scale <- conv4_1/sep
I1227 03:31:31.084341 35358 net.cpp:369] conv4_1/sep/scale -> conv4_1/sep (in-place)
I1227 03:31:31.084369 35358 layer_factory.hpp:77] Creating layer conv4_1/sep/scale
I1227 03:31:31.084461 35358 net.cpp:124] Setting up conv4_1/sep/scale
I1227 03:31:31.084470 35358 net.cpp:131] Top shape: 256 256 14 14 (12845056)
I1227 03:31:31.084475 35358 net.cpp:139] Memory required for data: 3789298688
I1227 03:31:31.084488 35358 layer_factory.hpp:77] Creating layer relu4_1/sep
I1227 03:31:31.084496 35358 net.cpp:86] Creating Layer relu4_1/sep
I1227 03:31:31.084501 35358 net.cpp:408] relu4_1/sep <- conv4_1/sep
I1227 03:31:31.084506 35358 net.cpp:369] relu4_1/sep -> conv4_1/sep (in-place)
I1227 03:31:31.084513 35358 net.cpp:124] Setting up relu4_1/sep
I1227 03:31:31.084519 35358 net.cpp:131] Top shape: 256 256 14 14 (12845056)
I1227 03:31:31.084523 35358 net.cpp:139] Memory required for data: 3840678912
I1227 03:31:31.084527 35358 layer_factory.hpp:77] Creating layer conv4_2/dw
I1227 03:31:31.084535 35358 net.cpp:86] Creating Layer conv4_2/dw
I1227 03:31:31.084539 35358 net.cpp:408] conv4_2/dw <- conv4_1/sep
I1227 03:31:31.084545 35358 net.cpp:382] conv4_2/dw -> conv4_2/dw
I1227 03:31:31.084720 35358 net.cpp:124] Setting up conv4_2/dw
I1227 03:31:31.084730 35358 net.cpp:131] Top shape: 256 256 7 7 (3211264)
I1227 03:31:31.084734 35358 net.cpp:139] Memory required for data: 3853523968
I1227 03:31:31.084740 35358 layer_factory.hpp:77] Creating layer conv4_2/dw/bn
I1227 03:31:31.084748 35358 net.cpp:86] Creating Layer conv4_2/dw/bn
I1227 03:31:31.084751 35358 net.cpp:408] conv4_2/dw/bn <- conv4_2/dw
I1227 03:31:31.084759 35358 net.cpp:369] conv4_2/dw/bn -> conv4_2/dw (in-place)
I1227 03:31:31.084911 35358 net.cpp:124] Setting up conv4_2/dw/bn
I1227 03:31:31.084919 35358 net.cpp:131] Top shape: 256 256 7 7 (3211264)
I1227 03:31:31.084923 35358 net.cpp:139] Memory required for data: 3866369024
I1227 03:31:31.084931 35358 layer_factory.hpp:77] Creating layer conv4_2/dw/scale
I1227 03:31:31.084939 35358 net.cpp:86] Creating Layer conv4_2/dw/scale
I1227 03:31:31.084944 35358 net.cpp:408] conv4_2/dw/scale <- conv4_2/dw
I1227 03:31:31.084950 35358 net.cpp:369] conv4_2/dw/scale -> conv4_2/dw (in-place)
I1227 03:31:31.084980 35358 layer_factory.hpp:77] Creating layer conv4_2/dw/scale
I1227 03:31:31.085074 35358 net.cpp:124] Setting up conv4_2/dw/scale
I1227 03:31:31.085083 35358 net.cpp:131] Top shape: 256 256 7 7 (3211264)
I1227 03:31:31.085088 35358 net.cpp:139] Memory required for data: 3879214080
I1227 03:31:31.085093 35358 layer_factory.hpp:77] Creating layer relu4_2/dw
I1227 03:31:31.085100 35358 net.cpp:86] Creating Layer relu4_2/dw
I1227 03:31:31.085104 35358 net.cpp:408] relu4_2/dw <- conv4_2/dw
I1227 03:31:31.085111 35358 net.cpp:369] relu4_2/dw -> conv4_2/dw (in-place)
I1227 03:31:31.085117 35358 net.cpp:124] Setting up relu4_2/dw
I1227 03:31:31.085124 35358 net.cpp:131] Top shape: 256 256 7 7 (3211264)
I1227 03:31:31.085129 35358 net.cpp:139] Memory required for data: 3892059136
I1227 03:31:31.085132 35358 layer_factory.hpp:77] Creating layer conv4_2/sep
I1227 03:31:31.085141 35358 net.cpp:86] Creating Layer conv4_2/sep
I1227 03:31:31.085145 35358 net.cpp:408] conv4_2/sep <- conv4_2/dw
I1227 03:31:31.085152 35358 net.cpp:382] conv4_2/sep -> conv4_2/sep
I1227 03:31:31.087960 35358 net.cpp:124] Setting up conv4_2/sep
I1227 03:31:31.087976 35358 net.cpp:131] Top shape: 256 512 7 7 (6422528)
I1227 03:31:31.087982 35358 net.cpp:139] Memory required for data: 3917749248
I1227 03:31:31.087993 35358 layer_factory.hpp:77] Creating layer conv4_2/sep/bn
I1227 03:31:31.088001 35358 net.cpp:86] Creating Layer conv4_2/sep/bn
I1227 03:31:31.088006 35358 net.cpp:408] conv4_2/sep/bn <- conv4_2/sep
I1227 03:31:31.088013 35358 net.cpp:369] conv4_2/sep/bn -> conv4_2/sep (in-place)
I1227 03:31:31.088183 35358 net.cpp:124] Setting up conv4_2/sep/bn
I1227 03:31:31.088197 35358 net.cpp:131] Top shape: 256 512 7 7 (6422528)
I1227 03:31:31.088202 35358 net.cpp:139] Memory required for data: 3943439360
I1227 03:31:31.088210 35358 layer_factory.hpp:77] Creating layer conv4_2/sep/scale
I1227 03:31:31.088219 35358 net.cpp:86] Creating Layer conv4_2/sep/scale
I1227 03:31:31.088224 35358 net.cpp:408] conv4_2/sep/scale <- conv4_2/sep
I1227 03:31:31.088232 35358 net.cpp:369] conv4_2/sep/scale -> conv4_2/sep (in-place)
I1227 03:31:31.088260 35358 layer_factory.hpp:77] Creating layer conv4_2/sep/scale
I1227 03:31:31.088363 35358 net.cpp:124] Setting up conv4_2/sep/scale
I1227 03:31:31.088372 35358 net.cpp:131] Top shape: 256 512 7 7 (6422528)
I1227 03:31:31.088376 35358 net.cpp:139] Memory required for data: 3969129472
I1227 03:31:31.088383 35358 layer_factory.hpp:77] Creating layer relu4_2/sep
I1227 03:31:31.088389 35358 net.cpp:86] Creating Layer relu4_2/sep
I1227 03:31:31.088394 35358 net.cpp:408] relu4_2/sep <- conv4_2/sep
I1227 03:31:31.088400 35358 net.cpp:369] relu4_2/sep -> conv4_2/sep (in-place)
I1227 03:31:31.088407 35358 net.cpp:124] Setting up relu4_2/sep
I1227 03:31:31.088413 35358 net.cpp:131] Top shape: 256 512 7 7 (6422528)
I1227 03:31:31.088418 35358 net.cpp:139] Memory required for data: 3994819584
I1227 03:31:31.088421 35358 layer_factory.hpp:77] Creating layer conv5_1/dw
I1227 03:31:31.088430 35358 net.cpp:86] Creating Layer conv5_1/dw
I1227 03:31:31.088434 35358 net.cpp:408] conv5_1/dw <- conv4_2/sep
I1227 03:31:31.088441 35358 net.cpp:382] conv5_1/dw -> conv5_1/dw
I1227 03:31:31.088644 35358 net.cpp:124] Setting up conv5_1/dw
I1227 03:31:31.088654 35358 net.cpp:131] Top shape: 256 512 7 7 (6422528)
I1227 03:31:31.088659 35358 net.cpp:139] Memory required for data: 4020509696
I1227 03:31:31.088663 35358 layer_factory.hpp:77] Creating layer conv5_1/dw/bn
I1227 03:31:31.088670 35358 net.cpp:86] Creating Layer conv5_1/dw/bn
I1227 03:31:31.088675 35358 net.cpp:408] conv5_1/dw/bn <- conv5_1/dw
I1227 03:31:31.088682 35358 net.cpp:369] conv5_1/dw/bn -> conv5_1/dw (in-place)
I1227 03:31:31.088837 35358 net.cpp:124] Setting up conv5_1/dw/bn
I1227 03:31:31.088846 35358 net.cpp:131] Top shape: 256 512 7 7 (6422528)
I1227 03:31:31.088851 35358 net.cpp:139] Memory required for data: 4046199808
I1227 03:31:31.088860 35358 layer_factory.hpp:77] Creating layer conv5_1/dw/scale
I1227 03:31:31.088867 35358 net.cpp:86] Creating Layer conv5_1/dw/scale
I1227 03:31:31.088871 35358 net.cpp:408] conv5_1/dw/scale <- conv5_1/dw
I1227 03:31:31.088878 35358 net.cpp:369] conv5_1/dw/scale -> conv5_1/dw (in-place)
I1227 03:31:31.088907 35358 layer_factory.hpp:77] Creating layer conv5_1/dw/scale
I1227 03:31:31.089009 35358 net.cpp:124] Setting up conv5_1/dw/scale
I1227 03:31:31.089017 35358 net.cpp:131] Top shape: 256 512 7 7 (6422528)
I1227 03:31:31.089022 35358 net.cpp:139] Memory required for data: 4071889920
I1227 03:31:31.089030 35358 layer_factory.hpp:77] Creating layer relu5_1/dw
I1227 03:31:31.089036 35358 net.cpp:86] Creating Layer relu5_1/dw
I1227 03:31:31.089040 35358 net.cpp:408] relu5_1/dw <- conv5_1/dw
I1227 03:31:31.089047 35358 net.cpp:369] relu5_1/dw -> conv5_1/dw (in-place)
I1227 03:31:31.089053 35358 net.cpp:124] Setting up relu5_1/dw
I1227 03:31:31.089059 35358 net.cpp:131] Top shape: 256 512 7 7 (6422528)
I1227 03:31:31.089063 35358 net.cpp:139] Memory required for data: 4097580032
I1227 03:31:31.089067 35358 layer_factory.hpp:77] Creating layer conv5_1/sep
I1227 03:31:31.089078 35358 net.cpp:86] Creating Layer conv5_1/sep
I1227 03:31:31.089083 35358 net.cpp:408] conv5_1/sep <- conv5_1/dw
I1227 03:31:31.089090 35358 net.cpp:382] conv5_1/sep -> conv5_1/sep
I1227 03:31:31.091857 35358 net.cpp:124] Setting up conv5_1/sep
I1227 03:31:31.091869 35358 net.cpp:131] Top shape: 256 512 7 7 (6422528)
I1227 03:31:31.091874 35358 net.cpp:139] Memory required for data: 4123270144
I1227 03:31:31.091881 35358 layer_factory.hpp:77] Creating layer conv5_1/sep/bn
I1227 03:31:31.091888 35358 net.cpp:86] Creating Layer conv5_1/sep/bn
I1227 03:31:31.091897 35358 net.cpp:408] conv5_1/sep/bn <- conv5_1/sep
I1227 03:31:31.091904 35358 net.cpp:369] conv5_1/sep/bn -> conv5_1/sep (in-place)
I1227 03:31:31.092064 35358 net.cpp:124] Setting up conv5_1/sep/bn
I1227 03:31:31.092074 35358 net.cpp:131] Top shape: 256 512 7 7 (6422528)
I1227 03:31:31.092078 35358 net.cpp:139] Memory required for data: 4148960256
I1227 03:31:31.092087 35358 layer_factory.hpp:77] Creating layer conv5_1/sep/scale
I1227 03:31:31.092094 35358 net.cpp:86] Creating Layer conv5_1/sep/scale
I1227 03:31:31.092099 35358 net.cpp:408] conv5_1/sep/scale <- conv5_1/sep
I1227 03:31:31.092105 35358 net.cpp:369] conv5_1/sep/scale -> conv5_1/sep (in-place)
I1227 03:31:31.092133 35358 layer_factory.hpp:77] Creating layer conv5_1/sep/scale
I1227 03:31:31.092231 35358 net.cpp:124] Setting up conv5_1/sep/scale
I1227 03:31:31.092241 35358 net.cpp:131] Top shape: 256 512 7 7 (6422528)
I1227 03:31:31.092244 35358 net.cpp:139] Memory required for data: 4174650368
I1227 03:31:31.092252 35358 layer_factory.hpp:77] Creating layer relu5_1/sep
I1227 03:31:31.092257 35358 net.cpp:86] Creating Layer relu5_1/sep
I1227 03:31:31.092262 35358 net.cpp:408] relu5_1/sep <- conv5_1/sep
I1227 03:31:31.092268 35358 net.cpp:369] relu5_1/sep -> conv5_1/sep (in-place)
I1227 03:31:31.092274 35358 net.cpp:124] Setting up relu5_1/sep
I1227 03:31:31.092281 35358 net.cpp:131] Top shape: 256 512 7 7 (6422528)
I1227 03:31:31.092285 35358 net.cpp:139] Memory required for data: 4200340480
I1227 03:31:31.092289 35358 layer_factory.hpp:77] Creating layer conv5_2/dw
I1227 03:31:31.092298 35358 net.cpp:86] Creating Layer conv5_2/dw
I1227 03:31:31.092301 35358 net.cpp:408] conv5_2/dw <- conv5_1/sep
I1227 03:31:31.092309 35358 net.cpp:382] conv5_2/dw -> conv5_2/dw
I1227 03:31:31.092509 35358 net.cpp:124] Setting up conv5_2/dw
I1227 03:31:31.092519 35358 net.cpp:131] Top shape: 256 512 7 7 (6422528)
I1227 03:31:31.092522 35358 net.cpp:139] Memory required for data: 4226030592
I1227 03:31:31.092528 35358 layer_factory.hpp:77] Creating layer conv5_2/dw/bn
I1227 03:31:31.092535 35358 net.cpp:86] Creating Layer conv5_2/dw/bn
I1227 03:31:31.092540 35358 net.cpp:408] conv5_2/dw/bn <- conv5_2/dw
I1227 03:31:31.092545 35358 net.cpp:369] conv5_2/dw/bn -> conv5_2/dw (in-place)
I1227 03:31:31.092702 35358 net.cpp:124] Setting up conv5_2/dw/bn
I1227 03:31:31.092711 35358 net.cpp:131] Top shape: 256 512 7 7 (6422528)
I1227 03:31:31.092715 35358 net.cpp:139] Memory required for data: 4251720704
I1227 03:31:31.092723 35358 layer_factory.hpp:77] Creating layer conv5_2/dw/scale
I1227 03:31:31.092731 35358 net.cpp:86] Creating Layer conv5_2/dw/scale
I1227 03:31:31.092736 35358 net.cpp:408] conv5_2/dw/scale <- conv5_2/dw
I1227 03:31:31.092742 35358 net.cpp:369] conv5_2/dw/scale -> conv5_2/dw (in-place)
I1227 03:31:31.092769 35358 layer_factory.hpp:77] Creating layer conv5_2/dw/scale
I1227 03:31:31.092869 35358 net.cpp:124] Setting up conv5_2/dw/scale
I1227 03:31:31.092878 35358 net.cpp:131] Top shape: 256 512 7 7 (6422528)
I1227 03:31:31.092882 35358 net.cpp:139] Memory required for data: 4277410816
I1227 03:31:31.092890 35358 layer_factory.hpp:77] Creating layer relu5_2/dw
I1227 03:31:31.092903 35358 net.cpp:86] Creating Layer relu5_2/dw
I1227 03:31:31.092908 35358 net.cpp:408] relu5_2/dw <- conv5_2/dw
I1227 03:31:31.092913 35358 net.cpp:369] relu5_2/dw -> conv5_2/dw (in-place)
I1227 03:31:31.092919 35358 net.cpp:124] Setting up relu5_2/dw
I1227 03:31:31.092926 35358 net.cpp:131] Top shape: 256 512 7 7 (6422528)
I1227 03:31:31.092931 35358 net.cpp:139] Memory required for data: 4303100928
I1227 03:31:31.092934 35358 layer_factory.hpp:77] Creating layer conv5_2/sep
I1227 03:31:31.092942 35358 net.cpp:86] Creating Layer conv5_2/sep
I1227 03:31:31.092947 35358 net.cpp:408] conv5_2/sep <- conv5_2/dw
I1227 03:31:31.092953 35358 net.cpp:382] conv5_2/sep -> conv5_2/sep
I1227 03:31:31.097096 35358 net.cpp:124] Setting up conv5_2/sep
I1227 03:31:31.097115 35358 net.cpp:131] Top shape: 256 512 7 7 (6422528)
I1227 03:31:31.097120 35358 net.cpp:139] Memory required for data: 4328791040
I1227 03:31:31.097131 35358 layer_factory.hpp:77] Creating layer conv5_2/sep/bn
I1227 03:31:31.097138 35358 net.cpp:86] Creating Layer conv5_2/sep/bn
I1227 03:31:31.097144 35358 net.cpp:408] conv5_2/sep/bn <- conv5_2/sep
I1227 03:31:31.097151 35358 net.cpp:369] conv5_2/sep/bn -> conv5_2/sep (in-place)
I1227 03:31:31.097316 35358 net.cpp:124] Setting up conv5_2/sep/bn
I1227 03:31:31.097326 35358 net.cpp:131] Top shape: 256 512 7 7 (6422528)
I1227 03:31:31.097329 35358 net.cpp:139] Memory required for data: 4354481152
I1227 03:31:31.097338 35358 layer_factory.hpp:77] Creating layer conv5_2/sep/scale
I1227 03:31:31.097347 35358 net.cpp:86] Creating Layer conv5_2/sep/scale
I1227 03:31:31.097352 35358 net.cpp:408] conv5_2/sep/scale <- conv5_2/sep
I1227 03:31:31.097358 35358 net.cpp:369] conv5_2/sep/scale -> conv5_2/sep (in-place)
I1227 03:31:31.097388 35358 layer_factory.hpp:77] Creating layer conv5_2/sep/scale
I1227 03:31:31.097491 35358 net.cpp:124] Setting up conv5_2/sep/scale
I1227 03:31:31.097506 35358 net.cpp:131] Top shape: 256 512 7 7 (6422528)
I1227 03:31:31.097510 35358 net.cpp:139] Memory required for data: 4380171264
I1227 03:31:31.097517 35358 layer_factory.hpp:77] Creating layer relu5_2/sep
I1227 03:31:31.097524 35358 net.cpp:86] Creating Layer relu5_2/sep
I1227 03:31:31.097528 35358 net.cpp:408] relu5_2/sep <- conv5_2/sep
I1227 03:31:31.097535 35358 net.cpp:369] relu5_2/sep -> conv5_2/sep (in-place)
I1227 03:31:31.097542 35358 net.cpp:124] Setting up relu5_2/sep
I1227 03:31:31.097548 35358 net.cpp:131] Top shape: 256 512 7 7 (6422528)
I1227 03:31:31.097553 35358 net.cpp:139] Memory required for data: 4405861376
I1227 03:31:31.097556 35358 layer_factory.hpp:77] Creating layer conv5_3/dw
I1227 03:31:31.097565 35358 net.cpp:86] Creating Layer conv5_3/dw
I1227 03:31:31.097569 35358 net.cpp:408] conv5_3/dw <- conv5_2/sep
I1227 03:31:31.097576 35358 net.cpp:382] conv5_3/dw -> conv5_3/dw
I1227 03:31:31.097803 35358 net.cpp:124] Setting up conv5_3/dw
I1227 03:31:31.097815 35358 net.cpp:131] Top shape: 256 512 7 7 (6422528)
I1227 03:31:31.097820 35358 net.cpp:139] Memory required for data: 4431551488
I1227 03:31:31.097826 35358 layer_factory.hpp:77] Creating layer conv5_3/dw/bn
I1227 03:31:31.097837 35358 net.cpp:86] Creating Layer conv5_3/dw/bn
I1227 03:31:31.097844 35358 net.cpp:408] conv5_3/dw/bn <- conv5_3/dw
I1227 03:31:31.097851 35358 net.cpp:369] conv5_3/dw/bn -> conv5_3/dw (in-place)
I1227 03:31:31.098011 35358 net.cpp:124] Setting up conv5_3/dw/bn
I1227 03:31:31.098019 35358 net.cpp:131] Top shape: 256 512 7 7 (6422528)
I1227 03:31:31.098023 35358 net.cpp:139] Memory required for data: 4457241600
I1227 03:31:31.098031 35358 layer_factory.hpp:77] Creating layer conv5_3/dw/scale
I1227 03:31:31.098040 35358 net.cpp:86] Creating Layer conv5_3/dw/scale
I1227 03:31:31.098047 35358 net.cpp:408] conv5_3/dw/scale <- conv5_3/dw
I1227 03:31:31.098057 35358 net.cpp:369] conv5_3/dw/scale -> conv5_3/dw (in-place)
I1227 03:31:31.098088 35358 layer_factory.hpp:77] Creating layer conv5_3/dw/scale
I1227 03:31:31.098189 35358 net.cpp:124] Setting up conv5_3/dw/scale
I1227 03:31:31.098198 35358 net.cpp:131] Top shape: 256 512 7 7 (6422528)
I1227 03:31:31.098203 35358 net.cpp:139] Memory required for data: 4482931712
I1227 03:31:31.098209 35358 layer_factory.hpp:77] Creating layer relu5_3/dw
I1227 03:31:31.098217 35358 net.cpp:86] Creating Layer relu5_3/dw
I1227 03:31:31.098220 35358 net.cpp:408] relu5_3/dw <- conv5_3/dw
I1227 03:31:31.098227 35358 net.cpp:369] relu5_3/dw -> conv5_3/dw (in-place)
I1227 03:31:31.098232 35358 net.cpp:124] Setting up relu5_3/dw
I1227 03:31:31.098239 35358 net.cpp:131] Top shape: 256 512 7 7 (6422528)
I1227 03:31:31.098243 35358 net.cpp:139] Memory required for data: 4508621824
I1227 03:31:31.098248 35358 layer_factory.hpp:77] Creating layer conv5_3/sep
I1227 03:31:31.098258 35358 net.cpp:86] Creating Layer conv5_3/sep
I1227 03:31:31.098261 35358 net.cpp:408] conv5_3/sep <- conv5_3/dw
I1227 03:31:31.098268 35358 net.cpp:382] conv5_3/sep -> conv5_3/sep
I1227 03:31:31.101037 35358 net.cpp:124] Setting up conv5_3/sep
I1227 03:31:31.101053 35358 net.cpp:131] Top shape: 256 512 7 7 (6422528)
I1227 03:31:31.101058 35358 net.cpp:139] Memory required for data: 4534311936
I1227 03:31:31.101063 35358 layer_factory.hpp:77] Creating layer conv5_3/sep/bn
I1227 03:31:31.101071 35358 net.cpp:86] Creating Layer conv5_3/sep/bn
I1227 03:31:31.101076 35358 net.cpp:408] conv5_3/sep/bn <- conv5_3/sep
I1227 03:31:31.101083 35358 net.cpp:369] conv5_3/sep/bn -> conv5_3/sep (in-place)
I1227 03:31:31.101243 35358 net.cpp:124] Setting up conv5_3/sep/bn
I1227 03:31:31.101253 35358 net.cpp:131] Top shape: 256 512 7 7 (6422528)
I1227 03:31:31.101256 35358 net.cpp:139] Memory required for data: 4560002048
I1227 03:31:31.101264 35358 layer_factory.hpp:77] Creating layer conv5_3/sep/scale
I1227 03:31:31.101272 35358 net.cpp:86] Creating Layer conv5_3/sep/scale
I1227 03:31:31.101277 35358 net.cpp:408] conv5_3/sep/scale <- conv5_3/sep
I1227 03:31:31.101284 35358 net.cpp:369] conv5_3/sep/scale -> conv5_3/sep (in-place)
I1227 03:31:31.101311 35358 layer_factory.hpp:77] Creating layer conv5_3/sep/scale
I1227 03:31:31.101413 35358 net.cpp:124] Setting up conv5_3/sep/scale
I1227 03:31:31.101423 35358 net.cpp:131] Top shape: 256 512 7 7 (6422528)
I1227 03:31:31.101428 35358 net.cpp:139] Memory required for data: 4585692160
I1227 03:31:31.101434 35358 layer_factory.hpp:77] Creating layer relu5_3/sep
I1227 03:31:31.101440 35358 net.cpp:86] Creating Layer relu5_3/sep
I1227 03:31:31.101445 35358 net.cpp:408] relu5_3/sep <- conv5_3/sep
I1227 03:31:31.101451 35358 net.cpp:369] relu5_3/sep -> conv5_3/sep (in-place)
I1227 03:31:31.101457 35358 net.cpp:124] Setting up relu5_3/sep
I1227 03:31:31.101464 35358 net.cpp:131] Top shape: 256 512 7 7 (6422528)
I1227 03:31:31.101469 35358 net.cpp:139] Memory required for data: 4611382272
I1227 03:31:31.101474 35358 layer_factory.hpp:77] Creating layer conv5_4/dw
I1227 03:31:31.101480 35358 net.cpp:86] Creating Layer conv5_4/dw
I1227 03:31:31.101485 35358 net.cpp:408] conv5_4/dw <- conv5_3/sep
I1227 03:31:31.101493 35358 net.cpp:382] conv5_4/dw -> conv5_4/dw
I1227 03:31:31.101696 35358 net.cpp:124] Setting up conv5_4/dw
I1227 03:31:31.101706 35358 net.cpp:131] Top shape: 256 512 7 7 (6422528)
I1227 03:31:31.101709 35358 net.cpp:139] Memory required for data: 4637072384
I1227 03:31:31.101716 35358 layer_factory.hpp:77] Creating layer conv5_4/dw/bn
I1227 03:31:31.101723 35358 net.cpp:86] Creating Layer conv5_4/dw/bn
I1227 03:31:31.101728 35358 net.cpp:408] conv5_4/dw/bn <- conv5_4/dw
I1227 03:31:31.101735 35358 net.cpp:369] conv5_4/dw/bn -> conv5_4/dw (in-place)
I1227 03:31:31.101893 35358 net.cpp:124] Setting up conv5_4/dw/bn
I1227 03:31:31.101902 35358 net.cpp:131] Top shape: 256 512 7 7 (6422528)
I1227 03:31:31.101905 35358 net.cpp:139] Memory required for data: 4662762496
I1227 03:31:31.101913 35358 layer_factory.hpp:77] Creating layer conv5_4/dw/scale
I1227 03:31:31.101922 35358 net.cpp:86] Creating Layer conv5_4/dw/scale
I1227 03:31:31.101925 35358 net.cpp:408] conv5_4/dw/scale <- conv5_4/dw
I1227 03:31:31.101932 35358 net.cpp:369] conv5_4/dw/scale -> conv5_4/dw (in-place)
I1227 03:31:31.101959 35358 layer_factory.hpp:77] Creating layer conv5_4/dw/scale
I1227 03:31:31.102061 35358 net.cpp:124] Setting up conv5_4/dw/scale
I1227 03:31:31.102071 35358 net.cpp:131] Top shape: 256 512 7 7 (6422528)
I1227 03:31:31.102074 35358 net.cpp:139] Memory required for data: 4688452608
I1227 03:31:31.102082 35358 layer_factory.hpp:77] Creating layer relu5_4/dw
I1227 03:31:31.102087 35358 net.cpp:86] Creating Layer relu5_4/dw
I1227 03:31:31.102092 35358 net.cpp:408] relu5_4/dw <- conv5_4/dw
I1227 03:31:31.102097 35358 net.cpp:369] relu5_4/dw -> conv5_4/dw (in-place)
I1227 03:31:31.102103 35358 net.cpp:124] Setting up relu5_4/dw
I1227 03:31:31.102109 35358 net.cpp:131] Top shape: 256 512 7 7 (6422528)
I1227 03:31:31.102113 35358 net.cpp:139] Memory required for data: 4714142720
I1227 03:31:31.102118 35358 layer_factory.hpp:77] Creating layer conv5_4/sep
I1227 03:31:31.102126 35358 net.cpp:86] Creating Layer conv5_4/sep
I1227 03:31:31.102134 35358 net.cpp:408] conv5_4/sep <- conv5_4/dw
I1227 03:31:31.102141 35358 net.cpp:382] conv5_4/sep -> conv5_4/sep
I1227 03:31:31.106283 35358 net.cpp:124] Setting up conv5_4/sep
I1227 03:31:31.106302 35358 net.cpp:131] Top shape: 256 512 7 7 (6422528)
I1227 03:31:31.106307 35358 net.cpp:139] Memory required for data: 4739832832
I1227 03:31:31.106313 35358 layer_factory.hpp:77] Creating layer conv5_4/sep/bn
I1227 03:31:31.106321 35358 net.cpp:86] Creating Layer conv5_4/sep/bn
I1227 03:31:31.106328 35358 net.cpp:408] conv5_4/sep/bn <- conv5_4/sep
I1227 03:31:31.106334 35358 net.cpp:369] conv5_4/sep/bn -> conv5_4/sep (in-place)
I1227 03:31:31.106503 35358 net.cpp:124] Setting up conv5_4/sep/bn
I1227 03:31:31.106511 35358 net.cpp:131] Top shape: 256 512 7 7 (6422528)
I1227 03:31:31.106515 35358 net.cpp:139] Memory required for data: 4765522944
I1227 03:31:31.106524 35358 layer_factory.hpp:77] Creating layer conv5_4/sep/scale
I1227 03:31:31.106532 35358 net.cpp:86] Creating Layer conv5_4/sep/scale
I1227 03:31:31.106537 35358 net.cpp:408] conv5_4/sep/scale <- conv5_4/sep
I1227 03:31:31.106544 35358 net.cpp:369] conv5_4/sep/scale -> conv5_4/sep (in-place)
I1227 03:31:31.106575 35358 layer_factory.hpp:77] Creating layer conv5_4/sep/scale
I1227 03:31:31.106680 35358 net.cpp:124] Setting up conv5_4/sep/scale
I1227 03:31:31.106688 35358 net.cpp:131] Top shape: 256 512 7 7 (6422528)
I1227 03:31:31.106693 35358 net.cpp:139] Memory required for data: 4791213056
I1227 03:31:31.106700 35358 layer_factory.hpp:77] Creating layer relu5_4/sep
I1227 03:31:31.106706 35358 net.cpp:86] Creating Layer relu5_4/sep
I1227 03:31:31.106711 35358 net.cpp:408] relu5_4/sep <- conv5_4/sep
I1227 03:31:31.106717 35358 net.cpp:369] relu5_4/sep -> conv5_4/sep (in-place)
I1227 03:31:31.106724 35358 net.cpp:124] Setting up relu5_4/sep
I1227 03:31:31.106730 35358 net.cpp:131] Top shape: 256 512 7 7 (6422528)
I1227 03:31:31.106734 35358 net.cpp:139] Memory required for data: 4816903168
I1227 03:31:31.106739 35358 layer_factory.hpp:77] Creating layer conv5_5/dw
I1227 03:31:31.106746 35358 net.cpp:86] Creating Layer conv5_5/dw
I1227 03:31:31.106751 35358 net.cpp:408] conv5_5/dw <- conv5_4/sep
I1227 03:31:31.106758 35358 net.cpp:382] conv5_5/dw -> conv5_5/dw
I1227 03:31:31.106974 35358 net.cpp:124] Setting up conv5_5/dw
I1227 03:31:31.106986 35358 net.cpp:131] Top shape: 256 512 7 7 (6422528)
I1227 03:31:31.106990 35358 net.cpp:139] Memory required for data: 4842593280
I1227 03:31:31.106997 35358 layer_factory.hpp:77] Creating layer conv5_5/dw/bn
I1227 03:31:31.107003 35358 net.cpp:86] Creating Layer conv5_5/dw/bn
I1227 03:31:31.107008 35358 net.cpp:408] conv5_5/dw/bn <- conv5_5/dw
I1227 03:31:31.107014 35358 net.cpp:369] conv5_5/dw/bn -> conv5_5/dw (in-place)
I1227 03:31:31.107182 35358 net.cpp:124] Setting up conv5_5/dw/bn
I1227 03:31:31.107192 35358 net.cpp:131] Top shape: 256 512 7 7 (6422528)
I1227 03:31:31.107197 35358 net.cpp:139] Memory required for data: 4868283392
I1227 03:31:31.107216 35358 layer_factory.hpp:77] Creating layer conv5_5/dw/scale
I1227 03:31:31.107228 35358 net.cpp:86] Creating Layer conv5_5/dw/scale
I1227 03:31:31.107233 35358 net.cpp:408] conv5_5/dw/scale <- conv5_5/dw
I1227 03:31:31.107239 35358 net.cpp:369] conv5_5/dw/scale -> conv5_5/dw (in-place)
I1227 03:31:31.107270 35358 layer_factory.hpp:77] Creating layer conv5_5/dw/scale
I1227 03:31:31.107376 35358 net.cpp:124] Setting up conv5_5/dw/scale
I1227 03:31:31.107385 35358 net.cpp:131] Top shape: 256 512 7 7 (6422528)
I1227 03:31:31.107390 35358 net.cpp:139] Memory required for data: 4893973504
I1227 03:31:31.107398 35358 layer_factory.hpp:77] Creating layer relu5_5/dw
I1227 03:31:31.107403 35358 net.cpp:86] Creating Layer relu5_5/dw
I1227 03:31:31.107408 35358 net.cpp:408] relu5_5/dw <- conv5_5/dw
I1227 03:31:31.107416 35358 net.cpp:369] relu5_5/dw -> conv5_5/dw (in-place)
I1227 03:31:31.107422 35358 net.cpp:124] Setting up relu5_5/dw
I1227 03:31:31.107429 35358 net.cpp:131] Top shape: 256 512 7 7 (6422528)
I1227 03:31:31.107432 35358 net.cpp:139] Memory required for data: 4919663616
I1227 03:31:31.107440 35358 layer_factory.hpp:77] Creating layer conv5_5/sep
I1227 03:31:31.107451 35358 net.cpp:86] Creating Layer conv5_5/sep
I1227 03:31:31.107456 35358 net.cpp:408] conv5_5/sep <- conv5_5/dw
I1227 03:31:31.107462 35358 net.cpp:382] conv5_5/sep -> conv5_5/sep
I1227 03:31:31.110227 35358 net.cpp:124] Setting up conv5_5/sep
I1227 03:31:31.110239 35358 net.cpp:131] Top shape: 256 512 7 7 (6422528)
I1227 03:31:31.110242 35358 net.cpp:139] Memory required for data: 4945353728
I1227 03:31:31.110249 35358 layer_factory.hpp:77] Creating layer conv5_5/sep/bn
I1227 03:31:31.110258 35358 net.cpp:86] Creating Layer conv5_5/sep/bn
I1227 03:31:31.110263 35358 net.cpp:408] conv5_5/sep/bn <- conv5_5/sep
I1227 03:31:31.110268 35358 net.cpp:369] conv5_5/sep/bn -> conv5_5/sep (in-place)
I1227 03:31:31.110437 35358 net.cpp:124] Setting up conv5_5/sep/bn
I1227 03:31:31.110446 35358 net.cpp:131] Top shape: 256 512 7 7 (6422528)
I1227 03:31:31.110451 35358 net.cpp:139] Memory required for data: 4971043840
I1227 03:31:31.110460 35358 layer_factory.hpp:77] Creating layer conv5_5/sep/scale
I1227 03:31:31.110468 35358 net.cpp:86] Creating Layer conv5_5/sep/scale
I1227 03:31:31.110474 35358 net.cpp:408] conv5_5/sep/scale <- conv5_5/sep
I1227 03:31:31.110479 35358 net.cpp:369] conv5_5/sep/scale -> conv5_5/sep (in-place)
I1227 03:31:31.110507 35358 layer_factory.hpp:77] Creating layer conv5_5/sep/scale
I1227 03:31:31.110615 35358 net.cpp:124] Setting up conv5_5/sep/scale
I1227 03:31:31.110625 35358 net.cpp:131] Top shape: 256 512 7 7 (6422528)
I1227 03:31:31.110630 35358 net.cpp:139] Memory required for data: 4996733952
I1227 03:31:31.110635 35358 layer_factory.hpp:77] Creating layer relu5_5/sep
I1227 03:31:31.110641 35358 net.cpp:86] Creating Layer relu5_5/sep
I1227 03:31:31.110646 35358 net.cpp:408] relu5_5/sep <- conv5_5/sep
I1227 03:31:31.110654 35358 net.cpp:369] relu5_5/sep -> conv5_5/sep (in-place)
I1227 03:31:31.110661 35358 net.cpp:124] Setting up relu5_5/sep
I1227 03:31:31.110666 35358 net.cpp:131] Top shape: 256 512 7 7 (6422528)
I1227 03:31:31.110671 35358 net.cpp:139] Memory required for data: 5022424064
I1227 03:31:31.110674 35358 layer_factory.hpp:77] Creating layer conv5_6/dw
I1227 03:31:31.110683 35358 net.cpp:86] Creating Layer conv5_6/dw
I1227 03:31:31.110688 35358 net.cpp:408] conv5_6/dw <- conv5_5/sep
I1227 03:31:31.110695 35358 net.cpp:382] conv5_6/dw -> conv5_6/dw
I1227 03:31:31.110920 35358 net.cpp:124] Setting up conv5_6/dw
I1227 03:31:31.110930 35358 net.cpp:131] Top shape: 256 512 4 4 (2097152)
I1227 03:31:31.110935 35358 net.cpp:139] Memory required for data: 5030812672
I1227 03:31:31.110941 35358 layer_factory.hpp:77] Creating layer conv5_6/dw/bn
I1227 03:31:31.110949 35358 net.cpp:86] Creating Layer conv5_6/dw/bn
I1227 03:31:31.110954 35358 net.cpp:408] conv5_6/dw/bn <- conv5_6/dw
I1227 03:31:31.110958 35358 net.cpp:369] conv5_6/dw/bn -> conv5_6/dw (in-place)
I1227 03:31:31.111136 35358 net.cpp:124] Setting up conv5_6/dw/bn
I1227 03:31:31.111145 35358 net.cpp:131] Top shape: 256 512 4 4 (2097152)
I1227 03:31:31.111148 35358 net.cpp:139] Memory required for data: 5039201280
I1227 03:31:31.111156 35358 layer_factory.hpp:77] Creating layer conv5_6/dw/scale
I1227 03:31:31.111163 35358 net.cpp:86] Creating Layer conv5_6/dw/scale
I1227 03:31:31.111168 35358 net.cpp:408] conv5_6/dw/scale <- conv5_6/dw
I1227 03:31:31.111174 35358 net.cpp:369] conv5_6/dw/scale -> conv5_6/dw (in-place)
I1227 03:31:31.111204 35358 layer_factory.hpp:77] Creating layer conv5_6/dw/scale
I1227 03:31:31.111312 35358 net.cpp:124] Setting up conv5_6/dw/scale
I1227 03:31:31.111321 35358 net.cpp:131] Top shape: 256 512 4 4 (2097152)
I1227 03:31:31.111325 35358 net.cpp:139] Memory required for data: 5047589888
I1227 03:31:31.111332 35358 layer_factory.hpp:77] Creating layer relu5_6/dw
I1227 03:31:31.111338 35358 net.cpp:86] Creating Layer relu5_6/dw
I1227 03:31:31.111343 35358 net.cpp:408] relu5_6/dw <- conv5_6/dw
I1227 03:31:31.111351 35358 net.cpp:369] relu5_6/dw -> conv5_6/dw (in-place)
I1227 03:31:31.111357 35358 net.cpp:124] Setting up relu5_6/dw
I1227 03:31:31.111366 35358 net.cpp:131] Top shape: 256 512 4 4 (2097152)
I1227 03:31:31.111371 35358 net.cpp:139] Memory required for data: 5055978496
I1227 03:31:31.111374 35358 layer_factory.hpp:77] Creating layer conv5_6/sep
I1227 03:31:31.111385 35358 net.cpp:86] Creating Layer conv5_6/sep
I1227 03:31:31.111390 35358 net.cpp:408] conv5_6/sep <- conv5_6/dw
I1227 03:31:31.111397 35358 net.cpp:382] conv5_6/sep -> conv5_6/sep
I1227 03:31:31.118228 35358 net.cpp:124] Setting up conv5_6/sep
I1227 03:31:31.118247 35358 net.cpp:131] Top shape: 256 1024 4 4 (4194304)
I1227 03:31:31.118252 35358 net.cpp:139] Memory required for data: 5072755712
I1227 03:31:31.118258 35358 layer_factory.hpp:77] Creating layer conv5_6/sep/bn
I1227 03:31:31.118269 35358 net.cpp:86] Creating Layer conv5_6/sep/bn
I1227 03:31:31.118274 35358 net.cpp:408] conv5_6/sep/bn <- conv5_6/sep
I1227 03:31:31.118281 35358 net.cpp:369] conv5_6/sep/bn -> conv5_6/sep (in-place)
I1227 03:31:31.118464 35358 net.cpp:124] Setting up conv5_6/sep/bn
I1227 03:31:31.118474 35358 net.cpp:131] Top shape: 256 1024 4 4 (4194304)
I1227 03:31:31.118479 35358 net.cpp:139] Memory required for data: 5089532928
I1227 03:31:31.118489 35358 layer_factory.hpp:77] Creating layer conv5_6/sep/scale
I1227 03:31:31.118495 35358 net.cpp:86] Creating Layer conv5_6/sep/scale
I1227 03:31:31.118500 35358 net.cpp:408] conv5_6/sep/scale <- conv5_6/sep
I1227 03:31:31.118510 35358 net.cpp:369] conv5_6/sep/scale -> conv5_6/sep (in-place)
I1227 03:31:31.118546 35358 layer_factory.hpp:77] Creating layer conv5_6/sep/scale
I1227 03:31:31.118659 35358 net.cpp:124] Setting up conv5_6/sep/scale
I1227 03:31:31.118669 35358 net.cpp:131] Top shape: 256 1024 4 4 (4194304)
I1227 03:31:31.118674 35358 net.cpp:139] Memory required for data: 5106310144
I1227 03:31:31.118680 35358 layer_factory.hpp:77] Creating layer relu5_6/sep
I1227 03:31:31.118687 35358 net.cpp:86] Creating Layer relu5_6/sep
I1227 03:31:31.118691 35358 net.cpp:408] relu5_6/sep <- conv5_6/sep
I1227 03:31:31.118697 35358 net.cpp:369] relu5_6/sep -> conv5_6/sep (in-place)
I1227 03:31:31.118703 35358 net.cpp:124] Setting up relu5_6/sep
I1227 03:31:31.118711 35358 net.cpp:131] Top shape: 256 1024 4 4 (4194304)
I1227 03:31:31.118716 35358 net.cpp:139] Memory required for data: 5123087360
I1227 03:31:31.118721 35358 layer_factory.hpp:77] Creating layer conv6/dw
I1227 03:31:31.118728 35358 net.cpp:86] Creating Layer conv6/dw
I1227 03:31:31.118732 35358 net.cpp:408] conv6/dw <- conv5_6/sep
I1227 03:31:31.118741 35358 net.cpp:382] conv6/dw -> conv6/dw
I1227 03:31:31.119024 35358 net.cpp:124] Setting up conv6/dw
I1227 03:31:31.119035 35358 net.cpp:131] Top shape: 256 1024 4 4 (4194304)
I1227 03:31:31.119040 35358 net.cpp:139] Memory required for data: 5139864576
I1227 03:31:31.119045 35358 layer_factory.hpp:77] Creating layer conv6/dw/bn
I1227 03:31:31.119052 35358 net.cpp:86] Creating Layer conv6/dw/bn
I1227 03:31:31.119057 35358 net.cpp:408] conv6/dw/bn <- conv6/dw
I1227 03:31:31.119063 35358 net.cpp:369] conv6/dw/bn -> conv6/dw (in-place)
I1227 03:31:31.119241 35358 net.cpp:124] Setting up conv6/dw/bn
I1227 03:31:31.119252 35358 net.cpp:131] Top shape: 256 1024 4 4 (4194304)
I1227 03:31:31.119257 35358 net.cpp:139] Memory required for data: 5156641792
I1227 03:31:31.119266 35358 layer_factory.hpp:77] Creating layer conv6/dw/scale
I1227 03:31:31.119272 35358 net.cpp:86] Creating Layer conv6/dw/scale
I1227 03:31:31.119277 35358 net.cpp:408] conv6/dw/scale <- conv6/dw
I1227 03:31:31.119282 35358 net.cpp:369] conv6/dw/scale -> conv6/dw (in-place)
I1227 03:31:31.119314 35358 layer_factory.hpp:77] Creating layer conv6/dw/scale
I1227 03:31:31.119429 35358 net.cpp:124] Setting up conv6/dw/scale
I1227 03:31:31.119441 35358 net.cpp:131] Top shape: 256 1024 4 4 (4194304)
I1227 03:31:31.119444 35358 net.cpp:139] Memory required for data: 5173419008
I1227 03:31:31.119451 35358 layer_factory.hpp:77] Creating layer relu6/dw
I1227 03:31:31.119457 35358 net.cpp:86] Creating Layer relu6/dw
I1227 03:31:31.119462 35358 net.cpp:408] relu6/dw <- conv6/dw
I1227 03:31:31.119473 35358 net.cpp:369] relu6/dw -> conv6/dw (in-place)
I1227 03:31:31.119480 35358 net.cpp:124] Setting up relu6/dw
I1227 03:31:31.119487 35358 net.cpp:131] Top shape: 256 1024 4 4 (4194304)
I1227 03:31:31.119490 35358 net.cpp:139] Memory required for data: 5190196224
I1227 03:31:31.119494 35358 layer_factory.hpp:77] Creating layer conv6/sep
I1227 03:31:31.119503 35358 net.cpp:86] Creating Layer conv6/sep
I1227 03:31:31.119508 35358 net.cpp:408] conv6/sep <- conv6/dw
I1227 03:31:31.119516 35358 net.cpp:382] conv6/sep -> conv6/sep
I1227 03:31:31.132510 35358 net.cpp:124] Setting up conv6/sep
I1227 03:31:31.132529 35358 net.cpp:131] Top shape: 256 1024 4 4 (4194304)
I1227 03:31:31.132534 35358 net.cpp:139] Memory required for data: 5206973440
I1227 03:31:31.132540 35358 layer_factory.hpp:77] Creating layer conv6/sep/bn
I1227 03:31:31.132549 35358 net.cpp:86] Creating Layer conv6/sep/bn
I1227 03:31:31.132553 35358 net.cpp:408] conv6/sep/bn <- conv6/sep
I1227 03:31:31.132560 35358 net.cpp:369] conv6/sep/bn -> conv6/sep (in-place)
I1227 03:31:31.132736 35358 net.cpp:124] Setting up conv6/sep/bn
I1227 03:31:31.132747 35358 net.cpp:131] Top shape: 256 1024 4 4 (4194304)
I1227 03:31:31.132752 35358 net.cpp:139] Memory required for data: 5223750656
I1227 03:31:31.132761 35358 layer_factory.hpp:77] Creating layer conv6/sep/scale
I1227 03:31:31.132768 35358 net.cpp:86] Creating Layer conv6/sep/scale
I1227 03:31:31.132772 35358 net.cpp:408] conv6/sep/scale <- conv6/sep
I1227 03:31:31.132778 35358 net.cpp:369] conv6/sep/scale -> conv6/sep (in-place)
I1227 03:31:31.132812 35358 layer_factory.hpp:77] Creating layer conv6/sep/scale
I1227 03:31:31.132925 35358 net.cpp:124] Setting up conv6/sep/scale
I1227 03:31:31.132936 35358 net.cpp:131] Top shape: 256 1024 4 4 (4194304)
I1227 03:31:31.132941 35358 net.cpp:139] Memory required for data: 5240527872
I1227 03:31:31.132947 35358 layer_factory.hpp:77] Creating layer relu6/sep
I1227 03:31:31.132953 35358 net.cpp:86] Creating Layer relu6/sep
I1227 03:31:31.132958 35358 net.cpp:408] relu6/sep <- conv6/sep
I1227 03:31:31.132964 35358 net.cpp:369] relu6/sep -> conv6/sep (in-place)
I1227 03:31:31.132971 35358 net.cpp:124] Setting up relu6/sep
I1227 03:31:31.132982 35358 net.cpp:131] Top shape: 256 1024 4 4 (4194304)
I1227 03:31:31.132987 35358 net.cpp:139] Memory required for data: 5257305088
I1227 03:31:31.132992 35358 layer_factory.hpp:77] Creating layer pool6
I1227 03:31:31.133003 35358 net.cpp:86] Creating Layer pool6
I1227 03:31:31.133008 35358 net.cpp:408] pool6 <- conv6/sep
I1227 03:31:31.133015 35358 net.cpp:382] pool6 -> pool6
I1227 03:31:31.133046 35358 net.cpp:124] Setting up pool6
I1227 03:31:31.133054 35358 net.cpp:131] Top shape: 256 1024 1 1 (262144)
I1227 03:31:31.133059 35358 net.cpp:139] Memory required for data: 5258353664
I1227 03:31:31.133064 35358 layer_factory.hpp:77] Creating layer pool6_pool6_0_split
I1227 03:31:31.133074 35358 net.cpp:86] Creating Layer pool6_pool6_0_split
I1227 03:31:31.133077 35358 net.cpp:408] pool6_pool6_0_split <- pool6
I1227 03:31:31.133085 35358 net.cpp:382] pool6_pool6_0_split -> pool6_pool6_0_split_0
I1227 03:31:31.133092 35358 net.cpp:382] pool6_pool6_0_split -> pool6_pool6_0_split_1
I1227 03:31:31.133103 35358 net.cpp:382] pool6_pool6_0_split -> pool6_pool6_0_split_2
I1227 03:31:31.133111 35358 net.cpp:382] pool6_pool6_0_split -> pool6_pool6_0_split_3
I1227 03:31:31.133118 35358 net.cpp:382] pool6_pool6_0_split -> pool6_pool6_0_split_4
I1227 03:31:31.133126 35358 net.cpp:382] pool6_pool6_0_split -> pool6_pool6_0_split_5
I1227 03:31:31.133133 35358 net.cpp:382] pool6_pool6_0_split -> pool6_pool6_0_split_6
I1227 03:31:31.133224 35358 net.cpp:124] Setting up pool6_pool6_0_split
I1227 03:31:31.133231 35358 net.cpp:131] Top shape: 256 1024 1 1 (262144)
I1227 03:31:31.133239 35358 net.cpp:131] Top shape: 256 1024 1 1 (262144)
I1227 03:31:31.133244 35358 net.cpp:131] Top shape: 256 1024 1 1 (262144)
I1227 03:31:31.133250 35358 net.cpp:131] Top shape: 256 1024 1 1 (262144)
I1227 03:31:31.133255 35358 net.cpp:131] Top shape: 256 1024 1 1 (262144)
I1227 03:31:31.133263 35358 net.cpp:131] Top shape: 256 1024 1 1 (262144)
I1227 03:31:31.133270 35358 net.cpp:131] Top shape: 256 1024 1 1 (262144)
I1227 03:31:31.133273 35358 net.cpp:139] Memory required for data: 5265693696
I1227 03:31:31.133277 35358 layer_factory.hpp:77] Creating layer cls_gender
I1227 03:31:31.133287 35358 net.cpp:86] Creating Layer cls_gender
I1227 03:31:31.133292 35358 net.cpp:408] cls_gender <- pool6_pool6_0_split_0
I1227 03:31:31.133301 35358 net.cpp:382] cls_gender -> cls_gender
I1227 03:31:31.133528 35358 net.cpp:124] Setting up cls_gender
I1227 03:31:31.133539 35358 net.cpp:131] Top shape: 256 2 1 1 (512)
I1227 03:31:31.133543 35358 net.cpp:139] Memory required for data: 5265695744
I1227 03:31:31.133550 35358 layer_factory.hpp:77] Creating layer loss_gender
I1227 03:31:31.133559 35358 net.cpp:86] Creating Layer loss_gender
I1227 03:31:31.133565 35358 net.cpp:408] loss_gender <- cls_gender
I1227 03:31:31.133570 35358 net.cpp:408] loss_gender <- gender_label
I1227 03:31:31.133579 35358 net.cpp:382] loss_gender -> loss_gender
I1227 03:31:31.133591 35358 layer_factory.hpp:77] Creating layer loss_gender
I1227 03:31:31.133684 35358 net.cpp:124] Setting up loss_gender
I1227 03:31:31.133693 35358 net.cpp:131] Top shape: (1)
I1227 03:31:31.133697 35358 net.cpp:134]     with loss weight 1
I1227 03:31:31.133710 35358 net.cpp:139] Memory required for data: 5265695748
I1227 03:31:31.133715 35358 layer_factory.hpp:77] Creating layer cls_age
I1227 03:31:31.133728 35358 net.cpp:86] Creating Layer cls_age
I1227 03:31:31.133733 35358 net.cpp:408] cls_age <- pool6_pool6_0_split_1
I1227 03:31:31.133741 35358 net.cpp:382] cls_age -> cls_age
I1227 03:31:31.134021 35358 net.cpp:124] Setting up cls_age
I1227 03:31:31.134032 35358 net.cpp:131] Top shape: 256 7 1 1 (1792)
I1227 03:31:31.134035 35358 net.cpp:139] Memory required for data: 5265702916
I1227 03:31:31.134042 35358 layer_factory.hpp:77] Creating layer loss_age
I1227 03:31:31.134049 35358 net.cpp:86] Creating Layer loss_age
I1227 03:31:31.134053 35358 net.cpp:408] loss_age <- cls_age
I1227 03:31:31.134059 35358 net.cpp:408] loss_age <- age_label
I1227 03:31:31.134068 35358 net.cpp:382] loss_age -> loss_age
I1227 03:31:31.134076 35358 layer_factory.hpp:77] Creating layer loss_age
I1227 03:31:31.134158 35358 net.cpp:124] Setting up loss_age
I1227 03:31:31.134168 35358 net.cpp:131] Top shape: (1)
I1227 03:31:31.134172 35358 net.cpp:134]     with loss weight 1
I1227 03:31:31.134181 35358 net.cpp:139] Memory required for data: 5265702920
I1227 03:31:31.134184 35358 layer_factory.hpp:77] Creating layer cls_mask
I1227 03:31:31.134194 35358 net.cpp:86] Creating Layer cls_mask
I1227 03:31:31.134199 35358 net.cpp:408] cls_mask <- pool6_pool6_0_split_2
I1227 03:31:31.134208 35358 net.cpp:382] cls_mask -> cls_mask
I1227 03:31:31.134438 35358 net.cpp:124] Setting up cls_mask
I1227 03:31:31.134447 35358 net.cpp:131] Top shape: 256 2 1 1 (512)
I1227 03:31:31.134451 35358 net.cpp:139] Memory required for data: 5265704968
I1227 03:31:31.134459 35358 layer_factory.hpp:77] Creating layer loss_mask
I1227 03:31:31.134464 35358 net.cpp:86] Creating Layer loss_mask
I1227 03:31:31.134469 35358 net.cpp:408] loss_mask <- cls_mask
I1227 03:31:31.134474 35358 net.cpp:408] loss_mask <- mask_label
I1227 03:31:31.134483 35358 net.cpp:382] loss_mask -> loss_mask
I1227 03:31:31.134490 35358 layer_factory.hpp:77] Creating layer loss_mask
I1227 03:31:31.134572 35358 net.cpp:124] Setting up loss_mask
I1227 03:31:31.134578 35358 net.cpp:131] Top shape: (1)
I1227 03:31:31.134583 35358 net.cpp:134]     with loss weight 1
I1227 03:31:31.134589 35358 net.cpp:139] Memory required for data: 5265704972
I1227 03:31:31.134594 35358 layer_factory.hpp:77] Creating layer cls_glass
I1227 03:31:31.134608 35358 net.cpp:86] Creating Layer cls_glass
I1227 03:31:31.134613 35358 net.cpp:408] cls_glass <- pool6_pool6_0_split_3
I1227 03:31:31.134622 35358 net.cpp:382] cls_glass -> cls_glass
I1227 03:31:31.134878 35358 net.cpp:124] Setting up cls_glass
I1227 03:31:31.134889 35358 net.cpp:131] Top shape: 256 3 1 1 (768)
I1227 03:31:31.134897 35358 net.cpp:139] Memory required for data: 5265708044
I1227 03:31:31.134905 35358 layer_factory.hpp:77] Creating layer loss_glass
I1227 03:31:31.134912 35358 net.cpp:86] Creating Layer loss_glass
I1227 03:31:31.134918 35358 net.cpp:408] loss_glass <- cls_glass
I1227 03:31:31.134924 35358 net.cpp:408] loss_glass <- glass_label
I1227 03:31:31.134930 35358 net.cpp:382] loss_glass -> loss_glass
I1227 03:31:31.134938 35358 layer_factory.hpp:77] Creating layer loss_glass
I1227 03:31:31.135021 35358 net.cpp:124] Setting up loss_glass
I1227 03:31:31.135030 35358 net.cpp:131] Top shape: (1)
I1227 03:31:31.135033 35358 net.cpp:134]     with loss weight 1
I1227 03:31:31.135040 35358 net.cpp:139] Memory required for data: 5265708048
I1227 03:31:31.135046 35358 layer_factory.hpp:77] Creating layer cls_expre
I1227 03:31:31.135056 35358 net.cpp:86] Creating Layer cls_expre
I1227 03:31:31.135061 35358 net.cpp:408] cls_expre <- pool6_pool6_0_split_4
I1227 03:31:31.135069 35358 net.cpp:382] cls_expre -> cls_expre
I1227 03:31:31.135303 35358 net.cpp:124] Setting up cls_expre
I1227 03:31:31.135313 35358 net.cpp:131] Top shape: 256 2 1 1 (512)
I1227 03:31:31.135318 35358 net.cpp:139] Memory required for data: 5265710096
I1227 03:31:31.135324 35358 layer_factory.hpp:77] Creating layer loss_expre
I1227 03:31:31.135330 35358 net.cpp:86] Creating Layer loss_expre
I1227 03:31:31.135335 35358 net.cpp:408] loss_expre <- cls_expre
I1227 03:31:31.135340 35358 net.cpp:408] loss_expre <- expre_label
I1227 03:31:31.135349 35358 net.cpp:382] loss_expre -> loss_expre
I1227 03:31:31.135356 35358 layer_factory.hpp:77] Creating layer loss_expre
I1227 03:31:31.135447 35358 net.cpp:124] Setting up loss_expre
I1227 03:31:31.135453 35358 net.cpp:131] Top shape: (1)
I1227 03:31:31.135457 35358 net.cpp:134]     with loss weight 1
I1227 03:31:31.135464 35358 net.cpp:139] Memory required for data: 5265710100
I1227 03:31:31.135469 35358 layer_factory.hpp:77] Creating layer cls_block
I1227 03:31:31.135478 35358 net.cpp:86] Creating Layer cls_block
I1227 03:31:31.135483 35358 net.cpp:408] cls_block <- pool6_pool6_0_split_5
I1227 03:31:31.135493 35358 net.cpp:382] cls_block -> cls_block
I1227 03:31:31.135730 35358 net.cpp:124] Setting up cls_block
I1227 03:31:31.135740 35358 net.cpp:131] Top shape: 256 2 1 1 (512)
I1227 03:31:31.135745 35358 net.cpp:139] Memory required for data: 5265712148
I1227 03:31:31.135751 35358 layer_factory.hpp:77] Creating layer loss_block
I1227 03:31:31.135761 35358 net.cpp:86] Creating Layer loss_block
I1227 03:31:31.135766 35358 net.cpp:408] loss_block <- cls_block
I1227 03:31:31.135771 35358 net.cpp:408] loss_block <- block_label
I1227 03:31:31.135777 35358 net.cpp:382] loss_block -> loss_block
I1227 03:31:31.135785 35358 layer_factory.hpp:77] Creating layer loss_block
I1227 03:31:31.135865 35358 net.cpp:124] Setting up loss_block
I1227 03:31:31.135874 35358 net.cpp:131] Top shape: (1)
I1227 03:31:31.135877 35358 net.cpp:134]     with loss weight 1
I1227 03:31:31.135885 35358 net.cpp:139] Memory required for data: 5265712152
I1227 03:31:31.135890 35358 layer_factory.hpp:77] Creating layer cls_weizu
I1227 03:31:31.135898 35358 net.cpp:86] Creating Layer cls_weizu
I1227 03:31:31.135903 35358 net.cpp:408] cls_weizu <- pool6_pool6_0_split_6
I1227 03:31:31.135912 35358 net.cpp:382] cls_weizu -> cls_weizu
I1227 03:31:31.136158 35358 net.cpp:124] Setting up cls_weizu
I1227 03:31:31.136168 35358 net.cpp:131] Top shape: 256 2 1 1 (512)
I1227 03:31:31.136173 35358 net.cpp:139] Memory required for data: 5265714200
I1227 03:31:31.136179 35358 layer_factory.hpp:77] Creating layer loss_weizu
I1227 03:31:31.136188 35358 net.cpp:86] Creating Layer loss_weizu
I1227 03:31:31.136193 35358 net.cpp:408] loss_weizu <- cls_weizu
I1227 03:31:31.136198 35358 net.cpp:408] loss_weizu <- weizu_label
I1227 03:31:31.136204 35358 net.cpp:382] loss_weizu -> loss_weizu
…
  top: "age_label"
  top: "mask_label"
  top: "glass_label"
  top: "expre_label"
  top: "block_label"
  top: "weizu_label"
  include {
    phase: TEST
  }
  python_param {
    module: "myDataLayer"
    layer: "Data_Layer_train"
    param_str: "{\"mirror\": True, \"illumination\": True, \"crop_size\": (112,112), \"batch_size\": 128, \"max_rotate_angle\": 20,\"src_file\": \"/workspace/mnt/group/face/chendan/CelebA/code/mobilenet_attribute7/src/test.txt\", \"img_basepath\": \"/workspace/mnt/group/face/chendan/CelebA/code/eight-attributes/images/images_all_v2\"}"
  }
}
layer {
  name: "conv1"
  type: "Convolution"
  bottom: "data"
  top: "conv1"
  param {
    lr_mult: 1
    decay_mult: 1
  }
  convolution_param {
    num_output: 32
    bias_term: false
    pad: 1
    kernel_size: 3
    stride: 2
    weight_filler {
      type: "msra"
    }
  }
}
layer {
  name: "conv1/bn"
  type: "BatchNorm"
  bottom: "conv1"
  top: "conv1"
  batch_norm_param {
    use_global_stats: false
    eps: 1e-05
  }
}
layer {
  name: "conv1/scale"
  type: "Scale"
  bottom: "conv1"
  top: "conv1"
  param {
    lr_mult: 1
    decay_mult: 0
  }
  param {
    lr_mult: 1
    decay_mult: 0
  }
  scale_param {
    filler {
      value: 1
    }
    bias_term: true
    bias_filler {
      value: 0
    }
  }
}
layer {
  name: "relu1"
  type: "ReLU"
  bottom: "conv1"
  top: "conv1"
}
layer {
  name: "conv2_1/dw"
  type: "DepthwiseConvolution"
  bottom: "conv1"
  top: "conv2_1/dw"
  param {
    lr_mult: 1
    decay_mult: 1
  }
  convolution_param {
    num_output: 32
    bias_term: false
    pad: 1
    kernel_size: 3
    group: 32
    stride: 1
    weight_filler {
      type: "msra"
    }
    engine: CAFFE
  }
}
layer {
  name: "conv2_1/dw/bn"
  type: "BatchNorm"
  bottom: "conv2_1/dw"
  top: "conv2_1/dw"
  batch_norm_param {
    use_global_stats: false
    eps: 1e-05
  }
}
layer {
  name: "conv2_1/dw/scale"
  type: "Scale"
  bottom: "conv2_1/dw"
  top: "conv2_1/dw"
  param {
    lr_mult: 1
    decay_mult: 0
  }
  param {
    lr_mult: 1
    decay_mult: 0
  }
  scale_param {
    filler {
      value: 1
    }
    bias_term: true
    bias_filler {
      value: 0
    }
  }
}
layer {
  name: "relu2_1/dw"
  type: "ReLU"
  bottom: "conv2_1/dw"
  top: "conv2_1/dw"
}
layer {
  name: "conv2_1/sep"
  type: "Convolution"
  bottom: "conv2_1/dw"
  top: "conv2_1/sep"
  param {
    lr_mult: 1
    decay_mult: 1
  }
  convolution_param {
    num_output: 64
    bias_term: false
    pad: 0
    kernel_size: 1
    stride: 1
    weight_filler {
      type: "msra"
    }
  }
}
layer {
  name: "conv2_1/sep/bn"
  type: "BatchNorm"
  bottom: "conv2_1/sep"
  top: "conv2_1/sep"
  batch_norm_param {
    use_global_stats: false
    eps: 1e-05
  }
}
layer {
  name: "conv2_1/sep/scale"
  type: "Scale"
  bottom: "conv2_1/sep"
  top: "conv2_1/sep"
  param {
    lr_mult: 1
    decay_mult: 0
  }
  param {
    lr_mult: 1
    decay_mult: 0
  }
  scale_param {
    filler {
      value: 1
    }
    bias_term: true
    bias_filler {
      value: 0
    }
  }
}
layer {
  name: "relu2_1/sep"
  type: "ReLU"
  bottom: "conv2_1/sep"
  top: "conv2_1/sep"
}
layer {
  name: "conv2_2/dw"
  type: "DepthwiseConvolution"
  bottom: "conv2_1/sep"
  top: "conv2_2/dw"
  param {
    lr_mult: 1
    decay_mult: 1
  }
  convolution_param {
    num_output: 64
    bias_term: false
    pad: 1
    kernel_size: 3
    group: 64
    stride: 2
    weight_filler {
      type: "msra"
    }
    engine: CAFFE
  }
}
layer {
  name: "conv2_2/dw/bn"
  type: "BatchNorm"
  bottom: "conv2_2/dw"
  top: "conv2_2/dw"
  batch_norm_param {
    use_global_stats: false
    eps: 1e-05
  }
}
layer {
  name: "conv2_2/dw/scale"
  type: "Scale"
  bottom: "conv2_2/dw"
  top: "conv2_2/dw"
  param {
    lr_mult: 1
    decay_mult: 0
  }
  param {
    lr_mult: 1
    decay_mult: 0
  }
  scale_param {
    filler {
      value: 1
    }
    bias_term: true
    bias_filler {
      value: 0
    }
  }
}
layer {
  name: "relu2_2/dw"
  type: "ReLU"
  bottom: "conv2_2/dw"
  top: "conv2_2/dw"
}
layer {
  name: "conv2_2/sep"
  type: "Convolution"
  bottom: "conv2_2/dw"
  top: "conv2_2/sep"
  param {
    lr_mult: 1
    decay_mult: 1
  }
  convolution_param {
    num_output: 128
    bias_term: false
    pad: 0
    kernel_size: 1
    stride: 1
    weight_filler {
      type: "msra"
    }
  }
}
layer {
  name: "conv2_2/sep/bn"
  type: "BatchNorm"
  bottom: "conv2_2/sep"
  top: "conv2_2/sep"
  batch_norm_param {
    use_global_stats: false
    eps: 1e-05
  }
}
layer {
  name: "conv2_2/sep/scale"
  type: "Scale"
  bottom: "conv2_2/sep"
  top: "conv2_2/sep"
  param {
    lr_mult: 1
    decay_mult: 0
  }
  param {
    lr_mult: 1
    decay_mult: 0
  }
  scale_param {
    filler {
      value: 1
    }
    bias_term: true
    bias_filler {
      value: 0
    }
  }
}
layer {
  name: "relu2_2/sep"
  type: "ReLU"
  bottom: "conv2_2/sep"
  top: "conv2_2/sep"
}
layer {
  name: "conv3_1/dw"
  type: "DepthwiseConvolution"
  bottom: "conv2_2/sep"
  top: "conv3_1/dw"
  param {
    lr_mult: 1
    decay_mult: 1
  }
  convolution_param {
    num_output: 128
    bias_term: false
    pad: 1
    kernel_size: 3
    group: 128
    stride: 1
    weight_filler {
      type: "msra"
    }
    engine: CAFFE
  }
}
layer {
  name: "conv3_1/dw/bn"
  type: "BatchNorm"
  bottom: "conv3_1/dw"
  top: "conv3_1/dw"
  batch_norm_param {
    use_global_stats: false
    eps: 1e-05
  }
}
layer {
  name: "conv3_1/dw/scale"
  type: "Scale"
  bottom: "conv3_1/dw"
  top: "conv3_1/dw"
  param {
    lr_mult: 1
    decay_mult: 0
  }
  param {
    lr_mult: 1
    decay_mult: 0
  }
  scale_param {
    filler {
      value: 1
    }
    bias_term: true
    bias_filler {
      value: 0
    }
  }
}
layer {
  name: "relu3_1/dw"
  type: "ReLU"
  bottom: "conv3_1/dw"
  top: "conv3_1/dw"
}
layer {
  name: "conv3_1/sep"
  type: "Convolution"
  bottom: "conv3_1/dw"
  top: "conv3_1/sep"
  param {
    lr_mult: 1
    decay_mult: 1
  }
  convolution_param {
    num_output: 128
    bias_term: false
    pad: 0
    kernel_size: 1
    stride: 1
    weight_filler {
      type: "msra"
    }
  }
}
layer {
  name: "conv3_1/sep/bn"
  type: "BatchNorm"
  bottom: "conv3_1/sep"
  top: "conv3_1/sep"
  batch_norm_param {
    use_global_stats: false
    eps: 1e-05
  }
}
layer {
  name: "conv3_1/sep/scale"
  type: "Scale"
  bottom: "conv3_1/sep"
  top: "conv3_1/sep"
  param {
    lr_mult: 1
    decay_mult: 0
  }
  param {
    lr_mult: 1
    decay_mult: 0
  }
  scale_param {
    filler {
      value: 1
    }
    bias_term: true
    bias_filler {
      value: 0
    }
  }
}
layer {
  name: "relu3_1/sep"
  type: "ReLU"
  bottom: "conv3_1/sep"
  top: "conv3_1/sep"
}
layer {
  name: "conv3_2/dw"
  type: "Convolution"
  bottom: "conv3_1/sep"
  top: "conv3_2/dw"
  param {
    lr_mult: 1
    decay_mult: 1
  }
  convolution_param {
    num_output: 128
    bias_term: false
    pad: 1
    kernel_size: 3
    group: 128
    stride: 2
    weight_filler {
      type: "msra"
    }
    engine: CAFFE
  }
}
layer {
  name: "conv3_2/dw/bn"
  type: "BatchNorm"
  bottom: "conv3_2/dw"
  top: "conv3_2/dw"
  batch_norm_param {
    use_global_stats: false
    eps: 1e-05
  }
}
layer {
  name: "conv3_2/dw/scale"
  type: "Scale"
  bottom: "conv3_2/dw"
  top: "conv3_2/dw"
  param {
    lr_mult: 1
    decay_mult: 0
  }
  param {
    lr_mult: 1
    decay_mult: 0
  }
  scale_param {
    filler {
      value: 1
    }
    bias_term: true
    bias_filler {
      value: 0
    }
  }
}
layer {
  name: "relu3_2/dw"
  type: "ReLU"
  bottom: "conv3_2/dw"
  top: "conv3_2/dw"
}
layer {
  name: "conv3_2/sep"
  type: "Convolution"
  bottom: "conv3_2/dw"
  top: "conv3_2/sep"
  param {
    lr_mult: 1
    decay_mult: 1
  }
  convolution_param {
    num_output: 256
    bias_term: false
    pad: 0
    kernel_size: 1
    stride: 1
    weight_filler {
      type: "msra"
    }
  }
}
layer {
  name: "conv3_2/sep/bn"
  type: "BatchNorm"
  bottom: "conv3_2/sep"
  top: "conv3_2/sep"
  batch_norm_param {
    use_global_stats: false
    eps: 1e-05
  }
}
layer {
  name: "conv3_2/sep/scale"
  type: "Scale"
  bottom: "conv3_2/sep"
  top: "conv3_2/sep"
  param {
    lr_mult: 1
    decay_mult: 0
  }
  param {
    lr_mult: 1
    decay_mult: 0
  }
  scale_param {
    filler {
      value: 1
    }
    bias_term: true
    bias_filler {
      value: 0
    }
  }
}
layer {
  name: "relu3_2/sep"
  type: "ReLU"
  bottom: "conv3_2/sep"
  top: "conv3_2/sep"
}
layer {
  name: "conv4_1/dw"
  type: "DepthwiseConvolution"
  bottom: "conv3_2/sep"
  top: "conv4_1/dw"
  param {
    lr_mult: 1
    decay_mult: 1
  }
  convolution_param {
    num_output: 256
    bias_term: false
    pad: 1
    kernel_size: 3
    group: 256
    stride: 1
    weight_filler {
      type: "msra"
    }
    engine: CAFFE
  }
}
layer {
  name: "conv4_1/dw/bn"
  type: "BatchNorm"
  bottom: "conv4_1/dw"
  top: "conv4_1/dw"
  batch_norm_param {
    use_global_stats: false
    eps: 1e-05
  }
}
layer {
  name: "conv4_1/dw/scale"
  type: "Scale"
  bottom: "conv4_1/dw"
  top: "conv4_1/dw"
  param {
    lr_mult: 1
    decay_mult: 0
  }
  param {
    lr_mult: 1
    decay_mult: 0
  }
  scale_param {
    filler {
      value: 1
    }
    bias_term: true
    bias_filler {
      value: 0
    }
  }
}
layer {
  name: "relu4_1/dw"
  type: "ReLU"
  bottom: "conv4_1/dw"
  top: "conv4_1/dw"
}
layer {
  name: "conv4_1/sep"
  type: "Convolution"
  bottom: "conv4_1/dw"
  top: "conv4_1/sep"
  param {
    lr_mult: 1
    decay_mult: 1
  }
  convolution_param {
    num_output: 256
    bias_term: false
    pad: 0
    kernel_size: 1
    stride: 1
    weight_filler {
      type: "msra"
    }
  }
}
layer {
  name: "conv4_1/sep/bn"
  type: "BatchNorm"
  bottom: "conv4_1/sep"
  top: "conv4_1/sep"
  batch_norm_param {
    use_global_stats: false
    eps: 1e-05
  }
}
layer {
  name: "conv4_1/sep/scale"
  type: "Scale"
  bottom: "conv4_1/sep"
  top: "conv4_1/sep"
  param {
    lr_mult: 1
    decay_mult: 0
  }
  param {
    lr_mult: 1
    decay_mult: 0
  }
  scale_param {
    filler {
      value: 1
    }
    bias_term: true
    bias_filler {
      value: 0
    }
  }
}
layer {
  name: "relu4_1/sep"
  type: "ReLU"
  bottom: "conv4_1/sep"
  top: "conv4_1/sep"
}
layer {
  name: "conv4_2/dw"
  type: "DepthwiseConvolution"
  bottom: "conv4_1/sep"
  top: "conv4_2/dw"
  param {
    lr_mult: 1
    decay_mult: 1
  }
  convolution_param {
    num_output: 256
    bias_term: false
    pad: 1
    kernel_size: 3
    group: 256
    stride: 2
    weight_filler {
      type: "msra"
    }
    engine: CAFFE
  }
}
layer {
  name: "conv4_2/dw/bn"
  type: "BatchNorm"
  bottom: "conv4_2/dw"
  top: "conv4_2/dw"
  batch_norm_param {
    use_global_stats: false
    eps: 1e-05
  }
}
layer {
  name: "conv4_2/dw/scale"
  type: "Scale"
  bottom: "conv4_2/dw"
  top: "conv4_2/dw"
  param {
    lr_mult: 1
    decay_mult: 0
  }
  param {
    lr_mult: 1
    decay_mult: 0
  }
  scale_param {
    filler {
      value: 1
    }
    bias_term: true
    bias_filler {
      value: 0
    }
  }
}
layer {
  name: "relu4_2/dw"
  type: "ReLU"
  bottom: "conv4_2/dw"
  top: "conv4_2/dw"
}
layer {
  name: "conv4_2/sep"
  type: "Convolution"
  bottom: "conv4_2/dw"
  top: "conv4_2/sep"
  param {
    lr_mult: 1
    decay_mult: 1
  }
  convolution_param {
    num_output: 512
    bias_term: false
    pad: 0
    kernel_size: 1
    stride: 1
    weight_filler {
      type: "msra"
    }
  }
}
layer {
  name: "conv4_2/sep/bn"
  type: "BatchNorm"
  bottom: "conv4_2/sep"
  top: "conv4_2/sep"
  batch_norm_param {
    use_global_stats: false
    eps: 1e-05
  }
}
layer {
  name: "conv4_2/sep/scale"
  type: "Scale"
  bottom: "conv4_2/sep"
  top: "conv4_2/sep"
  param {
    lr_mult: 1
    decay_mult: 0
  }
  param {
    lr_mult: 1
    decay_mult: 0
  }
  scale_param {
    filler {
      value: 1
    }
    bias_term: true
    bias_filler {
      value: 0
    }
  }
}
layer {
  name: "relu4_2/sep"
  type: "ReLU"
  bottom: "conv4_2/sep"
  top: "conv4_2/sep"
}
layer {
  name: "conv5_1/dw"
  type: "DepthwiseConvolution"
  bottom: "conv4_2/sep"
  top: "conv5_1/dw"
  param {
    lr_mult: 1
    decay_mult: 1
  }
  convolution_param {
    num_output: 512
    bias_term: false
    pad: 1
    kernel_size: 3
    group: 512
    stride: 1
    weight_filler {
      type: "msra"
    }
    engine: CAFFE
  }
}
layer {
  name: "conv5_1/dw/bn"
  type: "BatchNorm"
  bottom: "conv5_1/dw"
  top: "conv5_1/dw"
  batch_norm_param {
    use_global_stats: false
    eps: 1e-05
  }
}
layer {
  name: "conv5_1/dw/scale"
  type: "Scale"
  bottom: "conv5_1/dw"
  top: "conv5_1/dw"
  param {
    lr_mult: 1
    decay_mult: 0
  }
  param {
    lr_mult: 1
    decay_mult: 0
  }
  scale_param {
    filler {
      value: 1
    }
    bias_term: true
    bias_filler {
      value: 0
    }
  }
}
layer {
  name: "relu5_1/dw"
  type: "ReLU"
  bottom: "conv5_1/dw"
  top: "conv5_1/dw"
}
layer {
  name: "conv5_1/sep"
  type: "Convolution"
  bottom: "conv5_1/dw"
  top: "conv5_1/sep"
  param {
    lr_mult: 1
    decay_mult: 1
  }
  convolution_param {
    num_output: 512
    bias_term: false
    pad: 0
    kernel_size: 1
    stride: 1
    weight_filler {
      type: "msra"
    }
  }
}
layer {
  name: "conv5_1/sep/bn"
  type: "BatchNorm"
  bottom: "conv5_1/sep"
  top: "conv5_1/sep"
  batch_norm_param {
    use_global_stats: false
    eps: 1e-05
  }
}
layer {
  name: "conv5_1/sep/scale"
  type: "Scale"
  bottom: "conv5_1/sep"
  top: "conv5_1/sep"
  param {
    lr_mult: 1
    decay_mult: 0
  }
  param {
    lr_mult: 1
    decay_mult: 0
  }
  scale_param {
    filler {
      value: 1
    }
    bias_term: true
    bias_filler {
      value: 0
    }
  }
}
layer {
  name: "relu5_1/sep"
  type: "ReLU"
  bottom: "conv5_1/sep"
  top: "conv5_1/sep"
}
layer {
  name: "conv5_2/dw"
  type: "DepthwiseConvolution"
  bottom: "conv5_1/sep"
  top: "conv5_2/dw"
  param {
    lr_mult: 1
    decay_mult: 1
  }
  convolution_param {
    num_output: 512
    bias_term: false
    pad: 1
    kernel_size: 3
    group: 512
    stride: 1
    weight_filler {
      type: "msra"
    }
    engine: CAFFE
  }
}
layer {
  name: "conv5_2/dw/bn"
  type: "BatchNorm"
  bottom: "conv5_2/dw"
  top: "conv5_2/dw"
  batch_norm_param {
    use_global_stats: false
    eps: 1e-05
  }
}
layer {
  name: "conv5_2/dw/scale"
  type: "Scale"
  bottom: "conv5_2/dw"
  top: "conv5_2/dw"
  param {
    lr_mult: 1
    decay_mult: 0
  }
  param {
    lr_mult: 1
    decay_mult: 0
  }
  scale_param {
    filler {
      value: 1
    }
    bias_term: true
    bias_filler {
      value: 0
    }
  }
}
layer {
  name: "relu5_2/dw"
  type: "ReLU"
  bottom: "conv5_2/dw"
  top: "conv5_2/dw"
}
layer {
  name: "conv5_2/sep"
  type: "Convolution"
  bottom: "conv5_2/dw"
  top: "conv5_2/sep"
  param {
    lr_mult: 1
    decay_mult: 1
  }
  convolution_param {
    num_output: 512
    bias_term: false
    pad: 0
    kernel_size: 1
    stride: 1
    weight_filler {
      type: "msra"
    }
  }
}
layer {
  name: "conv5_2/sep/bn"
  type: "BatchNorm"
  bottom: "conv5_2/sep"
  top: "conv5_2/sep"
  batch_norm_param {
    use_global_stats: false
    eps: 1e-05
  }
}
layer {
  name: "conv5_2/sep/scale"
  type: "Scale"
  bottom: "conv5_2/sep"
  top: "conv5_2/sep"
  param {
    lr_mult: 1
    decay_mult: 0
  }
  param {
    lr_mult: 1
    decay_mult: 0
  }
  scale_param {
    filler {
      value: 1
    }
    bias_term: true
    bias_filler {
      value: 0
    }
  }
}
layer {
  name: "relu5_2/sep"
  type: "ReLU"
  bottom: "conv5_2/sep"
  top: "conv5_2/sep"
}
layer {
  name: "conv5_3/dw"
  type: "DepthwiseConvolution"
  bottom: "conv5_2/sep"
  top: "conv5_3/dw"
  param {
    lr_mult: 1
    decay_mult: 1
  }
  convolution_param {
    num_output: 512
    bias_term: false
    pad: 1
    kernel_size: 3
    group: 512
    stride: 1
    weight_filler {
      type: "msra"
    }
    engine: CAFFE
  }
}
layer {
  name: "conv5_3/dw/bn"
  type: "BatchNorm"
  bottom: "conv5_3/dw"
  top: "conv5_3/dw"
  batch_norm_param {
    use_global_stats: false
    eps: 1e-05
  }
}
layer {
  name: "conv5_3/dw/scale"
  type: "Scale"
  bottom: "conv5_3/dw"
  top: "conv5_3/dw"
  param {
    lr_mult: 1
    decay_mult: 0
  }
  param {
    lr_mult: 1
    decay_mult: 0
  }
  scale_param {
    filler {
      value: 1
    }
    bias_term: true
    bias_filler {
      value: 0
    }
  }
}
layer {
  name: "relu5_3/dw"
  type: "ReLU"
  bottom: "conv5_3/dw"
  top: "conv5_3/dw"
}
layer {
  name: "conv5_3/sep"
  type: "Convolution"
  bottom: "conv5_3/dw"
  top: "conv5_3/sep"
  param {
    lr_mult: 1
    decay_mult: 1
  }
  convolution_param {
    num_output: 512
    bias_term: false
    pad: 0
    kernel_size: 1
    stride: 1
    weight_filler {
      type: "msra"
    }
  }
}
layer {
  name: "conv5_3/sep/bn"
  type: "BatchNorm"
  bottom: "conv5_3/sep"
  top: "conv5_3/sep"
  batch_norm_param {
    use_global_stats: false
    eps: 1e-05
  }
}
layer {
  name: "conv5_3/sep/scale"
  type: "Scale"
  bottom: "conv5_3/sep"
  top: "conv5_3/sep"
  param {
    lr_mult: 1
    decay_mult: 0
  }
  param {
    lr_mult: 1
    decay_mult: 0
  }
  scale_param {
    filler {
      value: 1
    }
    bias_term: true
    bias_filler {
      value: 0
    }
  }
}
layer {
  name: "relu5_3/sep"
  type: "ReLU"
  bottom: "conv5_3/sep"
  top: "conv5_3/sep"
}
layer {
  name: "conv5_4/dw"
  type: "DepthwiseConvolution"
  bottom: "conv5_3/sep"
  top: "conv5_4/dw"
  param {
    lr_mult: 1
    decay_mult: 1
  }
  convolution_param {
    num_output: 512
    bias_term: false
    pad: 1
    kernel_size: 3
    group: 512
    stride: 1
    weight_filler {
      type: "msra"
    }
    engine: CAFFE
  }
}
layer {
  name: "conv5_4/dw/bn"
  type: "BatchNorm"
  bottom: "conv5_4/dw"
  top: "conv5_4/dw"
  batch_norm_param {
    use_global_stats: false
    eps: 1e-05
  }
}
layer {
  name: "conv5_4/dw/scale"
  type: "Scale"
  bottom: "conv5_4/dw"
  top: "conv5_4/dw"
  param {
    lr_mult: 1
    decay_mult: 0
  }
  param {
    lr_mult: 1
    decay_mult: 0
  }
  scale_param {
    filler {
      value: 1
    }
    bias_term: true
    bias_filler {
      value: 0
    }
  }
}
layer {
  name: "relu5_4/dw"
  type: "ReLU"
  bottom: "conv5_4/dw"
  top: "conv5_4/dw"
}
layer {
  name: "conv5_4/sep"
  type: "Convolution"
  bottom: "conv5_4/dw"
  top: "conv5_4/sep"
  param {
    lr_mult: 1
    decay_mult: 1
  }
  convolution_param {
    num_output: 512
    bias_term: false
    pad: 0
    kernel_size: 1
    stride: 1
    weight_filler {
      type: "msra"
    }
  }
}
layer {
  name: "conv5_4/sep/bn"
  type: "BatchNorm"
  bottom: "conv5_4/sep"
  top: "conv5_4/sep"
  batch_norm_param {
    use_global_stats: false
    eps: 1e-05
  }
}
layer {
  name: "conv5_4/sep/scale"
  type: "Scale"
  bottom: "conv5_4/sep"
  top: "conv5_4/sep"
  param {
    lr_mult: 1
    decay_mult: 0
  }
  param {
    lr_mult: 1
    decay_mult: 0
  }
  scale_param {
    filler {
      value: 1
    }
    bias_term: true
    bias_filler {
      value: 0
    }
  }
}
layer {
  name: "relu5_4/sep"
  type: "ReLU"
  bottom: "conv5_4/sep"
  top: "conv5_4/sep"
}
layer {
  name: "conv5_5/dw"
  type: "DepthwiseConvolution"
  bottom: "conv5_4/sep"
  top: "conv5_5/dw"
  param {
    lr_mult: 1
    decay_mult: 1
  }
  convolution_param {
    num_output: 512
    bias_term: false
    pad: 1
    kernel_size: 3
    group: 512
    stride: 1
    weight_filler {
      type: "msra"
    }
    engine: CAFFE
  }
}
layer {
  name: "conv5_5/dw/bn"
  type: "BatchNorm"
  bottom: "conv5_5/dw"
  top: "conv5_5/dw"
  batch_norm_param {
    use_global_stats: false
    eps: 1e-05
  }
}
layer {
  name: "conv5_5/dw/scale"
  type: "Scale"
  bottom: "conv5_5/dw"
  top: "conv5_5/dw"
  param {
    lr_mult: 1
    decay_mult: 0
  }
  param {
    lr_mult: 1
    decay_mult: 0
  }
  scale_param {
    filler {
      value: 1
    }
    bias_term: true
    bias_filler {
      value: 0
    }
  }
}
layer {
  name: "relu5_5/dw"
  type: "ReLU"
  bottom: "conv5_5/dw"
  top: "conv5_5/dw"
}
layer {
  name: "conv5_5/sep"
  type: "Convolution"
  bottom: "conv5_5/dw"
  top: "conv5_5/sep"
  param {
    lr_mult: 1
    decay_mult: 1
  }
  convolution_param {
    num_output: 512
    bias_term: false
    pad: 0
    kernel_size: 1
    stride: 1
    weight_filler {
      type: "msra"
    }
  }
}
layer {
  name: "conv5_5/sep/bn"
  type: "BatchNorm"
  bottom: "conv5_5/sep"
  top: "conv5_5/sep"
  batch_norm_param {
    use_global_stats: false
    eps: 1e-05
  }
}
layer {
  name: "conv5_5/sep/scale"
  type: "Scale"
  bottom: "conv5_5/sep"
  top: "conv5_5/sep"
  param {
    lr_mult: 1
    decay_mult: 0
  }
  param {
    lr_mult: 1
    decay_mult: 0
  }
  scale_param {
    filler {
      value: 1
    }
    bias_term: true
    bias_filler {
      value: 0
    }
  }
}
layer {
  name: "relu5_5/sep"
  type: "ReLU"
  bottom: "conv5_5/sep"
  top: "conv5_5/sep"
}
layer {
  name: "conv5_6/dw"
  type: "DepthwiseConvolution"
  bottom: "conv5_5/sep"
  top: "conv5_6/dw"
  param {
    lr_mult: 1
    decay_mult: 1
  }
  convolution_param {
    num_output: 512
    bias_term: false
    pad: 1
    kernel_size: 3
    group: 512
    stride: 2
    weight_filler {
      type: "msra"
    }
    engine: CAFFE
  }
}
layer {
  name: "conv5_6/dw/bn"
  type: "BatchNorm"
  bottom: "conv5_6/dw"
  top: "conv5_6/dw"
  batch_norm_param {
    use_global_stats: false
    eps: 1e-05
  }
}
layer {
  name: "conv5_6/dw/scale"
  type: "Scale"
  bottom: "conv5_6/dw"
  top: "conv5_6/dw"
  param {
    lr_mult: 1
    decay_mult: 0
  }
  param {
    lr_mult: 1
    decay_mult: 0
  }
  scale_param {
    filler {
      value: 1
    }
    bias_term: true
    bias_filler {
      value: 0
    }
  }
}
layer {
  name: "relu5_6/dw"
  type: "ReLU"
  bottom: "conv5_6/dw"
  top: "conv5_6/dw"
}
layer {
  name: "conv5_6/sep"
  type: "Convolution"
  bottom: "conv5_6/dw"
  top: "conv5_6/sep"
  param {
    lr_mult: 1
    decay_mult: 1
  }
  convolution_param {
    num_output: 1024
    bias_term: false
    pad: 0
    kernel_size: 1
    stride: 1
    weight_filler {
      type: "msra"
    }
  }
}
layer {
  name: "conv5_6/sep/bn"
  type: "BatchNorm"
  bottom: "conv5_6/sep"
  top: "conv5_6/sep"
  batch_norm_param {
    use_global_stats: false
    eps: 1e-05
  }
}
layer {
  name: "conv5_6/sep/scale"
  type: "Scale"
  bottom: "conv5_6/sep"
  top: "conv5_6/sep"
  param {
    lr_mult: 1
    decay_mult: 0
  }
  param {
    lr_mult: 1
    decay_mult: 0
  }
  scale_param {
    filler {
      value: 1
    }
    bias_term: true
    bias_filler {
      value: 0
    }
  }
}
layer {
  name: "relu5_6/sep"
  type: "ReLU"
  bottom: "conv5_6/sep"
  top: "conv5_6/sep"
}
layer {
  name: "conv6/dw"
  type: "DepthwiseConvolution"
  bottom: "conv5_6/sep"
  top: "conv6/dw"
  param {
    lr_mult: 1
    decay_mult: 1
  }
  convolution_param {
    num_output: 1024
    bias_term: false
    pad: 1
    kernel_size: 3
    group: 1024
    stride: 1
    weight_filler {
      type: "msra"
    }
    engine: CAFFE
  }
}
layer {
  name: "conv6/dw/bn"
  type: "BatchNorm"
  bottom: "conv6/dw"
  top: "conv6/dw"
  batch_norm_param {
    use_global_stats: false
    eps: 1e-05
  }
}
layer {
  name: "conv6/dw/scale"
  type: "Scale"
  bottom: "conv6/dw"
  top: "conv6/dw"
  param {
    lr_mult: 1
    decay_mult: 0
  }
  param {
    lr_mult: 1
    decay_mult: 0
  }
  scale_param {
    filler {
      value: 1
    }
    bias_term: true
    bias_filler {
      value: 0
    }
  }
}
layer {
  name: "relu6/dw"
  type: "ReLU"
  bottom: "conv6/dw"
  top: "conv6/dw"
}
layer {
  name: "conv6/sep"
  type: "Convolution"
  bottom: "conv6/dw"
  top: "conv6/sep"
  param {
    lr_mult: 1
    decay_mult: 1
  }
  convolution_param {
    num_output: 1024
    bias_term: false
    pad: 0
    kernel_size: 1
    stride: 1
    weight_filler {
      type: "msra"
    }
  }
}
layer {
  name: "conv6/sep/bn"
  type: "BatchNorm"
  bottom: "conv6/sep"
  top: "conv6/sep"
  batch_norm_param {
    use_global_stats: false
    eps: 1e-05
  }
}
layer {
  name: "conv6/sep/scale"
  type: "Scale"
  bottom: "conv6/sep"
  top: "conv6/sep"
  param {
    lr_mult: 1
    decay_mult: 0
  }
  param {
    lr_mult: 1
    decay_mult: 0
  }
  scale_param {
    filler {
      value: 1
    }
    bias_term: true
    bias_filler {
      value: 0
    }
  }
}
layer {
  name: "relu6/sep"
  type: "ReLU"
  bottom: "conv6/sep"
  top: "conv6/sep"
}
layer {
  name: "pool6"
  type: "Pooling"
  bottom: "conv6/sep"
  top: "pool6"
  pooling_param {
    pool: AVE
    global_pooling: true
  }
}
layer {
  name: "cls_gender"
  type: "Convolution"
  bottom: "pool6"
  top: "cls_gender"
  param {
    lr_mult: 1
    decay_mult: 1
  }
  param {
    lr_mult: 2
    decay_mult: 0
  }
  convolution_param {
    num_output: 2
    kernel_size: 1
    weight_filler {
      type: "msra"
    }
    bias_filler {
      type: "constant"
      value: 0
    }
  }
}
layer {
  name: "loss_gender"
  type: "SoftmaxWithLoss"
  bottom: "cls_gender"
  bottom: "gender_label"
  top: "loss_gender"
}
layer {
  name: "gender_accuracy"
  type: "Accuracy"
  bottom: "cls_gender"
  bottom: "gender_label"
  top: "gender_accuracy"
  include {
    phase: TEST
  }
}
layer {
  name: "cls_age"
  type: "Convolution"
  bottom: "pool6"
  top: "cls_age"
  param {
    lr_mult: 1
    decay_mult: 1
  }
  param {
    lr_mult: 2
    decay_mult: 0
  }
  convolution_param {
    num_output: 7
    kernel_size: 1
    weight_filler {
      type: "msra"
    }
    bias_filler {
      type: "constant"
      value: 0
    }
  }
}
layer {
  name: "loss_age"
  type: "SoftmaxWithLoss"
  bottom: "cls_age"
  bottom: "age_label"
  top: "loss_age"
}
layer {
  name: "age_accuracy"
  type: "Accuracy"
  bottom: "cls_age"
  bottom: "age_label"
  top: "age_accuracy"
  include {
    phase: TEST
  }
}
layer {
  name: "cls_mask"
  type: "Convolution"
  bottom: "pool6"
  top: "cls_mask"
  param {
    lr_mult: 1
    decay_mult: 1
  }
  param {
    lr_mult: 2
    decay_mult: 0
  }
  convolution_param {
    num_output: 2
    kernel_size: 1
    weight_filler {
      type: "msra"
    }
    bias_filler {
      type: "constant"
      value: 0
    }
  }
}
layer {
  name: "loss_mask"
  type: "SoftmaxWithLoss"
  bottom: "cls_mask"
  bottom: "mask_label"
  top: "loss_mask"
}
layer {
  name: "mask_accuracy"
  type: "Accuracy"
  bottom: "cls_mask"
  bottom: "mask_label"
  top: "mask_accuracy"
  include {
    phase: TEST
  }
}
layer {
  name: "cls_glass"
  type: "Convolution"
  bottom: "pool6"
  top: "cls_glass"
  param {
    lr_mult: 1
    decay_mult: 1
  }
  param {
    lr_mult: 2
    decay_mult: 0
  }
  convolution_param {
    num_output: 3
    kernel_size: 1
    weight_filler {
      type: "msra"
    }
    bias_filler {
      type: "constant"
      value: 0
    }
  }
}
layer {
  name: "loss_glass"
  type: "SoftmaxWithLoss"
  bottom: "cls_glass"
  bottom: "glass_label"
  top: "loss_glass"
}
layer {
  name: "glass_accuracy"
  type: "Accuracy"
  bottom: "cls_glass"
  bottom: "glass_label"
  top: "glass_accuracy"
  include {
    phase: TEST
  }
}
layer {
  name: "cls_expre"
  type: "Convolution"
  bottom: "pool6"
  top: "cls_expre"
  param {
    lr_mult: 1
    decay_mult: 1
  }
  param {
    lr_mult: 2
    decay_mult: 0
  }
  convolution_param {
    num_output: 2
    kernel_size: 1
    weight_filler {
      type: "msra"
    }
    bias_filler {
      type: "constant"
      value: 0
    }
  }
}
layer {
  name: "loss_expre"
  type: "SoftmaxWithLoss"
  bottom: "cls_expre"
  bottom: "expre_label"
  top: "loss_expre"
}
layer {
  name: "expre_accuracy"
  type: "Accuracy"
  bottom: "cls_expre"
  bottom: "expre_label"
  top: "expre_accuracy"
  include {
    phase: TEST
  }
}
layer {
  name: "cls_block"
  type: "Convolution"
  bottom: "pool6"
  top: "cls_block"
  param {
    lr_mult: 1
    decay_mult: 1
  }
  param {
    lr_mult: 2
    decay_mult: 0
  }
  convolution_param {
    num_output: 2
    kernel_size: 1
    weight_filler {
      type: "msra"
    }
    bias_filler {
      type: "constant"
      value: 0
    }
  }
}
layer {
  name: "loss_block"
  type: "SoftmaxWithLoss"
  bottom: "cls_block"
  bottom: "block_label"
  top: "loss_block"
}
layer {
  name: "block_accuracy"
  type: "Accuracy"
  bottom: "cls_block"
  bottom: "block_label"
  top: "block_accuracy"
  include {
    phase: TEST
  }
}
layer {
  name: "cls_weizu"
  type: "Convolution"
  bottom: "pool6"
  top: "cls_weizu"
  param {
    lr_mult: 1
    decay_mult: 1
  }
  param {
    lr_mult: 2
    decay_mult: 0
  }
  convolution_param {
    num_output: 2
    kernel_size: 1
    weight_filler {
      type: "msra"
    }
    bias_filler {
      type: "constant"
      value: 0
    }
  }
}
layer {
  name: "loss_weizu"
  type: "SoftmaxWithLoss"
  bottom: "cls_weizu"
  bottom: "weizu_label"
  top: "loss_weizu"
}
layer {
  name: "weizu_accuracy"
  type: "Accuracy"
  bottom: "cls_weizu"
  bottom: "weizu_label"
  top: "weizu_accuracy"
  include {
    phase: TEST
  }
}
I1227 03:31:31.139631 35358 layer_factory.hpp:77] Creating layer data
I1227 03:31:31.139688 35358 net.cpp:86] Creating Layer data
I1227 03:31:31.139698 35358 net.cpp:382] data -> data
I1227 03:31:31.139708 35358 net.cpp:382] data -> gender_label
I1227 03:31:31.139715 35358 net.cpp:382] data -> age_label
I1227 03:31:31.139724 35358 net.cpp:382] data -> mask_label
I1227 03:31:31.139731 35358 net.cpp:382] data -> glass_label
I1227 03:31:31.139739 35358 net.cpp:382] data -> expre_label
I1227 03:31:31.139746 35358 net.cpp:382] data -> block_label
I1227 03:31:31.139753 35358 net.cpp:382] data -> weizu_label
I1227 03:31:31.154229 35358 net.cpp:124] Setting up data
I1227 03:31:31.154247 35358 net.cpp:131] Top shape: 128 3 112 112 (4816896)
I1227 03:31:31.154254 35358 net.cpp:131] Top shape: 128 1 (128)
I1227 03:31:31.154259 35358 net.cpp:131] Top shape: 128 1 (128)
I1227 03:31:31.154264 35358 net.cpp:131] Top shape: 128 1 (128)
I1227 03:31:31.154269 35358 net.cpp:131] Top shape: 128 1 (128)
I1227 03:31:31.154274 35358 net.cpp:131] Top shape: 128 1 (128)
I1227 03:31:31.154278 35358 net.cpp:131] Top shape: 128 1 (128)
I1227 03:31:31.154284 35358 net.cpp:131] Top shape: 128 1 (128)
I1227 03:31:31.154287 35358 net.cpp:139] Memory required for data: 19271168
I1227 03:31:31.154292 35358 layer_factory.hpp:77] Creating layer gender_label_data_1_split
I1227 03:31:31.154301 35358 net.cpp:86] Creating Layer gender_label_data_1_split
I1227 03:31:31.154306 35358 net.cpp:408] gender_label_data_1_split <- gender_label
I1227 03:31:31.154314 35358 net.cpp:382] gender_label_data_1_split -> gender_label_data_1_split_0
I1227 03:31:31.154323 35358 net.cpp:382] gender_label_data_1_split -> gender_label_data_1_split_1
I1227 03:31:31.154357 35358 net.cpp:124] Setting up gender_label_data_1_split
I1227 03:31:31.154366 35358 net.cpp:131] Top shape: 128 1 (128)
I1227 03:31:31.154371 35358 net.cpp:131] Top shape: 128 1 (128)
I1227 03:31:31.154374 35358 net.cpp:139] Memory required for data: 19272192
I1227 03:31:31.154378 35358 layer_factory.hpp:77] Creating layer age_label_data_2_split
I1227 03:31:31.154386 35358 net.cpp:86] Creating Layer age_label_data_2_split
I1227 03:31:31.154389 35358 net.cpp:408] age_label_data_2_split <- age_label
I1227 03:31:31.154395 35358 net.cpp:382] age_label_data_2_split -> age_label_data_2_split_0
I1227 03:31:31.154402 35358 net.cpp:382] age_label_data_2_split -> age_label_data_2_split_1
I1227 03:31:31.154433 35358 net.cpp:124] Setting up age_label_data_2_split
I1227 03:31:31.154439 35358 net.cpp:131] Top shape: 128 1 (128)
I1227 03:31:31.154444 35358 net.cpp:131] Top shape: 128 1 (128)
I1227 03:31:31.154448 35358 net.cpp:139] Memory required for data: 19273216
I1227 03:31:31.154453 35358 layer_factory.hpp:77] Creating layer mask_label_data_3_split
I1227 03:31:31.154458 35358 net.cpp:86] Creating Layer mask_label_data_3_split
I1227 03:31:31.154461 35358 net.cpp:408] mask_label_data_3_split <- mask_label
I1227 03:31:31.154467 35358 net.cpp:382] mask_label_data_3_split -> mask_label_data_3_split_0
I1227 03:31:31.154475 35358 net.cpp:382] mask_label_data_3_split -> mask_label_data_3_split_1
I1227 03:31:31.154515 35358 net.cpp:124] Setting up mask_label_data_3_split
I1227 03:31:31.154523 35358 net.cpp:131] Top shape: 128 1 (128)
I1227 03:31:31.154528 35358 net.cpp:131] Top shape: 128 1 (128)
I1227 03:31:31.154532 35358 net.cpp:139] Memory required for data: 19274240
I1227 03:31:31.154536 35358 layer_factory.hpp:77] Creating layer glass_label_data_4_split
I1227 03:31:31.154546 35358 net.cpp:86] Creating Layer glass_label_data_4_split
I1227 03:31:31.154551 35358 net.cpp:408] glass_label_data_4_split <- glass_label
I1227 03:31:31.154558 35358 net.cpp:382] glass_label_data_4_split -> glass_label_data_4_split_0
I1227 03:31:31.154570 35358 net.cpp:382] glass_label_data_4_split -> glass_label_data_4_split_1
I1227 03:31:31.154610 35358 net.cpp:124] Setting up glass_label_data_4_split
I1227 03:31:31.154618 35358 net.cpp:131] Top shape: 128 1 (128)
I1227 03:31:31.154623 35358 net.cpp:131] Top shape: 128 1 (128)
I1227 03:31:31.154628 35358 net.cpp:139] Memory required for data: 19275264
I1227 03:31:31.154631 35358 layer_factory.hpp:77] Creating layer expre_label_data_5_split
I1227 03:31:31.154639 35358 net.cpp:86] Creating Layer expre_label_data_5_split
I1227 03:31:31.154644 35358 net.cpp:408] expre_label_data_5_split <- expre_label
I1227 03:31:31.154649 35358 net.cpp:382] expre_label_data_5_split -> expre_label_data_5_split_0
I1227 03:31:31.154661 35358 net.cpp:382] expre_label_data_5_split -> expre_label_data_5_split_1
I1227 03:31:31.154695 35358 net.cpp:124] Setting up expre_label_data_5_split
I1227 03:31:31.154702 35358 net.cpp:131] Top shape: 128 1 (128)
I1227 03:31:31.154711 35358 net.cpp:131] Top shape: 128 1 (128)
I1227 03:31:31.154716 35358 net.cpp:139] Memory required for data: 19276288
I1227 03:31:31.154719 35358 layer_factory.hpp:77] Creating layer block_label_data_6_split
I1227 03:31:31.154727 35358 net.cpp:86] Creating Layer block_label_data_6_split
I1227 03:31:31.154732 35358 net.cpp:408] block_label_data_6_split <- block_label
I1227 03:31:31.154738 35358 net.cpp:382] block_label_data_6_split -> block_label_data_6_split_0
I1227 03:31:31.154747 35358 net.cpp:382] block_label_data_6_split -> block_label_data_6_split_1
I1227 03:31:31.154780 35358 net.cpp:124] Setting up block_label_data_6_split
I1227 03:31:31.154788 35358 net.cpp:131] Top shape: 128 1 (128)
I1227 03:31:31.154793 35358 net.cpp:131] Top shape: 128 1 (128)
I1227 03:31:31.154795 35358 net.cpp:139] Memory required for data: 19277312
I1227 03:31:31.154800 35358 layer_factory.hpp:77] Creating layer weizu_label_data_7_split
I1227 03:31:31.154808 35358 net.cpp:86] Creating Layer weizu_label_data_7_split
I1227 03:31:31.154811 35358 net.cpp:408] weizu_label_data_7_split <- weizu_label
I1227 03:31:31.154827 35358 net.cpp:382] weizu_label_data_7_split -> weizu_label_data_7_split_0
I1227 03:31:31.154839 35358 net.cpp:382] weizu_label_data_7_split -> weizu_label_data_7_split_1
I1227 03:31:31.154875 35358 net.cpp:124] Setting up weizu_label_data_7_split
I1227 03:31:31.154882 35358 net.cpp:131] Top shape: 128 1 (128)
I1227 03:31:31.154887 35358 net.cpp:131] Top shape: 128 1 (128)
I1227 03:31:31.154891 35358 net.cpp:139] Memory required for data: 19278336
I1227 03:31:31.154896 35358 layer_factory.hpp:77] Creating layer conv1
I1227 03:31:31.154908 35358 net.cpp:86] Creating Layer conv1
I1227 03:31:31.154914 35358 net.cpp:408] conv1 <- data
I1227 03:31:31.154922 35358 net.cpp:382] conv1 -> conv1
I1227 03:31:31.155092 35358 net.cpp:124] Setting up conv1
I1227 03:31:31.155102 35358 net.cpp:131] Top shape: 128 32 56 56 (12845056)
I1227 03:31:31.155107 35358 net.cpp:139] Memory required for data: 70658560
I1227 03:31:31.155115 35358 layer_factory.hpp:77] Creating layer conv1/bn
I1227 03:31:31.155122 35358 net.cpp:86] Creating Layer conv1/bn
I1227 03:31:31.155128 35358 net.cpp:408] conv1/bn <- conv1
I1227 03:31:31.155135 35358 net.cpp:369] conv1/bn -> conv1 (in-place)
I1227 03:31:31.155319 35358 net.cpp:124] Setting up conv1/bn
I1227 03:31:31.155328 35358 net.cpp:131] Top shape: 128 32 56 56 (12845056)
I1227 03:31:31.155333 35358 net.cpp:139] Memory required for data: 122038784
I1227 03:31:31.155344 35358 layer_factory.hpp:77] Creating layer conv1/scale
I1227 03:31:31.155351 35358 net.cpp:86] Creating Layer conv1/scale
I1227 03:31:31.155355 35358 net.cpp:408] conv1/scale <- conv1
I1227 03:31:31.155367 35358 net.cpp:369] conv1/scale -> conv1 (in-place)
I1227 03:31:31.155400 35358 layer_factory.hpp:77] Creating layer conv1/scale
I1227 03:31:31.155524 35358 net.cpp:124] Setting up conv1/scale
I1227 03:31:31.155534 35358 net.cpp:131] Top shape: 128 32 56 56 (12845056)
I1227 03:31:31.155537 35358 net.cpp:139] Memory required for data: 173419008
I1227 03:31:31.155546 35358 layer_factory.hpp:77] Creating layer relu1
I1227 03:31:31.155555 35358 net.cpp:86] Creating Layer relu1
I1227 03:31:31.155560 35358 net.cpp:408] relu1 <- conv1
I1227 03:31:31.155565 35358 net.cpp:369] relu1 -> conv1 (in-place)
I1227 03:31:31.155571 35358 net.cpp:124] Setting up relu1
I1227 03:31:31.155577 35358 net.cpp:131] Top shape: 128 32 56 56 (12845056)
I1227 03:31:31.155581 35358 net.cpp:139] Memory required for data: 224799232
I1227 03:31:31.155586 35358 layer_factory.hpp:77] Creating layer conv2_1/dw
I1227 03:31:31.155596 35358 net.cpp:86] Creating Layer conv2_1/dw
I1227 03:31:31.155601 35358 net.cpp:408] conv2_1/dw <- conv1
I1227 03:31:31.155607 35358 net.cpp:382] conv2_1/dw -> conv2_1/dw
I1227 03:31:31.155782 35358 net.cpp:124] Setting up conv2_1/dw
I1227 03:31:31.155792 35358 net.cpp:131] Top shape: 128 32 56 56 (12845056)
I1227 03:31:31.155797 35358 net.cpp:139] Memory required for data: 276179456
I1227 03:31:31.155805 35358 layer_factory.hpp:77] Creating layer conv2_1/dw/bn
I1227 03:31:31.155814 35358 net.cpp:86] Creating Layer conv2_1/dw/bn
I1227 03:31:31.155819 35358 net.cpp:408] conv2_1/dw/bn <- conv2_1/dw
I1227 03:31:31.155825 35358 net.cpp:369] conv2_1/dw/bn -> conv2_1/dw (in-place)
I1227 03:31:31.156009 35358 net.cpp:124] Setting up conv2_1/dw/bn
I1227 03:31:31.156018 35358 net.cpp:131] Top shape: 128 32 56 56 (12845056)
I1227 03:31:31.156023 35358 net.cpp:139] Memory required for data: 327559680
I1227 03:31:31.156035 35358 layer_factory.hpp:77] Creating layer conv2_1/dw/scale
I1227 03:31:31.156042 35358 net.cpp:86] Creating Layer conv2_1/dw/scale
I1227 03:31:31.156047 35358 net.cpp:408] conv2_1/dw/scale <- conv2_1/dw
I1227 03:31:31.156054 35358 net.cpp:369] conv2_1/dw/scale -> conv2_1/dw (in-place)
I1227 03:31:31.156087 35358 layer_factory.hpp:77] Creating layer conv2_1/dw/scale
I1227 03:31:31.156216 35358 net.cpp:124] Setting up conv2_1/dw/scale
I1227 03:31:31.156225 35358 net.cpp:131] Top shape: 128 32 56 56 (12845056)
I1227 03:31:31.156229 35358 net.cpp:139] Memory required for data: 378939904
I1227 03:31:31.156236 35358 layer_factory.hpp:77] Creating layer relu2_1/dw
I1227 03:31:31.156244 35358 net.cpp:86] Creating Layer relu2_1/dw
I1227 03:31:31.156250 35358 net.cpp:408] relu2_1/dw <- conv2_1/dw
I1227 03:31:31.156255 35358 net.cpp:369] relu2_1/dw -> conv2_1/dw (in-place)
I1227 03:31:31.156261 35358 net.cpp:124] Setting up relu2_1/dw
I1227 03:31:31.156267 35358 net.cpp:131] Top shape: 128 32 56 56 (12845056)
I1227 03:31:31.156271 35358 net.cpp:139] Memory required for data: 430320128
I1227 03:31:31.156275 35358 layer_factory.hpp:77] Creating layer conv2_1/sep
I1227 03:31:31.156288 35358 net.cpp:86] Creating Layer conv2_1/sep
I1227 03:31:31.156293 35358 net.cpp:408] conv2_1/sep <- conv2_1/dw
I1227 03:31:31.156301 35358 net.cpp:382] conv2_1/sep -> conv2_1/sep
I1227 03:31:31.156502 35358 net.cpp:124] Setting up conv2_1/sep
I1227 03:31:31.156512 35358 net.cpp:131] Top shape: 128 64 56 56 (25690112)
I1227 03:31:31.156515 35358 net.cpp:139] Memory required for data: 533080576
I1227 03:31:31.156520 35358 layer_factory.hpp:77] Creating layer conv2_1/sep/bn
I1227 03:31:31.156527 35358 net.cpp:86] Creating Layer conv2_1/sep/bn
I1227 03:31:31.156533 35358 net.cpp:408] conv2_1/sep/bn <- conv2_1/sep
I1227 03:31:31.156539 35358 net.cpp:369] conv2_1/sep/bn -> conv2_1/sep (in-place)
I1227 03:31:31.156723 35358 net.cpp:124] Setting up conv2_1/sep/bn
I1227 03:31:31.156731 35358 net.cpp:131] Top shape: 128 64 56 56 (25690112)
I1227 03:31:31.156735 35358 net.cpp:139] Memory required for data: 635841024
I1227 03:31:31.156744 35358 layer_factory.hpp:77] Creating layer conv2_1/sep/scale
I1227 03:31:31.156750 35358 net.cpp:86] Creating Layer conv2_1/sep/scale
I1227 03:31:31.156754 35358 net.cpp:408] conv2_1/sep/scale <- conv2_1/sep
I1227 03:31:31.156764 35358 net.cpp:369] conv2_1/sep/scale -> conv2_1/sep (in-place)
I1227 03:31:31.156797 35358 layer_factory.hpp:77] Creating layer conv2_1/sep/scale
I1227 03:31:31.156918 35358 net.cpp:124] Setting up conv2_1/sep/scale
I1227 03:31:31.156926 35358 net.cpp:131] Top shape: 128 64 56 56 (25690112)
I1227 03:31:31.156930 35358 net.cpp:139] Memory required for data: 738601472
I1227 03:31:31.156942 35358 layer_factory.hpp:77] Creating layer relu2_1/sep
I1227 03:31:31.156949 35358 net.cpp:86] Creating Layer relu2_1/sep
I1227 03:31:31.156952 35358 net.cpp:408] relu2_1/sep <- conv2_1/sep
I1227 03:31:31.156960 35358 net.cpp:369] relu2_1/sep -> conv2_1/sep (in-place)
I1227 03:31:31.156967 35358 net.cpp:124] Setting up relu2_1/sep
I1227 03:31:31.156973 35358 net.cpp:131] Top shape: 128 64 56 56 (25690112)
I1227 03:31:31.156976 35358 net.cpp:139] Memory required for data: 841361920
I1227 03:31:31.156981 35358 layer_factory.hpp:77] Creating layer conv2_2/dw
I1227 03:31:31.156988 35358 net.cpp:86] Creating Layer conv2_2/dw
I1227 03:31:31.156992 35358 net.cpp:408] conv2_2/dw <- conv2_1/sep
I1227 03:31:31.157001 35358 net.cpp:382] conv2_2/dw -> conv2_2/dw
I1227 03:31:31.157181 35358 net.cpp:124] Setting up conv2_2/dw
I1227 03:31:31.157196 35358 net.cpp:131] Top shape: 128 64 28 28 (6422528)
I1227 03:31:31.157200 35358 net.cpp:139] Memory required for data: 867052032
I1227 03:31:31.157207 35358 layer_factory.hpp:77] Creating layer conv2_2/dw/bn
I1227 03:31:31.157212 35358 net.cpp:86] Creating Layer conv2_2/dw/bn
I1227 03:31:31.157217 35358 net.cpp:408] conv2_2/dw/bn <- conv2_2/dw
I1227 03:31:31.157222 35358 net.cpp:369] conv2_2/dw/bn -> conv2_2/dw (in-place)
I1227 03:31:31.157402 35358 net.cpp:124] Setting up conv2_2/dw/bn
I1227 03:31:31.157411 35358 net.cpp:131] Top shape: 128 64 28 28 (6422528)
I1227 03:31:31.157415 35358 net.cpp:139] Memory required for data: 892742144
I1227 03:31:31.157423 35358 layer_factory.hpp:77] Creating layer conv2_2/dw/scale
I1227 03:31:31.157430 35358 net.cpp:86] Creating Layer conv2_2/dw/scale
I1227 03:31:31.157435 35358 net.cpp:408] conv2_2/dw/scale <- conv2_2/dw
I1227 03:31:31.157441 35358 net.cpp:369] conv2_2/dw/scale -> conv2_2/dw (in-place)
I1227 03:31:31.157476 35358 layer_factory.hpp:77] Creating layer conv2_2/dw/scale
I1227 03:31:31.157598 35358 net.cpp:124] Setting up conv2_2/dw/scale
I1227 03:31:31.157606 35358 net.cpp:131] Top shape: 128 64 28 28 (6422528)
I1227 03:31:31.157611 35358 net.cpp:139] Memory required for data: 918432256
I1227 03:31:31.157618 35358 layer_factory.hpp:77] Creating layer relu2_2/dw
I1227 03:31:31.157624 35358 net.cpp:86] Creating Layer relu2_2/dw
I1227 03:31:31.157629 35358 net.cpp:408] relu2_2/dw <- conv2_2/dw
I1227 03:31:31.157634 35358 net.cpp:369] relu2_2/dw -> conv2_2/dw (in-place)
I1227 03:31:31.157641 35358 net.cpp:124] Setting up relu2_2/dw
I1227 03:31:31.157646 35358 net.cpp:131] Top shape: 128 64 28 28 (6422528)
I1227 03:31:31.157651 35358 net.cpp:139] Memory required for data: 944122368
I1227 03:31:31.157655 35358 layer_factory.hpp:77] Creating layer conv2_2/sep
I1227 03:31:31.157665 35358 net.cpp:86] Creating Layer conv2_2/sep
I1227 03:31:31.157670 35358 net.cpp:408] conv2_2/sep <- conv2_2/dw
I1227 03:31:31.157677 35358 net.cpp:382] conv2_2/sep -> conv2_2/sep
I1227 03:31:31.157933 35358 net.cpp:124] Setting up conv2_2/sep
I1227 03:31:31.157943 35358 net.cpp:131] Top shape: 128 128 28 28 (12845056)
I1227 03:31:31.157948 35358 net.cpp:139] Memory required for data: 995502592
I1227 03:31:31.157953 35358 layer_factory.hpp:77] Creating layer conv2_2/sep/bn
I1227 03:31:31.157959 35358 net.cpp:86] Creating Layer conv2_2/sep/bn
I1227 03:31:31.157964 35358 net.cpp:408] conv2_2/sep/bn <- conv2_2/sep
I1227 03:31:31.157969 35358 net.cpp:369] conv2_2/sep/bn -> conv2_2/sep (in-place)
I1227 03:31:31.158144 35358 net.cpp:124] Setting up conv2_2/sep/bn
I1227 03:31:31.158155 35358 net.cpp:131] Top shape: 128 128 28 28 (12845056)
I1227 03:31:31.158159 35358 net.cpp:139] Memory required for data: 1046882816
I1227 03:31:31.158167 35358 layer_factory.hpp:77] Creating layer conv2_2/sep/scale
I1227 03:31:31.158175 35358 net.cpp:86] Creating Layer conv2_2/sep/scale
I1227 03:31:31.158179 35358 net.cpp:408] conv2_2/sep/scale <- conv2_2/sep
I1227 03:31:31.158185 35358 net.cpp:369] conv2_2/sep/scale -> conv2_2/sep (in-place)
I1227 03:31:31.158217 35358 layer_factory.hpp:77] Creating layer conv2_2/sep/scale
I1227 03:31:31.158325 35358 net.cpp:124] Setting up conv2_2/sep/scale
I1227 03:31:31.158336 35358 net.cpp:131] Top shape: 128 128 28 28 (12845056)
I1227 03:31:31.158341 35358 net.cpp:139] Memory required for data: 1098263040
I1227 03:31:31.158349 35358 layer_factory.hpp:77] Creating layer relu2_2/sep
I1227 03:31:31.158354 35358 net.cpp:86] Creating Layer relu2_2/sep
I1227 03:31:31.158358 35358 net.cpp:408] relu2_2/sep <- conv2_2/sep
I1227 03:31:31.158366 35358 net.cpp:369] relu2_2/sep -> conv2_2/sep (in-place)
I1227 03:31:31.158372 35358 net.cpp:124] Setting up relu2_2/sep
I1227 03:31:31.158378 35358 net.cpp:131] Top shape: 128 128 28 28 (12845056)
I1227 03:31:31.158382 35358 net.cpp:139] Memory required for data: 1149643264
I1227 03:31:31.158386 35358 layer_factory.hpp:77] Creating layer conv3_1/dw
I1227 03:31:31.158393 35358 net.cpp:86] Creating Layer conv3_1/dw
I1227 03:31:31.158402 35358 net.cpp:408] conv3_1/dw <- conv2_2/sep
I1227 03:31:31.158411 35358 net.cpp:382] conv3_1/dw -> conv3_1/dw
I1227 03:31:31.158596 35358 net.cpp:124] Setting up conv3_1/dw
I1227 03:31:31.158608 35358 net.cpp:131] Top shape: 128 128 28 28 (12845056)
I1227 03:31:31.158613 35358 net.cpp:139] Memory required for data: 1201023488
I1227 03:31:31.158618 35358 layer_factory.hpp:77] Creating layer conv3_1/dw/bn
I1227 03:31:31.158625 35358 net.cpp:86] Creating Layer conv3_1/dw/bn
I1227 03:31:31.158629 35358 net.cpp:408] conv3_1/dw/bn <- conv3_1/dw
I1227 03:31:31.158635 35358 net.cpp:369] conv3_1/dw/bn -> conv3_1/dw (in-place)
I1227 03:31:31.158810 35358 net.cpp:124] Setting up conv3_1/dw/bn
I1227 03:31:31.158826 35358 net.cpp:131] Top shape: 128 128 28 28 (12845056)
I1227 03:31:31.158831 35358 net.cpp:139] Memory required for data: 1252403712
I1227 03:31:31.158845 35358 layer_factory.hpp:77] Creating layer conv3_1/dw/scale
I1227 03:31:31.158854 35358 net.cpp:86] Creating Layer conv3_1/dw/scale
I1227 03:31:31.158859 35358 net.cpp:408] conv3_1/dw/scale <- conv3_1/dw
I1227 03:31:31.158866 35358 net.cpp:369] conv3_1/dw/scale -> conv3_1/dw (in-place)
I1227 03:31:31.158900 35358 layer_factory.hpp:77] Creating layer conv3_1/dw/scale
I1227 03:31:31.159009 35358 net.cpp:124] Setting up conv3_1/dw/scale
I1227 03:31:31.159020 35358 net.cpp:131] Top shape: 128 128 28 28 (12845056)
I1227 03:31:31.159024 35358 net.cpp:139] Memory required for data: 1303783936
I1227 03:31:31.159031 35358 layer_factory.hpp:77] Creating layer relu3_1/dw
I1227 03:31:31.159037 35358 net.cpp:86] Creating Layer relu3_1/dw
I1227 03:31:31.159041 35358 net.cpp:408] relu3_1/dw <- conv3_1/dw
I1227 03:31:31.159046 35358 net.cpp:369] relu3_1/dw -> conv3_1/dw (in-place)
I1227 03:31:31.159054 35358 net.cpp:124] Setting up relu3_1/dw
I1227 03:31:31.159061 35358 net.cpp:131] Top shape: 128 128 28 28 (12845056)
I1227 03:31:31.159065 35358 net.cpp:139] Memory required for data: 1355164160
I1227 03:31:31.159070 35358 layer_factory.hpp:77] Creating layer conv3_1/sep
I1227 03:31:31.159083 35358 net.cpp:86] Creating Layer conv3_1/sep
I1227 03:31:31.159088 35358 net.cpp:408] conv3_1/sep <- conv3_1/dw
I1227 03:31:31.159095 35358 net.cpp:382] conv3_1/sep -> conv3_1/sep
I1227 03:31:31.159435 35358 net.cpp:124] Setting up conv3_1/sep
I1227 03:31:31.159446 35358 net.cpp:131] Top shape: 128 128 28 28 (12845056)
I1227 03:31:31.159451 35358 net.cpp:139] Memory required for data: 1406544384
I1227 03:31:31.159456 35358 layer_factory.hpp:77] Creating layer conv3_1/sep/bn
I1227 03:31:31.159462 35358 net.cpp:86] Creating Layer conv3_1/sep/bn
I1227 03:31:31.159467 35358 net.cpp:408] conv3_1/sep/bn <- conv3_1/sep
I1227 03:31:31.159476 35358 net.cpp:369] conv3_1/sep/bn -> conv3_1/sep (in-place)
I1227 03:31:31.159647 35358 net.cpp:124] Setting up conv3_1/sep/bn
I1227 03:31:31.159657 35358 net.cpp:131] Top shape: 128 128 28 28 (12845056)
I1227 03:31:31.159662 35358 net.cpp:139] Memory required for data: 1457924608
I1227 03:31:31.159668 35358 layer_factory.hpp:77] Creating layer conv3_1/sep/scale
I1227 03:31:31.159675 35358 net.cpp:86] Creating Layer conv3_1/sep/scale
I1227 03:31:31.159680 35358 net.cpp:408] conv3_1/sep/scale <- conv3_1/sep
I1227 03:31:31.159688 35358 net.cpp:369] conv3_1/sep/scale -> conv3_1/sep (in-place)
I1227 03:31:31.159719 35358 layer_factory.hpp:77] Creating layer conv3_1/sep/scale
I1227 03:31:31.159826 35358 net.cpp:124] Setting up conv3_1/sep/scale
I1227 03:31:31.159834 35358 net.cpp:131] Top shape: 128 128 28 28 (12845056)
I1227 03:31:31.159839 35358 net.cpp:139] Memory required for data: 1509304832
I1227 03:31:31.159845 35358 layer_factory.hpp:77] Creating layer relu3_1/sep
I1227 03:31:31.159852 35358 net.cpp:86] Creating Layer relu3_1/sep
I1227 03:31:31.159855 35358 net.cpp:408] relu3_1/sep <- conv3_1/sep
I1227 03:31:31.159862 35358 net.cpp:369] relu3_1/sep -> conv3_1/sep (in-place)
I1227 03:31:31.159868 35358 net.cpp:124] Setting up relu3_1/sep
I1227 03:31:31.159875 35358 net.cpp:131] Top shape: 128 128 28 28 (12845056)
I1227 03:31:31.159880 35358 net.cpp:139] Memory required for data: 1560685056
I1227 03:31:31.159888 35358 layer_factory.hpp:77] Creating layer conv3_2/dw
I1227 03:31:31.159895 35358 net.cpp:86] Creating Layer conv3_2/dw
I1227 03:31:31.159900 35358 net.cpp:408] conv3_2/dw <- conv3_1/sep
I1227 03:31:31.159911 35358 net.cpp:382] conv3_2/dw -> conv3_2/dw
I1227 03:31:31.160091 35358 net.cpp:124] Setting up conv3_2/dw
I1227 03:31:31.160100 35358 net.cpp:131] Top shape: 128 128 14 14 (3211264)
I1227 03:31:31.160104 35358 net.cpp:139] Memory required for data: 1573530112
I1227 03:31:31.160110 35358 layer_factory.hpp:77] Creating layer conv3_2/dw/bn
I1227 03:31:31.160116 35358 net.cpp:86] Creating Layer conv3_2/dw/bn
I1227 03:31:31.160121 35358 net.cpp:408] conv3_2/dw/bn <- conv3_2/dw
I1227 03:31:31.160127 35358 net.cpp:369] conv3_2/dw/bn -> conv3_2/dw (in-place)
I1227 03:31:31.160300 35358 net.cpp:124] Setting up conv3_2/dw/bn
I1227 03:31:31.160308 35358 net.cpp:131] Top shape: 128 128 14 14 (3211264)
I1227 03:31:31.160312 35358 net.cpp:139] Memory required for data: 1586375168
I1227 03:31:31.160320 35358 layer_factory.hpp:77] Creating layer conv3_2/dw/scale
I1227 03:31:31.160327 35358 net.cpp:86] Creating Layer conv3_2/dw/scale
I1227 03:31:31.160332 35358 net.cpp:408] conv3_2/dw/scale <- conv3_2/dw
I1227 03:31:31.160337 35358 net.cpp:369] conv3_2/dw/scale -> conv3_2/dw (in-place)
I1227 03:31:31.160372 35358 layer_factory.hpp:77] Creating layer conv3_2/dw/scale
I1227 03:31:31.160473 35358 net.cpp:124] Setting up conv3_2/dw/scale
I1227 03:31:31.160482 35358 net.cpp:131] Top shape: 128 128 14 14 (3211264)
I1227 03:31:31.160486 35358 net.cpp:139] Memory required for data: 1599220224
I1227 03:31:31.160492 35358 layer_factory.hpp:77] Creating layer relu3_2/dw
I1227 03:31:31.160498 35358 net.cpp:86] Creating Layer relu3_2/dw
I1227 03:31:31.160503 35358 net.cpp:408] relu3_2/dw <- conv3_2/dw
I1227 03:31:31.160511 35358 net.cpp:369] relu3_2/dw -> conv3_2/dw (in-place)
I1227 03:31:31.160517 35358 net.cpp:124] Setting up relu3_2/dw
I1227 03:31:31.160523 35358 net.cpp:131] Top shape: 128 128 14 14 (3211264)
I1227 03:31:31.160527 35358 net.cpp:139] Memory required for data: 1612065280
I1227 03:31:31.160531 35358 layer_factory.hpp:77] Creating layer conv3_2/sep
I1227 03:31:31.160538 35358 net.cpp:86] Creating Layer conv3_2/sep
I1227 03:31:31.160543 35358 net.cpp:408] conv3_2/sep <- conv3_2/dw
I1227 03:31:31.160552 35358 net.cpp:382] conv3_2/sep -> conv3_2/sep
I1227 03:31:31.161062 35358 net.cpp:124] Setting up conv3_2/sep
I1227 03:31:31.161074 35358 net.cpp:131] Top shape: 128 256 14 14 (6422528)
I1227 03:31:31.161079 35358 net.cpp:139] Memory required for data: 1637755392
I1227 03:31:31.161085 35358 layer_factory.hpp:77] Creating layer conv3_2/sep/bn
I1227 03:31:31.161092 35358 net.cpp:86] Creating Layer conv3_2/sep/bn
I1227 03:31:31.161095 35358 net.cpp:408] conv3_2/sep/bn <- conv3_2/sep
I1227 03:31:31.161101 35358 net.cpp:369] conv3_2/sep/bn -> conv3_2/sep (in-place)
I1227 03:31:31.161269 35358 net.cpp:124] Setting up conv3_2/sep/bn
I1227 03:31:31.161278 35358 net.cpp:131] Top shape: 128 256 14 14 (6422528)
I1227 03:31:31.161283 35358 net.cpp:139] Memory required for data: 1663445504
I1227 03:31:31.161290 35358 layer_factory.hpp:77] Creating layer conv3_2/sep/scale
I1227 03:31:31.161299 35358 net.cpp:86] Creating Layer conv3_2/sep/scale
I1227 03:31:31.161304 35358 net.cpp:408] conv3_2/sep/scale <- conv3_2/sep
I1227 03:31:31.161310 35358 net.cpp:369] conv3_2/sep/scale -> conv3_2/sep (in-place)
I1227 03:31:31.161346 35358 layer_factory.hpp:77] Creating layer conv3_2/sep/scale
I1227 03:31:31.161449 35358 net.cpp:124] Setting up conv3_2/sep/scale
I1227 03:31:31.161458 35358 net.cpp:131] Top shape: 128 256 14 14 (6422528)
I1227 03:31:31.161463 35358 net.cpp:139] Memory required for data: 1689135616
I1227 03:31:31.161469 35358 layer_factory.hpp:77] Creating layer relu3_2/sep
I1227 03:31:31.161478 35358 net.cpp:86] Creating Layer relu3_2/sep
I1227 03:31:31.161481 35358 net.cpp:408] relu3_2/sep <- conv3_2/sep
I1227 03:31:31.161487 35358 net.cpp:369] relu3_2/sep -> conv3_2/sep (in-place)
I1227 03:31:31.161496 35358 net.cpp:124] Setting up relu3_2/sep
I1227 03:31:31.161504 35358 net.cpp:131] Top shape: 128 256 14 14 (6422528)
I1227 03:31:31.161507 35358 net.cpp:139] Memory required for data: 1714825728
I1227 03:31:31.161511 35358 layer_factory.hpp:77] Creating layer conv4_1/dw
I1227 03:31:31.161520 35358 net.cpp:86] Creating Layer conv4_1/dw
I1227 03:31:31.161525 35358 net.cpp:408] conv4_1/dw <- conv3_2/sep
I1227 03:31:31.161531 35358 net.cpp:382] conv4_1/dw -> conv4_1/dw
I1227 03:31:31.161726 35358 net.cpp:124] Setting up conv4_1/dw
I1227 03:31:31.161736 35358 net.cpp:131] Top shape: 128 256 14 14 (6422528)
I1227 03:31:31.161741 35358 net.cpp:139] Memory required for data: 1740515840
I1227 03:31:31.161746 35358 layer_factory.hpp:77] Creating layer conv4_1/dw/bn
I1227 03:31:31.161751 35358 net.cpp:86] Creating Layer conv4_1/dw/bn
I1227 03:31:31.161756 35358 net.cpp:408] conv4_1/dw/bn <- conv4_1/dw
I1227 03:31:31.161764 35358 net.cpp:369] conv4_1/dw/bn -> conv4_1/dw (in-place)
I1227 03:31:31.161936 35358 net.cpp:124] Setting up conv4_1/dw/bn
I1227 03:31:31.161944 35358 net.cpp:131] Top shape: 128 256 14 14 (6422528)
I1227 03:31:31.161948 35358 net.cpp:139] Memory required for data: 1766205952
I1227 03:31:31.161957 35358 layer_factory.hpp:77] Creating layer conv4_1/dw/scale
I1227 03:31:31.161963 35358 net.cpp:86] Creating Layer conv4_1/dw/scale
I1227 03:31:31.161967 35358 net.cpp:408] conv4_1/dw/scale <- conv4_1/dw
I1227 03:31:31.161976 35358 net.cpp:369] conv4_1/dw/scale -> conv4_1/dw (in-place)
I1227 03:31:31.162008 35358 layer_factory.hpp:77] Creating layer conv4_1/dw/scale
I1227 03:31:31.162109 35358 net.cpp:124] Setting up conv4_1/dw/scale
I1227 03:31:31.162120 35358 net.cpp:131] Top shape: 128 256 14 14 (6422528)
I1227 03:31:31.162124 35358 net.cpp:139] Memory required for data: 1791896064
I1227 03:31:31.162132 35358 layer_factory.hpp:77] Creating layer relu4_1/dw
I1227 03:31:31.162137 35358 net.cpp:86] Creating Layer relu4_1/dw
I1227 03:31:31.162142 35358 net.cpp:408] relu4_1/dw <- conv4_1/dw
I1227 03:31:31.162147 35358 net.cpp:369] relu4_1/dw -> conv4_1/dw (in-place)
I1227 03:31:31.162153 35358 net.cpp:124] Setting up relu4_1/dw
I1227 03:31:31.162161 35358 net.cpp:131] Top shape: 128 256 14 14 (6422528)
I1227 03:31:31.162165 35358 net.cpp:139] Memory required for data: 1817586176
I1227 03:31:31.162169 35358 layer_factory.hpp:77] Creating layer conv4_1/sep
I1227 03:31:31.162178 35358 net.cpp:86] Creating Layer conv4_1/sep
I1227 03:31:31.162181 35358 net.cpp:408] conv4_1/sep <- conv4_1/dw
I1227 03:31:31.162190 35358 net.cpp:382] conv4_1/sep -> conv4_1/sep
I1227 03:31:31.163048 35358 net.cpp:124] Setting up conv4_1/sep
I1227 03:31:31.163061 35358 net.cpp:131] Top shape: 128 256 14 14 (6422528)
I1227 03:31:31.163065 35358 net.cpp:139] Memory required for data: 1843276288
I1227 03:31:31.163071 35358 layer_factory.hpp:77] Creating layer conv4_1/sep/bn
I1227 03:31:31.163084 35358 net.cpp:86] Creating Layer conv4_1/sep/bn
I1227 03:31:31.163089 35358 net.cpp:408] conv4_1/sep/bn <- conv4_1/sep
I1227 03:31:31.163094 35358 net.cpp:369] conv4_1/sep/bn -> conv4_1/sep (in-place)
I1227 03:31:31.163267 35358 net.cpp:124] Setting up conv4_1/sep/bn
I1227 03:31:31.163276 35358 net.cpp:131] Top shape: 128 256 14 14 (6422528)
I1227 03:31:31.163280 35358 net.cpp:139] Memory required for data: 1868966400
I1227 03:31:31.163288 35358 layer_factory.hpp:77] Creating layer conv4_1/sep/scale
I1227 03:31:31.163295 35358 net.cpp:86] Creating Layer conv4_1/sep/scale
I1227 03:31:31.163300 35358 net.cpp:408] conv4_1/sep/scale <- conv4_1/sep
I1227 03:31:31.163308 35358 net.cpp:369] conv4_1/sep/scale -> conv4_1/sep (in-place)
I1227 03:31:31.163339 35358 layer_factory.hpp:77] Creating layer conv4_1/sep/scale
I1227 03:31:31.163441 35358 net.cpp:124] Setting up conv4_1/sep/scale
I1227 03:31:31.163450 35358 net.cpp:131] Top shape: 128 256 14 14 (6422528)
I1227 03:31:31.163455 35358 net.cpp:139] Memory required for data: 1894656512
I1227 03:31:31.163470 35358 layer_factory.hpp:77] Creating layer relu4_1/sep
I1227 03:31:31.163477 35358 net.cpp:86] Creating Layer relu4_1/sep
I1227 03:31:31.163486 35358 net.cpp:408] relu4_1/sep <- conv4_1/sep
I1227 03:31:31.163491 35358 net.cpp:369] relu4_1/sep -> conv4_1/sep (in-place)
I1227 03:31:31.163498 35358 net.cpp:124] Setting up relu4_1/sep
I1227 03:31:31.163504 35358 net.cpp:131] Top shape: 128 256 14 14 (6422528)
I1227 03:31:31.163508 35358 net.cpp:139] Memory required for data: 1920346624
I1227 03:31:31.163512 35358 layer_factory.hpp:77] Creating layer conv4_2/dw
I1227 03:31:31.163519 35358 net.cpp:86] Creating Layer conv4_2/dw
I1227 03:31:31.163523 35358 net.cpp:408] conv4_2/dw <- conv4_1/sep
I1227 03:31:31.163530 35358 net.cpp:382] conv4_2/dw -> conv4_2/dw
I1227 03:31:31.163727 35358 net.cpp:124] Setting up conv4_2/dw
I1227 03:31:31.163736 35358 net.cpp:131] Top shape: 128 256 7 7 (1605632)
I1227 03:31:31.163740 35358 net.cpp:139] Memory required for data: 1926769152
I1227 03:31:31.163746 35358 layer_factory.hpp:77] Creating layer conv4_2/dw/bn
I1227 03:31:31.163753 35358 net.cpp:86] Creating Layer conv4_2/dw/bn
I1227 03:31:31.163758 35358 net.cpp:408] conv4_2/dw/bn <- conv4_2/dw
I1227 03:31:31.163765 35358 net.cpp:369] conv4_2/dw/bn -> conv4_2/dw (in-place)
I1227 03:31:31.163944 35358 net.cpp:124] Setting up conv4_2/dw/bn
I1227 03:31:31.163954 35358 net.cpp:131] Top shape: 128 256 7 7 (1605632)
I1227 03:31:31.163959 35358 net.cpp:139] Memory required for data: 1933191680
I1227 03:31:31.163971 35358 layer_factory.hpp:77] Creating layer conv4_2/dw/scale
I1227 03:31:31.163980 35358 net.cpp:86] Creating Layer conv4_2/dw/scale
I1227 03:31:31.163985 35358 net.cpp:408] conv4_2/dw/scale <- conv4_2/dw
I1227 03:31:31.163995 35358 net.cpp:369] conv4_2/dw/scale -> conv4_2/dw (in-place)
I1227 03:31:31.164027 35358 layer_factory.hpp:77] Creating layer conv4_2/dw/scale
I1227 03:31:31.164134 35358 net.cpp:124] Setting up conv4_2/dw/scale
I1227 03:31:31.164145 35358 net.cpp:131] Top shape: 128 256 7 7 (1605632)
I1227 03:31:31.164150 35358 net.cpp:139] Memory required for data: 1939614208
I1227 03:31:31.164156 35358 layer_factory.hpp:77] Creating layer relu4_2/dw
I1227 03:31:31.164162 35358 net.cpp:86] Creating Layer relu4_2/dw
I1227 03:31:31.164166 35358 net.cpp:408] relu4_2/dw <- conv4_2/dw
I1227 03:31:31.164172 35358 net.cpp:369] relu4_2/dw -> conv4_2/dw (in-place)
I1227 03:31:31.164178 35358 net.cpp:124] Setting up relu4_2/dw
I1227 03:31:31.164188 35358 net.cpp:131] Top shape: 128 256 7 7 (1605632)
I1227 03:31:31.164193 35358 net.cpp:139] Memory required for data: 1946036736
I1227 03:31:31.164197 35358 layer_factory.hpp:77] Creating layer conv4_2/sep
I1227 03:31:31.164206 35358 net.cpp:86] Creating Layer conv4_2/sep
I1227 03:31:31.164209 35358 net.cpp:408] conv4_2/sep <- conv4_2/dw
I1227 03:31:31.164218 35358 net.cpp:382] conv4_2/sep -> conv4_2/sep
I1227 03:31:31.165750 35358 net.cpp:124] Setting up conv4_2/sep
I1227 03:31:31.165765 35358 net.cpp:131] Top shape: 128 512 7 7 (3211264)
I1227 03:31:31.165769 35358 net.cpp:139] Memory required for data: 1958881792
I1227 03:31:31.165776 35358 layer_factory.hpp:77] Creating layer conv4_2/sep/bn
I1227 03:31:31.165783 35358 net.cpp:86] Creating Layer conv4_2/sep/bn
I1227 03:31:31.165791 35358 net.cpp:408] conv4_2/sep/bn <- conv4_2/sep
I1227 03:31:31.165801 35358 net.cpp:369] conv4_2/sep/bn -> conv4_2/sep (in-place)
I1227 03:31:31.165995 35358 net.cpp:124] Setting up conv4_2/sep/bn
I1227 03:31:31.166005 35358 net.cpp:131] Top shape: 128 512 7 7 (3211264)
I1227 03:31:31.166012 35358 net.cpp:139] Memory required for data: 1971726848
I1227 03:31:31.166023 35358 layer_factory.hpp:77] Creating layer conv4_2/sep/scale
I1227 03:31:31.166033 35358 net.cpp:86] Creating Layer conv4_2/sep/scale
I1227 03:31:31.166038 35358 net.cpp:408] conv4_2/sep/scale <- conv4_2/sep
I1227 03:31:31.166043 35358 net.cpp:369] conv4_2/sep/scale -> conv4_2/sep (in-place)
I1227 03:31:31.166076 35358 layer_factory.hpp:77] Creating layer conv4_2/sep/scale
I1227 03:31:31.166189 35358 net.cpp:124] Setting up conv4_2/sep/scale
I1227 03:31:31.166200 35358 net.cpp:131] Top shape: 128 512 7 7 (3211264)
I1227 03:31:31.166205 35358 net.cpp:139] Memory required for data: 1984571904
I1227 03:31:31.166215 35358 layer_factory.hpp:77] Creating layer relu4_2/sep
I1227 03:31:31.166223 35358 net.cpp:86] Creating Layer relu4_2/sep
I1227 03:31:31.166229 35358 net.cpp:408] relu4_2/sep <- conv4_2/sep
I1227 03:31:31.166236 35358 net.cpp:369] relu4_2/sep -> conv4_2/sep (in-place)
I1227 03:31:31.166244 35358 net.cpp:124] Setting up relu4_2/sep
I1227 03:31:31.166254 35358 net.cpp:131] Top shape: 128 512 7 7 (3211264)
I1227 03:31:31.166258 35358 net.cpp:139] Memory required for data: 1997416960
I1227 03:31:31.166262 35358 layer_factory.hpp:77] Creating layer conv5_1/dw
I1227 03:31:31.166270 35358 net.cpp:86] Creating Layer conv5_1/dw
I1227 03:31:31.166275 35358 net.cpp:408] conv5_1/dw <- conv4_2/sep
I1227 03:31:31.166282 35358 net.cpp:382] conv5_1/dw -> conv5_1/dw
I1227 03:31:31.166501 35358 net.cpp:124] Setting up conv5_1/dw
I1227 03:31:31.166512 35358 net.cpp:131] Top shape: 128 512 7 7 (3211264)
I1227 03:31:31.166515 35358 net.cpp:139] Memory required for data: 2010262016
I1227 03:31:31.166522 35358 layer_factory.hpp:77] Creating layer conv5_1/dw/bn
I1227 03:31:31.166527 35358 net.cpp:86] Creating Layer conv5_1/dw/bn
I1227 03:31:31.166532 35358 net.cpp:408] conv5_1/dw/bn <- conv5_1/dw
I1227 03:31:31.166540 35358 net.cpp:369] conv5_1/dw/bn -> conv5_1/dw (in-place)
I1227 03:31:31.166718 35358 net.cpp:124] Setting up conv5_1/dw/bn
I1227 03:31:31.166726 35358 net.cpp:131] Top shape: 128 512 7 7 (3211264)
I1227 03:31:31.166731 35358 net.cpp:139] Memory required for data: 2023107072
I1227 03:31:31.166739 35358 layer_factory.hpp:77] Creating layer conv5_1/dw/scale
I1227 03:31:31.166746 35358 net.cpp:86] Creating Layer conv5_1/dw/scale
I1227 03:31:31.166750 35358 net.cpp:408] conv5_1/dw/scale <- conv5_1/dw
I1227 03:31:31.166759 35358 net.cpp:369] conv5_1/dw/scale -> conv5_1/dw (in-place)
I1227 03:31:31.166788 35358 layer_factory.hpp:77] Creating layer conv5_1/dw/scale
I1227 03:31:31.166911 35358 net.cpp:124] Setting up conv5_1/dw/scale
I1227 03:31:31.166925 35358 net.cpp:131] Top shape: 128 512 7 7 (3211264)
I1227 03:31:31.166932 35358 net.cpp:139] Memory required for data: 2035952128
I1227 03:31:31.166942 35358 layer_factory.hpp:77] Creating layer relu5_1/dw
I1227 03:31:31.166949 35358 net.cpp:86] Creating Layer relu5_1/dw
I1227 03:31:31.166954 35358 net.cpp:408] relu5_1/dw <- conv5_1/dw
I1227 03:31:31.166960 35358 net.cpp:369] relu5_1/dw -> conv5_1/dw (in-place)
I1227 03:31:31.166966 35358 net.cpp:124] Setting up relu5_1/dw
I1227 03:31:31.166975 35358 net.cpp:131] Top shape: 128 512 7 7 (3211264)
I1227 03:31:31.166978 35358 net.cpp:139] Memory required for data: 2048797184
I1227 03:31:31.166982 35358 layer_factory.hpp:77] Creating layer conv5_1/sep
I1227 03:31:31.167001 35358 net.cpp:86] Creating Layer conv5_1/sep
I1227 03:31:31.167009 35358 net.cpp:408] conv5_1/sep <- conv5_1/dw
I1227 03:31:31.167019 35358 net.cpp:382] conv5_1/sep -> conv5_1/sep
I1227 03:31:31.171166 35358 net.cpp:124] Setting up conv5_1/sep
I1227 03:31:31.171183 35358 net.cpp:131] Top shape: 128 512 7 7 (3211264)
I1227 03:31:31.171188 35358 net.cpp:139] Memory required for data: 2061642240
I1227 03:31:31.171196 35358 layer_factory.hpp:77] Creating layer conv5_1/sep/bn
I1227 03:31:31.171203 35358 net.cpp:86] Creating Layer conv5_1/sep/bn
I1227 03:31:31.171209 35358 net.cpp:408] conv5_1/sep/bn <- conv5_1/sep
I1227 03:31:31.171216 35358 net.cpp:369] conv5_1/sep/bn -> conv5_1/sep (in-place)
I1227 03:31:31.171401 35358 net.cpp:124] Setting up conv5_1/sep/bn
I1227 03:31:31.171411 35358 net.cpp:131] Top shape: 128 512 7 7 (3211264)
I1227 03:31:31.171416 35358 net.cpp:139] Memory required for data: 2074487296
I1227 03:31:31.171423 35358 layer_factory.hpp:77] Creating layer conv5_1/sep/scale
I1227 03:31:31.171432 35358 net.cpp:86] Creating Layer conv5_1/sep/scale
I1227 03:31:31.171437 35358 net.cpp:408] conv5_1/sep/scale <- conv5_1/sep
I1227 03:31:31.171442 35358 net.cpp:369] conv5_1/sep/scale -> conv5_1/sep (in-place)
I1227 03:31:31.171475 35358 layer_factory.hpp:77] Creating layer conv5_1/sep/scale
I1227 03:31:31.171597 35358 net.cpp:124] Setting up conv5_1/sep/scale
I1227 03:31:31.171607 35358 net.cpp:131] Top shape: 128 512 7 7 (3211264)
I1227 03:31:31.171612 35358 net.cpp:139] Memory required for data: 2087332352
I1227 03:31:31.171618 35358 layer_factory.hpp:77] Creating layer relu5_1/sep
I1227 03:31:31.171624 35358 net.cpp:86] Creating Layer relu5_1/sep
I1227 03:31:31.171628 35358 net.cpp:408] relu5_1/sep <- conv5_1/sep
I1227 03:31:31.171638 35358 net.cpp:369] relu5_1/sep -> conv5_1/sep (in-place)
I1227 03:31:31.171643 35358 net.cpp:124] Setting up relu5_1/sep
I1227 03:31:31.171649 35358 net.cpp:131] Top shape: 128 512 7 7 (3211264)
I1227 03:31:31.171653 35358 net.cpp:139] Memory required for data: 2100177408
I1227 03:31:31.171658 35358 layer_factory.hpp:77] Creating layer conv5_2/dw
I1227 03:31:31.171665 35358 net.cpp:86] Creating Layer conv5_2/dw
I1227 03:31:31.171669 35358 net.cpp:408] conv5_2/dw <- conv5_1/sep
I1227 03:31:31.171679 35358 net.cpp:382] conv5_2/dw -> conv5_2/dw
I1227 03:31:31.171896 35358 net.cpp:124] Setting up conv5_2/dw
I1227 03:31:31.171906 35358 net.cpp:131] Top shape: 128 512 7 7 (3211264)
I1227 03:31:31.171911 35358 net.cpp:139] Memory required for data: 2113022464
I1227 03:31:31.171916 35358 layer_factory.hpp:77] Creating layer conv5_2/dw/bn
I1227 03:31:31.171924 35358 net.cpp:86] Creating Layer conv5_2/dw/bn
I1227 03:31:31.171929 35358 net.cpp:408] conv5_2/dw/bn <- conv5_2/dw
I1227 03:31:31.171936 35358 net.cpp:369] conv5_2/dw/bn -> conv5_2/dw (in-place)
I1227 03:31:31.172123 35358 net.cpp:124] Setting up conv5_2/dw/bn
I1227 03:31:31.172134 35358 net.cpp:131] Top shape: 128 512 7 7 (3211264)
I1227 03:31:31.172138 35358 net.cpp:139] Memory required for data: 2125867520
I1227 03:31:31.172147 35358 layer_factory.hpp:77] Creating layer conv5_2/dw/scale
I1227 03:31:31.172155 35358 net.cpp:86] Creating Layer conv5_2/dw/scale
I1227 03:31:31.172161 35358 net.cpp:408] conv5_2/dw/scale <- conv5_2/dw
I1227 03:31:31.172168 35358 net.cpp:369] conv5_2/dw/scale -> conv5_2/dw (in-place)
I1227 03:31:31.172197 35358 layer_factory.hpp:77] Creating layer conv5_2/dw/scale
I1227 03:31:31.172312 35358 net.cpp:124] Setting up conv5_2/dw/scale
I1227 03:31:31.172322 35358 net.cpp:131] Top shape: 128 512 7 7 (3211264)
I1227 03:31:31.172325 35358 net.cpp:139] Memory required for data: 2138712576
I1227 03:31:31.172333 35358 layer_factory.hpp:77] Creating layer relu5_2/dw
I1227 03:31:31.172338 35358 net.cpp:86] Creating Layer relu5_2/dw
I1227 03:31:31.172343 35358 net.cpp:408] relu5_2/dw <- conv5_2/dw
I1227 03:31:31.172350 35358 net.cpp:369] relu5_2/dw -> conv5_2/dw (in-place)
I1227 03:31:31.172358 35358 net.cpp:124] Setting up relu5_2/dw
I1227 03:31:31.172363 35358 net.cpp:131] Top shape: 128 512 7 7 (3211264)
I1227 03:31:31.172367 35358 net.cpp:139] Memory required for data: 2151557632
I1227 03:31:31.172371 35358 layer_factory.hpp:77] Creating layer conv5_2/sep
I1227 03:31:31.172381 35358 net.cpp:86] Creating Layer conv5_2/sep
I1227 03:31:31.172386 35358 net.cpp:408] conv5_2/sep <- conv5_2/dw
I1227 03:31:31.172394 35358 net.cpp:382] conv5_2/sep -> conv5_2/sep
I1227 03:31:31.175186 35358 net.cpp:124] Setting up conv5_2/sep
I1227 03:31:31.175199 35358 net.cpp:131] Top shape: 128 512 7 7 (3211264)
I1227 03:31:31.175204 35358 net.cpp:139] Memory required for data: 2164402688
I1227 03:31:31.175209 35358 layer_factory.hpp:77] Creating layer conv5_2/sep/bn
I1227 03:31:31.175216 35358 net.cpp:86] Creating Layer conv5_2/sep/bn
I1227 03:31:31.175221 35358 net.cpp:408] conv5_2/sep/bn <- conv5_2/sep
I1227 03:31:31.175227 35358 net.cpp:369] conv5_2/sep/bn -> conv5_2/sep (in-place)
I1227 03:31:31.175410 35358 net.cpp:124] Setting up conv5_2/sep/bn
I1227 03:31:31.175420 35358 net.cpp:131] Top shape: 128 512 7 7 (3211264)
I1227 03:31:31.175423 35358 net.cpp:139] Memory required for data: 2177247744
I1227 03:31:31.175431 35358 layer_factory.hpp:77] Creating layer conv5_2/sep/scale
I1227 03:31:31.175439 35358 net.cpp:86] Creating Layer conv5_2/sep/scale
I1227 03:31:31.175444 35358 net.cpp:408] conv5_2/sep/scale <- conv5_2/sep
I1227 03:31:31.175454 35358 net.cpp:369] conv5_2/sep/scale -> conv5_2/sep (in-place)
I1227 03:31:31.175484 35358 layer_factory.hpp:77] Creating layer conv5_2/sep/scale
I1227 03:31:31.175590 35358 net.cpp:124] Setting up conv5_2/sep/scale
I1227 03:31:31.175599 35358 net.cpp:131] Top shape: 128 512 7 7 (3211264)
I1227 03:31:31.175603 35358 net.cpp:139] Memory required for data: 2190092800
I1227 03:31:31.175611 35358 layer_factory.hpp:77] Creating layer relu5_2/sep
I1227 03:31:31.175616 35358 net.cpp:86] Creating Layer relu5_2/sep
I1227 03:31:31.175621 35358 net.cpp:408] relu5_2/sep <- conv5_2/sep
I1227 03:31:31.175628 35358 net.cpp:369] relu5_2/sep -> conv5_2/sep (in-place)
I1227 03:31:31.175634 35358 net.cpp:124] Setting up relu5_2/sep
I1227 03:31:31.175642 35358 net.cpp:131] Top shape: 128 512 7 7 (3211264)
I1227 03:31:31.175645 35358 net.cpp:139] Memory required for data: 2202937856
I1227 03:31:31.175649 35358 layer_factory.hpp:77] Creating layer conv5_3/dw
I1227 03:31:31.175657 35358 net.cpp:86] Creating Layer conv5_3/dw
I1227 03:31:31.175662 35358 net.cpp:408] conv5_3/dw <- conv5_2/sep
I1227 03:31:31.175668 35358 net.cpp:382] conv5_3/dw -> conv5_3/dw
I1227 03:31:31.175880 35358 net.cpp:124] Setting up conv5_3/dw
I1227 03:31:31.175890 35358 net.cpp:131] Top shape: 128 512 7 7 (3211264)
I1227 03:31:31.175895 35358 net.cpp:139] Memory required for data: 2215782912
I1227 03:31:31.175900 35358 layer_factory.hpp:77] Creating layer conv5_3/dw/bn
I1227 03:31:31.175907 35358 net.cpp:86] Creating Layer conv5_3/dw/bn
I1227 03:31:31.175912 35358 net.cpp:408] conv5_3/dw/bn <- conv5_3/dw
I1227 03:31:31.175920 35358 net.cpp:369] conv5_3/dw/bn -> conv5_3/dw (in-place)
I1227 03:31:31.176089 35358 net.cpp:124] Setting up conv5_3/dw/bn
I1227 03:31:31.176096 35358 net.cpp:131] Top shape: 128 512 7 7 (3211264)
I1227 03:31:31.176100 35358 net.cpp:139] Memory required for data: 2228627968
I1227 03:31:31.176110 35358 layer_factory.hpp:77] Creating layer conv5_3/dw/scale
I1227 03:31:31.176116 35358 net.cpp:86] Creating Layer conv5_3/dw/scale
I1227 03:31:31.176121 35358 net.cpp:408] conv5_3/dw/scale <- conv5_3/dw
I1227 03:31:31.176127 35358 net.cpp:369] conv5_3/dw/scale -> conv5_3/dw (in-place)
I1227 03:31:31.176157 35358 layer_factory.hpp:77] Creating layer conv5_3/dw/scale
I1227 03:31:31.176264 35358 net.cpp:124] Setting up conv5_3/dw/scale
I1227 03:31:31.176272 35358 net.cpp:131] Top shape: 128 512 7 7 (3211264)
I1227 03:31:31.176276 35358 net.cpp:139] Memory required for data: 2241473024
I1227 03:31:31.176283 35358 layer_factory.hpp:77] Creating layer relu5_3/dw
I1227 03:31:31.176290 35358 net.cpp:86] Creating Layer relu5_3/dw
I1227 03:31:31.176293 35358 net.cpp:408] relu5_3/dw <- conv5_3/dw
I1227 03:31:31.176301 35358 net.cpp:369] relu5_3/dw -> conv5_3/dw (in-place)
I1227 03:31:31.176306 35358 net.cpp:124] Setting up relu5_3/dw
I1227 03:31:31.176313 35358 net.cpp:131] Top shape: 128 512 7 7 (3211264)
I1227 03:31:31.176317 35358 net.cpp:139] Memory required for data: 2254318080
I1227 03:31:31.176321 35358 layer_factory.hpp:77] Creating layer conv5_3/sep
I1227 03:31:31.176331 35358 net.cpp:86] Creating Layer conv5_3/sep
I1227 03:31:31.176334 35358 net.cpp:408] conv5_3/sep <- conv5_3/dw
I1227 03:31:31.176342 35358 net.cpp:382] conv5_3/sep -> conv5_3/sep
I1227 03:31:31.180510 35358 net.cpp:124] Setting up conv5_3/sep
I1227 03:31:31.180528 35358 net.cpp:131] Top shape: 128 512 7 7 (3211264)
I1227 03:31:31.180533 35358 net.cpp:139] Memory required for data: 2267163136
I1227 03:31:31.180541 35358 layer_factory.hpp:77] Creating layer conv5_3/sep/bn
I1227 03:31:31.180548 35358 net.cpp:86] Creating Layer conv5_3/sep/bn
I1227 03:31:31.180554 35358 net.cpp:408] conv5_3/sep/bn <- conv5_3/sep
I1227 03:31:31.180562 35358 net.cpp:369] conv5_3/sep/bn -> conv5_3/sep (in-place)
I1227 03:31:31.180737 35358 net.cpp:124] Setting up conv5_3/sep/bn
I1227 03:31:31.180745 35358 net.cpp:131] Top shape: 128 512 7 7 (3211264)
I1227 03:31:31.180750 35358 net.cpp:139] Memory required for data: 2280008192
I1227 03:31:31.180758 35358 layer_factory.hpp:77] Creating layer conv5_3/sep/scale
I1227 03:31:31.180775 35358 net.cpp:86] Creating Layer conv5_3/sep/scale
I1227 03:31:31.180780 35358 net.cpp:408] conv5_3/sep/scale <- conv5_3/sep
I1227 03:31:31.180788 35358 net.cpp:369] conv5_3/sep/scale -> conv5_3/sep (in-place)
I1227 03:31:31.180819 35358 layer_factory.hpp:77] Creating layer conv5_3/sep/scale
I1227 03:31:31.180928 35358 net.cpp:124] Setting up conv5_3/sep/scale
I1227 03:31:31.180938 35358 net.cpp:131] Top shape: 128 512 7 7 (3211264)
I1227 03:31:31.180943 35358 net.cpp:139] Memory required for data: 2292853248
I1227 03:31:31.180948 35358 layer_factory.hpp:77] Creating layer relu5_3/sep
I1227 03:31:31.180955 35358 net.cpp:86] Creating Layer relu5_3/sep
I1227 03:31:31.180960 35358 net.cpp:408] relu5_3/sep <- conv5_3/sep
I1227 03:31:31.180966 35358 net.cpp:369] relu5_3/sep -> conv5_3/sep (in-place)
I1227 03:31:31.180972 35358 net.cpp:124] Setting up relu5_3/sep
I1227 03:31:31.180979 35358 net.cpp:131] Top shape: 128 512 7 7 (3211264)
I1227 03:31:31.180984 35358 net.cpp:139] Memory required for data: 2305698304
I1227 03:31:31.180987 35358 layer_factory.hpp:77] Creating layer conv5_4/dw
I1227 03:31:31.180995 35358 net.cpp:86] Creating Layer conv5_4/dw
I1227 03:31:31.180999 35358 net.cpp:408] conv5_4/dw <- conv5_3/sep
I1227 03:31:31.181007 35358 net.cpp:382] conv5_4/dw -> conv5_4/dw
I1227 03:31:31.181226 35358 net.cpp:124] Setting up conv5_4/dw
I1227 03:31:31.181236 35358 net.cpp:131] Top shape: 128 512 7 7 (3211264)
I1227 03:31:31.181241 35358 net.cpp:139] Memory required for data: 2318543360
I1227 03:31:31.181246 35358 layer_factory.hpp:77] Creating layer conv5_4/dw/bn
I1227 03:31:31.181253 35358 net.cpp:86] Creating Layer conv5_4/dw/bn
I1227 03:31:31.181258 35358 net.cpp:408] conv5_4/dw/bn <- conv5_4/dw
I1227 03:31:31.181264 35358 net.cpp:369] conv5_4/dw/bn -> conv5_4/dw (in-place)
I1227 03:31:31.181434 35358 net.cpp:124] Setting up conv5_4/dw/bn
I1227 03:31:31.181442 35358 net.cpp:131] Top shape: 128 512 7 7 (3211264)
I1227 03:31:31.181447 35358 net.cpp:139] Memory required for data: 2331388416
I1227 03:31:31.181454 35358 layer_factory.hpp:77] Creating layer conv5_4/dw/scale
I1227 03:31:31.181461 35358 net.cpp:86] Creating Layer conv5_4/dw/scale
I1227 03:31:31.181466 35358 net.cpp:408] conv5_4/dw/scale <- conv5_4/dw
I1227 03:31:31.181473 35358 net.cpp:369] conv5_4/dw/scale -> conv5_4/dw (in-place)
I1227 03:31:31.181501 35358 layer_factory.hpp:77] Creating layer conv5_4/dw/scale
I1227 03:31:31.181613 35358 net.cpp:124] Setting up conv5_4/dw/scale
I1227 03:31:31.181622 35358 net.cpp:131] Top shape: 128 512 7 7 (3211264)
I1227 03:31:31.181627 35358 net.cpp:139] Memory required for data: 2344233472
I1227 03:31:31.181633 35358 layer_factory.hpp:77] Creating layer relu5_4/dw
I1227 03:31:31.181639 35358 net.cpp:86] Creating Layer relu5_4/dw
I1227 03:31:31.181644 35358 net.cpp:408] relu5_4/dw <- conv5_4/dw
I1227 03:31:31.181653 35358 net.cpp:369] relu5_4/dw -> conv5_4/dw (in-place)
I1227 03:31:31.181659 35358 net.cpp:124] Setting up relu5_4/dw
I1227 03:31:31.181665 35358 net.cpp:131] Top shape: 128 512 7 7 (3211264)
I1227 03:31:31.181669 35358 net.cpp:139] Memory required for data: 2357078528
I1227 03:31:31.181674 35358 layer_factory.hpp:77] Creating layer conv5_4/sep
I1227 03:31:31.181681 35358 net.cpp:86] Creating Layer conv5_4/sep
I1227 03:31:31.181686 35358 net.cpp:408] conv5_4/sep <- conv5_4/dw
I1227 03:31:31.181692 35358 net.cpp:382] conv5_4/sep -> conv5_4/sep
I1227 03:31:31.184480 35358 net.cpp:124] Setting up conv5_4/sep
I1227 03:31:31.184494 35358 net.cpp:131] Top shape: 128 512 7 7 (3211264)
I1227 03:31:31.184497 35358 net.cpp:139] Memory required for data: 2369923584
I1227 03:31:31.184504 35358 layer_factory.hpp:77] Creating layer conv5_4/sep/bn
I1227 03:31:31.184510 35358 net.cpp:86] Creating Layer conv5_4/sep/bn
I1227 03:31:31.184515 35358 net.cpp:408] conv5_4/sep/bn <- conv5_4/sep
I1227 03:31:31.184520 35358 net.cpp:369] conv5_4/sep/bn -> conv5_4/sep (in-place)
I1227 03:31:31.184686 35358 net.cpp:124] Setting up conv5_4/sep/bn
I1227 03:31:31.184695 35358 net.cpp:131] Top shape: 128 512 7 7 (3211264)
I1227 03:31:31.184703 35358 net.cpp:139] Memory required for data: 2382768640
I1227 03:31:31.184711 35358 layer_factory.hpp:77] Creating layer conv5_4/sep/scale
I1227 03:31:31.184718 35358 net.cpp:86] Creating Layer conv5_4/sep/scale
I1227 03:31:31.184722 35358 net.cpp:408] conv5_4/sep/scale <- conv5_4/sep
I1227 03:31:31.184728 35358 net.cpp:369] conv5_4/sep/scale -> conv5_4/sep (in-place)
I1227 03:31:31.184758 35358 layer_factory.hpp:77] Creating layer conv5_4/sep/scale
I1227 03:31:31.184859 35358 net.cpp:124] Setting up conv5_4/sep/scale
I1227 03:31:31.184867 35358 net.cpp:131] Top shape: 128 512 7 7 (3211264)
I1227 03:31:31.184871 35358 net.cpp:139] Memory required for data: 2395613696
I1227 03:31:31.184878 35358 layer_factory.hpp:77] Creating layer relu5_4/sep
I1227 03:31:31.184885 35358 net.cpp:86] Creating Layer relu5_4/sep
I1227 03:31:31.184888 35358 net.cpp:408] relu5_4/sep <- conv5_4/sep
I1227 03:31:31.184895 35358 net.cpp:369] relu5_4/sep -> conv5_4/sep (in-place)
I1227 03:31:31.184900 35358 net.cpp:124] Setting up relu5_4/sep
I1227 03:31:31.184906 35358 net.cpp:131] Top shape: 128 512 7 7 (3211264)
I1227 03:31:31.184911 35358 net.cpp:139] Memory required for data: 2408458752
I1227 03:31:31.184914 35358 layer_factory.hpp:77] Creating layer conv5_5/dw
I1227 03:31:31.184921 35358 net.cpp:86] Creating Layer conv5_5/dw
I1227 03:31:31.184926 35358 net.cpp:408] conv5_5/dw <- conv5_4/sep
I1227 03:31:31.184931 35358 net.cpp:382] conv5_5/dw -> conv5_5/dw
I1227 03:31:31.185138 35358 net.cpp:124] Setting up conv5_5/dw
I1227 03:31:31.185148 35358 net.cpp:131] Top shape: 128 512 7 7 (3211264)
I1227 03:31:31.185153 35358 net.cpp:139] Memory required for data: 2421303808
I1227 03:31:31.185158 35358 layer_factory.hpp:77] Creating layer conv5_5/dw/bn
I1227 03:31:31.185164 35358 net.cpp:86] Creating Layer conv5_5/dw/bn
I1227 03:31:31.185168 35358 net.cpp:408] conv5_5/dw/bn <- conv5_5/dw
I1227 03:31:31.185174 35358 net.cpp:369] conv5_5/dw/bn -> conv5_5/dw (in-place)
I1227 03:31:31.185339 35358 net.cpp:124] Setting up conv5_5/dw/bn
I1227 03:31:31.185348 35358 net.cpp:131] Top shape: 128 512 7 7 (3211264)
I1227 03:31:31.185353 35358 net.cpp:139] Memory required for data: 2434148864
I1227 03:31:31.185369 35358 layer_factory.hpp:77] Creating layer conv5_5/dw/scale
I1227 03:31:31.185375 35358 net.cpp:86] Creating Layer conv5_5/dw/scale
I1227 03:31:31.185380 35358 net.cpp:408] conv5_5/dw/scale <- conv5_5/dw
I1227 03:31:31.185386 35358 net.cpp:369] conv5_5/dw/scale -> conv5_5/dw (in-place)
I1227 03:31:31.185417 35358 layer_factory.hpp:77] Creating layer conv5_5/dw/scale
I1227 03:31:31.185515 35358 net.cpp:124] Setting up conv5_5/dw/scale
I1227 03:31:31.185524 35358 net.cpp:131] Top shape: 128 512 7 7 (3211264)
I1227 03:31:31.185528 35358 net.cpp:139] Memory required for data: 2446993920
I1227 03:31:31.185535 35358 layer_factory.hpp:77] Creating layer relu5_5/dw
I1227 03:31:31.185541 35358 net.cpp:86] Creating Layer relu5_5/dw
I1227 03:31:31.185545 35358 net.cpp:408] relu5_5/dw <- conv5_5/dw
I1227 03:31:31.185551 35358 net.cpp:369] relu5_5/dw -> conv5_5/dw (in-place)
I1227 03:31:31.185557 35358 net.cpp:124] Setting up relu5_5/dw
I1227 03:31:31.185564 35358 net.cpp:131] Top shape: 128 512 7 7 (3211264)
I1227 03:31:31.185567 35358 net.cpp:139] Memory required for data: 2459838976
I1227 03:31:31.185571 35358 layer_factory.hpp:77] Creating layer conv5_5/sep
I1227 03:31:31.185580 35358 net.cpp:86] Creating Layer conv5_5/sep
I1227 03:31:31.185583 35358 net.cpp:408] conv5_5/sep <- conv5_5/dw
I1227 03:31:31.185590 35358 net.cpp:382] conv5_5/sep -> conv5_5/sep
I1227 03:31:31.189699 35358 net.cpp:124] Setting up conv5_5/sep
I1227 03:31:31.189716 35358 net.cpp:131] Top shape: 128 512 7 7 (3211264)
I1227 03:31:31.189721 35358 net.cpp:139] Memory required for data: 2472684032
I1227 03:31:31.189728 35358 layer_factory.hpp:77] Creating layer conv5_5/sep/bn
I1227 03:31:31.189738 35358 net.cpp:86] Creating Layer conv5_5/sep/bn
I1227 03:31:31.189743 35358 net.cpp:408] conv5_5/sep/bn <- conv5_5/sep
I1227 03:31:31.189749 35358 net.cpp:369] conv5_5/sep/bn -> conv5_5/sep (in-place)
I1227 03:31:31.189934 35358 net.cpp:124] Setting up conv5_5/sep/bn
I1227 03:31:31.189944 35358 net.cpp:131] Top shape: 128 512 7 7 (3211264)
I1227 03:31:31.189947 35358 net.cpp:139] Memory required for data: 2485529088
I1227 03:31:31.189955 35358 layer_factory.hpp:77] Creating layer conv5_5/sep/scale
I1227 03:31:31.189962 35358 net.cpp:86] Creating Layer conv5_5/sep/scale
I1227 03:31:31.189967 35358 net.cpp:408] conv5_5/sep/scale <- conv5_5/sep
I1227 03:31:31.189975 35358 net.cpp:369] conv5_5/sep/scale -> conv5_5/sep (in-place)
I1227 03:31:31.190006 35358 layer_factory.hpp:77] Creating layer conv5_5/sep/scale
I1227 03:31:31.190125 35358 net.cpp:124] Setting up conv5_5/sep/scale
I1227 03:31:31.190135 35358 net.cpp:131] Top shape: 128 512 7 7 (3211264)
I1227 03:31:31.190140 35358 net.cpp:139] Memory required for data: 2498374144
I1227 03:31:31.190145 35358 layer_factory.hpp:77] Creating layer relu5_5/sep
I1227 03:31:31.190151 35358 net.cpp:86] Creating Layer relu5_5/sep
I1227 03:31:31.190156 35358 net.cpp:408] relu5_5/sep <- conv5_5/sep
I1227 03:31:31.190162 35358 net.cpp:369] relu5_5/sep -> conv5_5/sep (in-place)
I1227 03:31:31.190168 35358 net.cpp:124] Setting up relu5_5/sep
I1227 03:31:31.190174 35358 net.cpp:131] Top shape: 128 512 7 7 (3211264)
I1227 03:31:31.190178 35358 net.cpp:139] Memory required for data: 2511219200
I1227 03:31:31.190182 35358 layer_factory.hpp:77] Creating layer conv5_6/dw
I1227 03:31:31.190193 35358 net.cpp:86] Creating Layer conv5_6/dw
I1227 03:31:31.190198 35358 net.cpp:408] conv5_6/dw <- conv5_5/sep
I1227 03:31:31.190207 35358 net.cpp:382] conv5_6/dw -> conv5_6/dw
I1227 03:31:31.190433 35358 net.cpp:124] Setting up conv5_6/dw
I1227 03:31:31.190443 35358 net.cpp:131] Top shape: 128 512 4 4 (1048576)
I1227 03:31:31.190448 35358 net.cpp:139] Memory required for data: 2515413504
I1227 03:31:31.190454 35358 layer_factory.hpp:77] Creating layer conv5_6/dw/bn
I1227 03:31:31.190459 35358 net.cpp:86] Creating Layer conv5_6/dw/bn
I1227 03:31:31.190464 35358 net.cpp:408] conv5_6/dw/bn <- conv5_6/dw
I1227 03:31:31.190470 35358 net.cpp:369] conv5_6/dw/bn -> conv5_6/dw (in-place)
I1227 03:31:31.190649 35358 net.cpp:124] Setting up conv5_6/dw/bn
I1227 03:31:31.190659 35358 net.cpp:131] Top shape: 128 512 4 4 (1048576)
I1227 03:31:31.190663 35358 net.cpp:139] Memory required for data: 2519607808
I1227 03:31:31.190671 35358 layer_factory.hpp:77] Creating layer conv5_6/dw/scale
I1227 03:31:31.190677 35358 net.cpp:86] Creating Layer conv5_6/dw/scale
I1227 03:31:31.190683 35358 net.cpp:408] conv5_6/dw/scale <- conv5_6/dw
I1227 03:31:31.190690 35358 net.cpp:369] conv5_6/dw/scale -> conv5_6/dw (in-place)
I1227 03:31:31.190721 35358 layer_factory.hpp:77] Creating layer conv5_6/dw/scale
I1227 03:31:31.190845 35358 net.cpp:124] Setting up conv5_6/dw/scale
I1227 03:31:31.190855 35358 net.cpp:131] Top shape: 128 512 4 4 (1048576)
I1227 03:31:31.190860 35358 net.cpp:139] Memory required for data: 2523802112
I1227 03:31:31.190866 35358 layer_factory.hpp:77] Creating layer relu5_6/dw
I1227 03:31:31.190872 35358 net.cpp:86] Creating Layer relu5_6/dw
I1227 03:31:31.190877 35358 net.cpp:408] relu5_6/dw <- conv5_6/dw
I1227 03:31:31.190883 35358 net.cpp:369] relu5_6/dw -> conv5_6/dw (in-place)
I1227 03:31:31.190891 35358 net.cpp:124] Setting up relu5_6/dw
I1227 03:31:31.190896 35358 net.cpp:131] Top shape: 128 512 4 4 (1048576)
I1227 03:31:31.190901 35358 net.cpp:139] Memory required for data: 2527996416
I1227 03:31:31.190907 35358 layer_factory.hpp:77] Creating layer conv5_6/sep
I1227 03:31:31.190914 35358 net.cpp:86] Creating Layer conv5_6/sep
I1227 03:31:31.190919 35358 net.cpp:408] conv5_6/sep <- conv5_6/dw
I1227 03:31:31.190928 35358 net.cpp:382] conv5_6/sep -> conv5_6/sep
I1227 03:31:31.197638 35358 net.cpp:124] Setting up conv5_6/sep
I1227 03:31:31.197655 35358 net.cpp:131] Top shape: 128 1024 4 4 (2097152)
I1227 03:31:31.197660 35358 net.cpp:139] Memory required for data: 2536385024
I1227 03:31:31.197667 35358 layer_factory.hpp:77] Creating layer conv5_6/sep/bn
I1227 03:31:31.197679 35358 net.cpp:86] Creating Layer conv5_6/sep/bn
I1227 03:31:31.197683 35358 net.cpp:408] conv5_6/sep/bn <- conv5_6/sep
I1227 03:31:31.197690 35358 net.cpp:369] conv5_6/sep/bn -> conv5_6/sep (in-place)
I1227 03:31:31.197880 35358 net.cpp:124] Setting up conv5_6/sep/bn
I1227 03:31:31.197888 35358 net.cpp:131] Top shape: 128 1024 4 4 (2097152)
I1227 03:31:31.197893 35358 net.cpp:139] Memory required for data: 2544773632
I1227 03:31:31.197901 35358 layer_factory.hpp:77] Creating layer conv5_6/sep/scale
I1227 03:31:31.197908 35358 net.cpp:86] Creating Layer conv5_6/sep/scale
I1227 03:31:31.197913 35358 net.cpp:408] conv5_6/sep/scale <- conv5_6/sep
I1227 03:31:31.197919 35358 net.cpp:369] conv5_6/sep/scale -> conv5_6/sep (in-place)
I1227 03:31:31.197952 35358 layer_factory.hpp:77] Creating layer conv5_6/sep/scale
I1227 03:31:31.198071 35358 net.cpp:124] Setting up conv5_6/sep/scale
I1227 03:31:31.198081 35358 net.cpp:131] Top shape: 128 1024 4 4 (2097152)
I1227 03:31:31.198084 35358 net.cpp:139] Memory required for data: 2553162240
I1227 03:31:31.198091 35358 layer_factory.hpp:77] Creating layer relu5_6/sep
I1227 03:31:31.198097 35358 net.cpp:86] Creating Layer relu5_6/sep
I1227 03:31:31.198101 35358 net.cpp:408] relu5_6/sep <- conv5_6/sep
I1227 03:31:31.198109 35358 net.cpp:369] relu5_6/sep -> conv5_6/sep (in-place)
I1227 03:31:31.198117 35358 net.cpp:124] Setting up relu5_6/sep
I1227 03:31:31.198122 35358 net.cpp:131] Top shape: 128 1024 4 4 (2097152)
I1227 03:31:31.198127 35358 net.cpp:139] Memory required for data: 2561550848
I1227 03:31:31.198130 35358 layer_factory.hpp:77] Creating layer conv6/dw
I1227 03:31:31.198137 35358 net.cpp:86] Creating Layer conv6/dw
I1227 03:31:31.198143 35358 net.cpp:408] conv6/dw <- conv5_6/sep
I1227 03:31:31.198154 35358 net.cpp:382] conv6/dw -> conv6/dw
I1227 03:31:31.198421 35358 net.cpp:124] Setting up conv6/dw
I1227 03:31:31.198431 35358 net.cpp:131] Top shape: 128 1024 4 4 (2097152)
I1227 03:31:31.198436 35358 net.cpp:139] Memory required for data: 2569939456
I1227 03:31:31.198441 35358 layer_factory.hpp:77] Creating layer conv6/dw/bn
I1227 03:31:31.198451 35358 net.cpp:86] Creating Layer conv6/dw/bn
I1227 03:31:31.198456 35358 net.cpp:408] conv6/dw/bn <- conv6/dw
I1227 03:31:31.198462 35358 net.cpp:369] conv6/dw/bn -> conv6/dw (in-place)
I1227 03:31:31.198640 35358 net.cpp:124] Setting up conv6/dw/bn
I1227 03:31:31.198649 35358 net.cpp:131] Top shape: 128 1024 4 4 (2097152)
I1227 03:31:31.198653 35358 net.cpp:139] Memory required for data: 2578328064
I1227 03:31:31.198662 35358 layer_factory.hpp:77] Creating layer conv6/dw/scale
I1227 03:31:31.198670 35358 net.cpp:86] Creating Layer conv6/dw/scale
I1227 03:31:31.198675 35358 net.cpp:408] conv6/dw/scale <- conv6/dw
I1227 03:31:31.198681 35358 net.cpp:369] conv6/dw/scale -> conv6/dw (in-place)
I1227 03:31:31.198711 35358 layer_factory.hpp:77] Creating layer conv6/dw/scale
I1227 03:31:31.198828 35358 net.cpp:124] Setting up conv6/dw/scale
I1227 03:31:31.198838 35358 net.cpp:131] Top shape: 128 1024 4 4 (2097152)
I1227 03:31:31.198843 35358 net.cpp:139] Memory required for data: 2586716672
I1227 03:31:31.198849 35358 layer_factory.hpp:77] Creating layer relu6/dw
I1227 03:31:31.198855 35358 net.cpp:86] Creating Layer relu6/dw
I1227 03:31:31.198859 35358 net.cpp:408] relu6/dw <- conv6/dw
I1227 03:31:31.198865 35358 net.cpp:369] relu6/dw -> conv6/dw (in-place)
I1227 03:31:31.198874 35358 net.cpp:124] Setting up relu6/dw
I1227 03:31:31.198880 35358 net.cpp:131] Top shape: 128 1024 4 4 (2097152)
I1227 03:31:31.198884 35358 net.cpp:139] Memory required for data: 2595105280
I1227 03:31:31.198889 35358 layer_factory.hpp:77] Creating layer conv6/sep
I1227 03:31:31.198896 35358 net.cpp:86] Creating Layer conv6/sep
I1227 03:31:31.198901 35358 net.cpp:408] conv6/sep <- conv6/dw
I1227 03:31:31.198909 35358 net.cpp:382] conv6/sep -> conv6/sep
I1227 03:31:31.212138 35358 net.cpp:124] Setting up conv6/sep
I1227 03:31:31.212163 35358 net.cpp:131] Top shape: 128 1024 4 4 (2097152)
I1227 03:31:31.212168 35358 net.cpp:139] Memory required for data: 2603493888
I1227 03:31:31.212179 35358 layer_factory.hpp:77] Creating layer conv6/sep/bn
I1227 03:31:31.212191 35358 net.cpp:86] Creating Layer conv6/sep/bn
I1227 03:31:31.212198 35358 net.cpp:408] conv6/sep/bn <- conv6/sep
I1227 03:31:31.212205 35358 net.cpp:369] conv6/sep/bn -> conv6/sep (in-place)
I1227 03:31:31.212399 35358 net.cpp:124] Setting up conv6/sep/bn
I1227 03:31:31.212409 35358 net.cpp:131] Top shape: 128 1024 4 4 (2097152)
I1227 03:31:31.212412 35358 net.cpp:139] Memory required for data: 2611882496
I1227 03:31:31.212420 35358 layer_factory.hpp:77] Creating layer conv6/sep/scale
I1227 03:31:31.212429 35358 net.cpp:86] Creating Layer conv6/sep/scale
I1227 03:31:31.212433 35358 net.cpp:408] conv6/sep/scale <- conv6/sep
I1227 03:31:31.212445 35358 net.cpp:369] conv6/sep/scale -> conv6/sep (in-place)
I1227 03:31:31.212477 35358 layer_factory.hpp:77] Creating layer conv6/sep/scale
I1227 03:31:31.212595 35358 net.cpp:124] Setting up conv6/sep/scale
I1227 03:31:31.212605 35358 net.cpp:131] Top shape: 128 1024 4 4 (2097152)
I1227 03:31:31.212610 35358 net.cpp:139] Memory required for data: 2620271104
I1227 03:31:31.212616 35358 layer_factory.hpp:77] Creating layer relu6/sep
I1227 03:31:31.212622 35358 net.cpp:86] Creating Layer relu6/sep
I1227 03:31:31.212627 35358 net.cpp:408] relu6/sep <- conv6/sep
I1227 03:31:31.212633 35358 net.cpp:369] relu6/sep -> conv6/sep (in-place)
I1227 03:31:31.212640 35358 net.cpp:124] Setting up relu6/sep
I1227 03:31:31.212646 35358 net.cpp:131] Top shape: 128 1024 4 4 (2097152)
I1227 03:31:31.212649 35358 net.cpp:139] Memory required for data: 2628659712
I1227 03:31:31.212653 35358 layer_factory.hpp:77] Creating layer pool6
I1227 03:31:31.212662 35358 net.cpp:86] Creating Layer pool6
I1227 03:31:31.212667 35358 net.cpp:408] pool6 <- conv6/sep
I1227 03:31:31.212673 35358 net.cpp:382] pool6 -> pool6
I1227 03:31:31.212697 35358 net.cpp:124] Setting up pool6
I1227 03:31:31.212705 35358 net.cpp:131] Top shape: 128 1024 1 1 (131072)
I1227 03:31:31.212709 35358 net.cpp:139] Memory required for data: 2629184000
I1227 03:31:31.212713 35358 layer_factory.hpp:77] Creating layer pool6_pool6_0_split
I1227 03:31:31.212721 35358 net.cpp:86] Creating Layer pool6_pool6_0_split
I1227 03:31:31.212726 35358 net.cpp:408] pool6_pool6_0_split <- pool6
I1227 03:31:31.212734 35358 net.cpp:382] pool6_pool6_0_split -> pool6_pool6_0_split_0
I1227 03:31:31.212743 35358 net.cpp:382] pool6_pool6_0_split -> pool6_pool6_0_split_1
I1227 03:31:31.212751 35358 net.cpp:382] pool6_pool6_0_split -> pool6_pool6_0_split_2
I1227 03:31:31.212759 35358 net.cpp:382] pool6_pool6_0_split -> pool6_pool6_0_split_3
I1227 03:31:31.212766 35358 net.cpp:382] pool6_pool6_0_split -> pool6_pool6_0_split_4
I1227 03:31:31.212774 35358 net.cpp:382] pool6_pool6_0_split -> pool6_pool6_0_split_5
I1227 03:31:31.212782 35358 net.cpp:382] pool6_pool6_0_split -> pool6_pool6_0_split_6
I1227 03:31:31.212873 35358 net.cpp:124] Setting up pool6_pool6_0_split
I1227 03:31:31.212882 35358 net.cpp:131] Top shape: 128 1024 1 1 (131072)
I1227 03:31:31.212888 35358 net.cpp:131] Top shape: 128 1024 1 1 (131072)
I1227 03:31:31.212893 35358 net.cpp:131] Top shape: 128 1024 1 1 (131072)
I1227 03:31:31.212898 35358 net.cpp:131] Top shape: 128 1024 1 1 (131072)
I1227 03:31:31.212903 35358 net.cpp:131] Top shape: 128 1024 1 1 (131072)
I1227 03:31:31.212908 35358 net.cpp:131] Top shape: 128 1024 1 1 (131072)
I1227 03:31:31.212913 35358 net.cpp:131] Top shape: 128 1024 1 1 (131072)
I1227 03:31:31.212916 35358 net.cpp:139] Memory required for data: 2632854016
I1227 03:31:31.212920 35358 layer_factory.hpp:77] Creating layer cls_gender
I1227 03:31:31.212931 35358 net.cpp:86] Creating Layer cls_gender
I1227 03:31:31.212936 35358 net.cpp:408] cls_gender <- pool6_pool6_0_split_0
I1227 03:31:31.212949 35358 net.cpp:382] cls_gender -> cls_gender
I1227 03:31:31.213197 35358 net.cpp:124] Setting up cls_gender
I1227 03:31:31.213207 35358 net.cpp:131] Top shape: 128 2 1 1 (256)
I1227 03:31:31.213212 35358 net.cpp:139] Memory required for data: 2632855040
I1227 03:31:31.213218 35358 layer_factory.hpp:77] Creating layer cls_gender_cls_gender_0_split
I1227 03:31:31.213230 35358 net.cpp:86] Creating Layer cls_gender_cls_gender_0_split
I1227 03:31:31.213235 35358 net.cpp:408] cls_gender_cls_gender_0_split <- cls_gender
I1227 03:31:31.213243 35358 net.cpp:382] cls_gender_cls_gender_0_split -> cls_gender_cls_gender_0_split_0
I1227 03:31:31.213250 35358 net.cpp:382] cls_gender_cls_gender_0_split -> cls_gender_cls_gender_0_split_1
I1227 03:31:31.213287 35358 net.cpp:124] Setting up cls_gender_cls_gender_0_split
I1227 03:31:31.213295 35358 net.cpp:131] Top shape: 128 2 1 1 (256)
I1227 03:31:31.213300 35358 net.cpp:131] Top shape: 128 2 1 1 (256)
I1227 03:31:31.213304 35358 net.cpp:139] Memory required for data: 2632857088
I1227 03:31:31.213308 35358 layer_factory.hpp:77] Creating layer loss_gender
I1227 03:31:31.213315 35358 net.cpp:86] Creating Layer loss_gender
I1227 03:31:31.213320 35358 net.cpp:408] loss_gender <- cls_gender_cls_gender_0_split_0
I1227 03:31:31.213326 35358 net.cpp:408] loss_gender <- gender_label_data_1_split_0
…
